cartpole_rf_results/num_episodes=3000_alpha_policy=0.005_alpha_value=0.005_gamma=0.99_reward_scale=0.005/policy_net.pth (torch, 38822 bytes, 6 tensors)

hidden_layer1.weight f4 [128, 4]
00000000: aef5 8c3e d606 b23c 9e3c 603f c813 173f
00000010: 8bcd 57be 91fb 5dbe 0c06 bcbd 4736 b63e
00000020: ccb2 813e ddf7 28be e56f 473e ce45 103f
00000030: ded1 4b3e 466d 833d 3937 76be 8f55 c1bc
00000040: 87dc e23d 29e8 8a3d 87c0 88bd 2922 4dbe
00000050: 6403 e9bd c599 16bf def6 71bf 02bf d8be
00000060: cef7 f83e 45c2 3dbe a620 09be 5373 b03e
00000070: 0a3f d4be 7688 fbbd 35d4 133f 0ed1 523e
00000080: 7087 0d3f 58e8 12be 1e31 8b3e 7dc1 183f
00000090: 8a99 50be d818 76be 766e 3bbf 9a53 29bf
000000a0: 7637 fb3d 47b2 7a3e ec5b b6be ee6e 18bf
000000b0: 430c 6c3e ff8b 84be d42e e3bd 3bd2 2dbd
000000c0: 7c7e e4be 2082 fd3e 6fee 5e3e c77c e73e
000000d0: d2b7 cb3e 4b69 fabd da88 22bf a021 8fbc
000000e0: 02fc a9be 795f 35be a21a 4abf 4336 ebbe
000000f0: 2914 613e c3e5 8ebe d902 0ebe 5f14 2ebf
00000100: 0763 63be 964f e5be 816b be3d 33cc 15be
00000110: 27b9 0b3e 98e3 9abe 5848 4cbf e933 fdbe
00000120: c572 0cbe 21db 97bd e727 b43c 5e65 12bf
00000130: 0855 d13e cebd ee3e ba66 b03b a5e1 f9be
00000140: e384 bebe 347c 703e beb1 efbe f764 483e
00000150: 791d c1bd 2daf 9ebe b703 d8be fa22 91bd
00000160: bc6d df3e f72d c6be 84e4 6bbf fb05 36bf
00000170: fa96 413e b0c8 b0bd 3d55 2ebe 879d 3e3e
00000180: 92b3 b5be b4a4 003e e097 923e f059 75be
00000190: 6108 87be 8a3e 253d 46c2 5ebe d8c9 41be
000001a0: fc5a 4abe 412f 1a3e 831d b93d 429b ba3d
000001b0: ba96 0a3e 884a 393e 518e 1bbe f5ef 11bf
000001c0: 6bc8 b9be da71 d43e 1631 2cbe ae94 90bd
000001d0: 2fda 24bd 5569 bb3e 9fd9 2fbf de22 0cbf
000001e0: 5800 ea3d 9d37 ca3e d6a8 973e eaa5 4c3e
000001f0: 29fb d6be 850b f5bc ea95 6b3f 7919 6d3e
00000200: 35fb a5be 3e75 f63e a2be eb3d ff63 47be
00000210: 9837 b93d 198c 10be e8a5 d1bd e152 c3be
00000220: 3628 c5be 4d67 adbe 9f20 863d 4dde 803e
00000230: 620a 8cbe 4186 d43e ed37 b43e fbaf 903e
00000240: ecdd 6f3e 009b 40be 796d b9bd fc7b a3be
00000250: eb09 d63e 5f86 073e d5bb 083f 9520 bc3e
00000260: 7d05 ab3e 0a4a dcbe 20a2 9cbe fb2d ffbe
00000270: 1e8f 8e3d 018e c13e 87bc 6fbc 9d02 3b3c
00000280: 34cd 95be ab80 acbe 7a2a d5be 3ec4 16bf
00000290: 27a5 a4be d971 44be 6d6b a7bc 2136 a1bd
000002a0: 2eba 3f3d 3bbd 043f 247a 783e a0a1 ab3e
000002b0: 7b37 d3be cf24 db3e 2750 5fbe 0144 db3c
000002c0: 4072 38be 65c2 053e c620 1c3f 12a8 b03d
000002d0: 1242 aabe 4956 023f 54b9 d1be 9881 ddbe
000002e0: e92d 1cbe c87a e43e ea47 9e3d 4a26 d4be
000002f0: 425b 8b3e f2c6 0abe c1d1 bf3d 171f 78bd
00000300: 7515 2cbd 9c98 243e 4cc4 2e3f 33de ed3e
00000310: e3b2 87bd 4c2a 6ebe 4e93 763e 393b c23d
00000320: ecea e9bd bbac af3e 5c73 d6be c3f0 f1be
00000330: 30b8 ab3e 09f8 babe aece b23e 530f 79be
00000340: 4d7a be3e 9e3d a0be f4c7 e83c ab01 0f3d
00000350: 9a19 8fbe 3ed5 a8be f0e4 2a3f 169f 2d3f
00000360: 557d 0a3e 9f97 603e 5676 08bf fc27 19bf
00000370: 67aa 953e e57c a7be 3399 8fbe 4c31 be3d
00000380: 6425 5c3e fb8b 2e3f 41d3 243f 1c4f d63e
00000390: 11ed 853d cb94 2ebe decb 5ebf 27d5 0abe
000003a0: 4ebd b8be 65d2 b03e 996d b03e 9f3a d83e
000003b0: 1fe0 883e dd6c c83e 6840 f73e 7e7f fe3e
000003c0: 6800 27be b816 9d3d 6e8b bd3e 38f5 c9bd
000003d0: db6d cbbe bfb9 fbbd 967f a8be 3240 52be
000003e0: fc34 3f3e 2b5c 77bd 71d8 283f c1ad ee3e
000003f0: 947b 80bc 3b26 43be f2d0 22bf b37b 02bf
0.2753119 0.021731775 0.87592494 0.5901456 -0.21074502 -0.21677996 -0.09180841 0.35588285
0.25331724 -0.16500802 0.19476278 0.56356514 0.19904277 0.06417327 -0.24044503 -0.023600368
0.110772185 0.06782562 -0.06677347 -0.20032562 -0.113776 -0.58828384 -0.94517314 -0.42333227
0.4862656 -0.18531139 -0.1339136 0.34462985 -0.41454345 -0.12281887 0.5774568 0.2058756
0.55284786 -0.14346445 0.2718591 0.5967024 -0.2037107 -0.24032915 -0.73215425 -0.6614319
0.12266438 0.2448207 -0.35617006 -0.59544265 0.23051552 -0.2588806 -0.11092916 -0.04243682
-0.4462775 0.4951334 0.21770643 0.45212385 0.3978868 -0.12227114 -0.6349007 -0.017472088
-0.3320008 -0.17712201 -0.7894689 -0.45939836 0.21980347 -0.2790967 -0.13868274 -0.67999834
-0.22205745 -0.44787282 0.092978485 -0.14628677 0.13644849 -0.30251765 -0.7979789 -0.49453667
-0.13715656 -0.074148424 0.021991683 -0.57185924 0.40885186 0.46629184 0.0053833397 -0.48804966
-0.3721076 0.2348488 -0.46815294 0.19569765 -0.094294496 -0.30993024 -0.42190334 -0.070867494
0.43638408 -0.38706943 -0.9214556 -0.71102875 0.18905249 -0.08632028 -0.17024703 0.1861478
-0.35488564 0.1256283 0.28631496 -0.2396009 -0.2637358 0.040342845 -0.21753797 -0.18924654
-0.1976127 0.15057088 0.09038832 0.09111644 0.1353406 0.18094838 -0.15191008 -0.5700677
-0.3628572 0.41493112 -0.168156 -0.070596084 -0.04024714 0.366038 -0.6869144 -0.54740703
0.11425847 0.39495555 0.29621 0.19985166 -0.41988495 -0.02991272 0.92025626 0.23154248
-0.32418218 0.48136324 0.1151097 -0.19471739 0.09043807 -0.14115943 -0.10236722 -0.3814917
-0.3850724 -0.33867875 0.06549191 0.25169602 -0.2735167 0.41508678 0.35198918 0.28259262
0.234245 -0.18809128 -0.090540834 -0.3193053 0.41804442 0.13234852 0.5341161 0.36743608
0.33402625 -0.43025237 -0.30592442 -0.49839768 0.06960891 0.37803653 -0.014632351 0.011414197
-0.2925812 -0.33691916 -0.4163397 -0.5889319 -0.3215725 -0.19184054 -0.020436967 -0.078716524
0.046808414 0.5185124 0.24265343 0.33521748 -0.41253266 0.4280152 -0.2180792 0.026765825
-0.18012333 0.13062437 0.6098751 0.08625807 -0.33253533 0.5091291 -0.40961707 -0.43262935
-0.15251888 0.44624925 0.0772856 -0.41435462 0.27218062 -0.13552454 0.09366179 -0.060576525
-0.04201265 0.16073841 0.68268275 0.46458587 -0.06625917 -0.23258322 0.2407963 0.09483952
-0.11421761 0.3431147 -0.41884887 -0.47254 0.3353896 -0.3651736 0.3492331 -0.24322252
0.37202683 -0.3129701 0.028415658 0.0349137 -0.2794922 -0.3297519 0.6675558 0.6782087
0.13524373 0.21932839 -0.53305566 -0.59826636 0.2923157 -0.32712474 -0.2804657 0.092867464
0.21498638 0.68182343 0.6438485 0.4185723 0.065393575 -0.17048948 -0.87029827 -0.13557874
-0.36081928 0.34535518 0.34458616 0.42232224 0.2673349 0.39145556 0.48291326 0.49706644
-0.16308749 0.07670349 0.3702044 -0.09861225 -0.3973225 -0.12291288 -0.3290984 -0.20532301
0.18672556 -0.060390633 0.65955263 0.4661694 -0.015683927 -0.19057553 -0.63600075 -0.5097

hidden_layer1.bias f4 [128]
00000000: 9d4b 6c3e 7217 02bf a78a 883e 1870 8d3e
00000010: a4c7 cdbd 2384 fa3d 2c5b f1bd 6b96 7c3e
00000020: 1d1b e9bd b108 933e 5eb3 88be ca2c 4ebe
00000030: 5bdf 5abe 8e50 133e 3413 6e3e 446b ff3d
00000040: 52ee 93be 484e 9f3e e2bd cf3c 84f2 dbbe
00000050: d062 0ebe 2696 dbbd ff12 8a3e b90e dcbe
00000060: 15bb 01bf 0875 893e a1ac 9bbe 1774 8b3e
00000070: 5b21 65be c66a ec3d a434 01bf 036e 863e
00000080: f274 933e e268 cdbe 31df 0ebe cfe3 06bf
00000090: c7f1 d5be 19b7 203e a758 f23d 0238 76be
000000a0: 5646 853e a28c 33be b373 443e 3774 81be
000000b0: 91af cc3c b72c 18be e6e0 7a3e 11cc 0dbf
000000c0: 3e61 7a3e 41e4 ef3d 996c 9ebc ea01 e4be
000000d0: f55f 9a3e 9ab0 00be f60d 70be 23ca bcbe
000000e0: 390f 623e be40 593e 3717 3d3e a085 5a3e
000000f0: 48e2 f2be 0491 eebe 8f5b ae3e d1b2 873e
00000100: dbde 643e 0be2 cb3e f983 fabe ba31 543e
00000110: cb54 a13e c825 9b3e 0aea 07bf e865 7c3e
00000120: 6c26 8ebe e72c 9ebe 558f 05bf bcdd 81be
00000130: 66cb 243e ffad 953e 92aa 2dbd 2f9f ec3e
00000140: c4db 91be b559 52bd 787a 4f3d b660 623e
00000150: b7de 233e 6da2 72be 9e1f 2ebe a64f 66be
00000160: 8db9 54bd a444 f4be dadc d4be 5b81 0b3e
00000170: 588a 97be f648 c83e d285 ed3d 4553 f4bc
00000180: d012 b73e 0891 f6be ddad 9fbd f319 463e
00000190: 4578 afbc 8ca2 263e fe09 db3e 7ac8 9d3e
000001a0: f646 7c3e cdfc 343e 228b d7bc 2abf b7bd
000001b0: a3db fdbd 6ce8 08be 75a9 bdbe 9424 263e
000001c0: df37 cdbe 66f1 eb3c 6ee6 c4be 026d 6cbe
000001d0: d16d d73e b8bf bb3d cdef 97bc 1b33 503e
000001e0: 6a53 96be 1bfb 97be 1260 683d 777a fabe
000001f0: 583e 223d 7187 1d3e 63d4 1e3e 6be6 81be
0.23075719 -0.50817025 0.26668283 0.27624583 -0.10047844 0.12232234 -0.11784968 0.24666755
-0.113821246 0.2871757 -0.26699346 -0.20134273 -0.21374266 0.14386198 0.23249513 0.12471631
-0.2889276 0.3111441 0.025359098 -0.42958462 -0.13904881 -0.10721998 0.26967618 -0.42979982
-0.5067609 0.268471 -0.30405143 0.27237007 -0.22376005 0.11543803 -0.5047095 0.26255807
0.2880016 -0.40119082 -0.13952328 -0.5269136 -0.41786024 0.15694846 0.11833315 -0.24044803
0.26030225 -0.17534116 0.19184761 -0.25283977 0.02498606 -0.14860807 0.24499854 -0.55389506
0.24451157 0.11713458 -0.019338893 -0.4453271 0.30151334 -0.12567368 -0.23442826 -0.36872968
0.2207612 0.21216103 0.18465887 0.21340036 -0.47438264 -0.46595013 0.3405423 0.26503614
0.22350638 0.39820895 -0.48928812 0.20722094 0.31510004 0.30302262 -0.5309149 0.24648249
-0.2776369 -0.30893633 -0.5217183 -0.25364482 0.16093215 0.2923431 -0.042398997 0.46215197
-0.2848798 -0.051355083 0.050653905 0.22107205 0.16002928 -0.23694773 -0.17004248 -0.22491321
-0.051934768 -0.4770862 -0.41574746 0.13623564 -0.29597735 0.39118165 0.1159779 -0.029824862
0.3575654 -0.48157525 -0.07796834 0.19345836 -0.021419654 0.16272944 0.4278106 0.30817014
0.24636444 0.17674561 -0.02631146 -0.089720085 -0.12395408 -0.13369912 -0.37043348 0.16224891
-0.4008169 0.028801631 -0.38457054 -0.23088458 0.4207597 0.09167427 -0.018546963 0.20331995
-0.29360515 -0.29683766 0.056732245 -0.48921558 0.039610237 0.15383698 0.15510707 -0.25371107

hidden_layer2.weight f4 [64, 128]
00000000: d2f0 2bbd 476b a23d 91c0 4ab9 07a1 f13c
00000010: 30b4 92bc 15b1 713c a929 da3c 2628 eabb
00000020: 0fc6 54bd b673 b0bd a4fa 2cbd f66a 0f3a
00000030: 4c3d 88bd 6939 26bc db7c 12bd a5e8 b83c
00000040: 1a80 19bd 2791 dfbd 5117 9ebd 5ddb 71bd
00000050: 5de7 96bc 87b5 e1bd c3c5 04bd 7a62 0dbd
00000060: ff57 9c3d 2bc7 00bd 2bec f93c aefe b33c
00000070: 8f51 533d 14b5 99bb 98ed 493d 52dd 6a3c
00000080: 4ac4 9e3d 6f60 2abd 16ce b6bc d7be b3bd
00000090: f302 22bd 7f2c 3a3d 5fe8 9d3c be03 ffbc
000000a0: 5d51 4f3d d2b9 4bbd eee4 ef3c b631 aabd
000000b0: 01fc 2b3d 9234 0fbc c558 5ebc db04 473c
000000c0: f272 24bd 55f8 06bd 3ff4 0e3d 8978 0cbd
000000d0: 00fa 48bd dfaf 1fbc 1b6a a43d 36a4 66bc
000000e0: 4fbc 3ebd 5b3f 4abd 467a f7bd a829 493c
000000f0: 8d3b 633a 50d1 7f3c 15d2 cbbc a999 fabc
00000100: c01b 46bd 699b 8fbc 7be2 a7bd 4f7c f13c
00000110: c7ce ddbd b7d3 e03a b7e4 a23d a847 b4bd
00000120: 5a0e 6ebb 11bb 15bd e65a a7bd c62d 0f3d
00000130: 2457 d33c b155 8ebd a507 c63c 58b3 ecbd
00000140: d908 013c d592 e3bd 6e56 a03c b7c9 f1bb
00000150: 97e8 91bd c619 9d3d f050 363b 0e5f ebbd
00000160: eded 7dbd 4c06 5fbd 6475 e13c 9943 d6bc
00000170: e8b3 a1bd cdff d5bd c46e 56bd e376 bfbd
00000180: d5b5 bfbc bbd0 133d 5354 b3bd 7c36 77bd
00000190: c76b 703d 6534 d3bd 9835 99bd a13e 73bd
000001a0: 5961 47bd c0e8 ffbd b4ad d0bd e087 353d
000001b0: 32d6 433d b8ea 6bbd 8230 d6bc ebe4 5abd
000001c0: 655b 83bd 7776 853c d7b0 463d 35f8 04bd
000001d0: 310a 12bc 9c07 53bd cc0c 4e3d 0576 0dbd
000001e0: ef8c 03bd 6567 6fbd d4b9 83bd f7d3 443d
000001f0: e88d f0bc 8fd7 e4bd 04c6 da3c c8f7 c0bc
00000200: 1305 b8bd 0fe1 f0bc 56d6 fa3c 6bab 9b3c
00000210: f153 f1bc 1d6f 72bd ee80 9ebc 03dc a0bb
00000220: 02ff 653b d669 80bd 9514 44bc 0868 6abd
00000230: 5f69 debc 9271 cd3b 3db8 8cbd caaf e63b
00000240: 59de 77bc b3f2 8fbc db80 83bd 6211 833d
00000250: 003a 533c 4440 6b3d 6738 91bd 5ea7 583d
00000260: 0f21 df3b d524 adbd e989 a63d 6a08 94bd
00000270: b02f a8bc 952a b43d 650e aabd 2fdc 3dbd
00000280: 8fea 6abd fe3e 6dbd 7705 cabd 6ea9 a2bd
00000290: 9e1c cebc c3e1 c7bc e35b f63c 1d63 01bd
000002a0: a8cf 72bd 9304 903d 2cf2 06bd cf43 41bd
000002b0: 29d5 78bd ac7d 773d c913 01bd d511 f03b
000002c0: 366b 003d 98ad 0d3d bad5 d23b 92a3 cd3c
000002d0: 0714 bc3c aec6 d0bc 4eb1 1e3d 0cb1 4b3d
000002e0: ae92 dabc f98a 483d 14ed 5b3d a21e ec3c
000002f0: cc75 7bbd 2d19 9a3c d681 80bd 8866 94bb
00000300: 29fc a13b f915 623d 2a78 933c cf7c 50bc
00000310: ef92 f03b 11fd babd 087e ddbc 6658 89bc
00000320: f150 7a3d 4fcf 643a 6ceb 57bd 386f 9ebd
00000330: 1630 77bd 9852 97bd 7387 343d d6b7 0fbc
00000340: f2dd d93c 38b8 81bd c02f 86bd d4dd 8abd
00000350: 29b7 85bd 3196 46bd 6ea6 df3c e9a1 713d
00000360: 5e16 773c cf91 0d3d 4a63 a23d fe7a 11bd
00000370: 74bd 80bd 0fbf e4bd f606 703c 8087 3bbd
00000380: 0395 22bc 6a03 893d 4779 06bc 0092 143d
00000390: 124e eb3c d539 06bd 3101 97bd 3860 d3bd
000003a0: 1ca2 90bd 107d a9bd fac5 813c d22c 2d3d
000003b0: f7f8 453c babc f23c ebca 9d3d dd4c 09bd
000003c0: eea6 97bd 41c9 0abd 120a 90bd ccf7 133d
000003d0: aeb0 b3bd cd91 4dbd 9315 ffbb b0d7 58bd
000003e0: e3c8 863d 80ff 7cbd 5bcb babd 4231 563d
000003f0: 696c 8fbc 689a 94bd 9101 db3c 833d 453d
-0.04197771 0.07930618 -0.00019335958 0.02949573 -0.017908186 0.014751692 0.026631193 -0.0071458993
-0.051946696 -0.0861582 -0.042231217 0.00054709555 -0.066523165 -0.010145524 -0.035763603 0.022571871
-0.037475683 -0.109163575 -0.07719291 -0.05904709 -0.01842087 -0.11020952 -0.032415163 -0.034517743
0.076339714 -0.03143994 0.030508121 0.021972027 0.051591452 -0.0046907756 0.049298853 0.014334993
0.07752283 -0.041595872 -0.022315066 -0.08776634 -0.039553594 0.04545259 0.019275842 -0.031129714
0.050614703 -0.04973776 0.029283967 -0.08310263 0.041988377 -0.008740561 -0.013570969 0.012147154
-0.040148683 -0.03295167 0.0349009 -0.03429464 -0.049066544 -0.009746521 0.080280505 -0.014077237
-0.046566304 -0.049376827 -0.12083869 0.012277998 0.00086682366 0.015613869 -0.024880448 -0.030590849
-0.04836631 -0.01753016 -0.081974946 0.02947822 -0.10830455 0.001715294 0.0795378 -0.0880273
-0.0036324472 -0.036555354 -0.081716344 0.034955762 0.025798388 -0.06949938 0.024173567 -0.115576446
0.007875645 -0.1111199 0.019572463 -0.0073787826 -0.07124441 0.076709315 0.0027819239 -0.114927396
-0.06199448 -0.054449365 0.027521797 -0.02615528 -0.078956425 -0.10449181 -0.052351728 -0.09348848
-0.023402134 0.036087733 -0.08756318 -0.060354695 0.058696534 -0.10312728 -0.07480925 -0.0593859
-0.048676822 -0.124955654 -0.10189381 0.044319034 0.047811694 -0.057596892 -0.026146177 -0.05344097
-0.064139165 0.01629184 0.04850849 -0.03246327 -0.008913563 -0.05152093 0.050305173 -0.03453638
-0.032116827 -0.058448214 -0.06431928 0.048053708 -0.029364541 -0.11173927 0.02670575 -0.023555651
-0.08985343 -0.029404191 0.030619781 0.019002637 -0.029458972 -0.059187997 -0.019348588 -0.00490904
0.0035094623 -0.062701866 -0.011967798 -0.05722812 -0.027149854 0.006269642 -0.06871078 0.0070399987
-0.015128695 -0.017571783 -0.064210616 0.063998 0.012892246 0.057434335 -0.07090836 0.05289399
0.006809361 -0.08454291 0.08131773 -0.07228167 -0.020530552 0.087971844 -0.08303527 -0.04635256
-0.0573526 -0.057921402 -0.098643236 -0.079424724 -0.02516013 -0.024399644 0.030073112 -0.031588662
-0.059280068 0.070321225 -0.032945797 -0.047183808 -0.06075016 0.060422584 -0.03151301 0.0073263445
0.031352244 0.03458938 0.0064341696 0.02510241 0.022958769 -0.025485363 0.03874331 0.049729392
-0.02668127 0.04896066 0.053692892 0.0288232 -0.061391637 0.018810833 -0.06274764 -0.0045288242
0.00494339 0.055196736 0.018001635 -0.012725069 0.0073417346 -0.091303 -0.027037635 -0.016765784
0.061112348 0.0008728401 -0.05271475 -0.07736057 -0.060348593 -0.073888004 0.044074487 -0.008771857
0.02659509 -0.06333965 -0.06552076 -0.067805916 -0.06529076 -0.048483077 0.02730104 0.0589923
0.015081016 0.034562882 0.07929094 -0.035517685 -0.06286135 -0.11169254 0.014650097 -0.04578352
-0.0099232225 0.06690104 -0.008207626 0.03627205 0.02872375 -0.032769997 -0.07373274 -0.10321087
-0.0706217 -0.08275807 0.015841473 0.042279072 0.012083284 0.029631007 0.07704719 -0.03352057
-0.07404886 -0.033883337 -0.07033171 0.03612499 -0.08773933 -0.050187875 -0.0077845543 -0.05294007
0.06581285 -0.0617671 -0.09120818 0.05229307 -0.017507749 -0.07256013 0.026734145 0.048154365

hidden_layer2.bias f4 [64]
00000000: a915 33bd 4ea8 1fbd ccd2 b0bd 05e0 d23c
00000010: 6e44 42bd 2e5b 483d 73ac fdbd 2c44 613d
00000020: a09a 06be b5fa be3c b80d 7fbc fec4 1a3d
00000030: 2c2d 83bd 01f3 e6bb ec29 f3ba 4677 c5bd
00000040: 6a6f 28bd 097b 843b 009b 96bd db49 6f3d
00000050: 4498 5ebc bdd6 96bd 6694 023e fcfa c5bd
00000060: 264a 1cbd e587 c33d d5a0 9c3d a422 aabd
00000070: e41c 97bc e6ce a63b ce7f 92bd 1d28 1c3d
00000080: 8cb4 bb3c 5c10 e4bd 9c56 24bd 54e0 de3c
00000090: 9136 3b3c 50ce d0bd 1af7 01be d4d0 023d
000000a0: 1ff6 97bd c9ed dabc d019 1f3d 462e edbc
000000b0: b67a 90bd 0e99 403c 4a60 463c 744d 05bc
000000c0: 3e8e 7e3d 4580 253c 8dc4 96bc 3cfb cfbd
000000d0: a2c1 9fbd c9bc 363d cd14 293d e601 97bd
000000e0: c182 15be 10c4 663c a775 e7bd 0f23 93bd
000000f0: 64eb 02bd 01bb 2d3d 7fdd 7b3d d8f3 6abd
-0.04372183 -0.038978867 -0.08633956 0.025741586 -0.04742854 0.04891508 -0.12386408 0.054996654
-0.13144922 0.023312906 -0.015567236 0.037785523 -0.064051 -0.0070480113 -0.0018551922 -0.0964189
-0.041121878 0.0040429872 -0.07353783 0.058420043 -0.013586108 -0.07365177 0.12751922 -0.09667012
-0.03815665 0.09547404 0.07647864 -0.083073884 -0.018446393 0.005090582 -0.07153283 0.038124193
0.02291324 -0.11135933 -0.04012166 0.027206577 0.011426584 -0.10195601 -0.12691918 0.031937435
-0.07419991 -0.026724713 0.038842976 -0.028952729 -0.07054655 0.011755241 0.012107918 -0.008136142
0.06214737 0.010101383 -0.01840427 -0.10155341 -0.078006044 0.044613633 0.041279603 -0.07373409
-0.1460066 0.014084831 -0.11301737 -0.07184421 -0.031962767 0.04241467 0.061490532 -0.057361454

output_layer.weight f4 [2, 64]
00000000: 27b7 503d 4471 babd d512 e43d c98f a03c
00000010: cfcb b13c 9216 bb3d 3e58 343c a6f9 7d3d
00000020: f896 903d 8b31 ae3d ca8b bd3d 7f02 313c
00000030: 1a40 2b3d 521e 4d3e cacc b6bd 7b0f b83d
00000040: 1aec 983d c428 ab3b 9e79 193d b957 593e
00000050: 11b2 debd 18d6 f23d de1c b1be b43c fa3c
00000060: 7860 7bbc d814 2e3d 8b32 693e b043 8abd
00000070: 8566 a93d e222 cebd 5999 97bd e04a 103e
00000080: 4dc4 2c3e e5a7 42bc b64f 91bc 7722 c23d
00000090: 2354 8cbd e626 a03d f4d8 1c3d bdc1 9ebd
000000a0: 91f0 e3bc 440f 0cbd c3f1 70bb 881a 90bd
000000b0: 6339 433b 7baf 3abd 374f bb3d 9e39 5ebd
000000c0: 0fb5 01be 09ad b5bc cfbf df3c 4c3f f7bd
000000d0: 4838 27bd 4926 18bd 3ea6 d83c dbbf 55bd
000000e0: c388 133d 0012 c53d cf52 ddbd bdbb 73bd
000000f0: ae46 26bd c0f6 0f3d a1cb 1a3e e38c d4bd
00000100: cb45 203d db5c 8ebc 88ca f73c de73 ec3c
00000110: 01a2 21bd 2fdf 79bd 217e 513d 4f76 54be
00000120: 37c0 a53d 506d aa3d e689 923d 55f8 efbd
00000130: c4d6 883d d955 67be b616 ccbd a91e a9ba
00000140: 3064 03be 680f 94bc 5d55 4e3c 3f34 f3bd
00000150: d4f0 483e 5a9f b4bd 709b 9f3e 8141 87bb
00000160: 9f0c 293d 8039 d6bd c2a7 4cbe 81b8 c7bd
00000170: 85a7 89bd 3c4a f4bd f436 6c3d d554 15be
00000180: 9d39 01bc cc41 45ba 660d 83bd b4a9 ef3d
00000190: 3cdb d93b 7175 293d 79b4 0fbb ed0d 903d
000001a0: d8ac 62bd e40e 193d a4f2 15bd a24c 693c
000001b0: 8954 b5bd b745 0bbd 38a9 22bd ff52 a6bc
000001c0: a122 cdbd c1b7 97bd 1a5c b4bc 886a b1bd
000001d0: ce01 bcbd 230e 923d 343f 973d 2293 afbd
000001e0: f913 5bbc a0fc 2fbe 6c64 49bd 6a94 843d
000001f0: c8c0 47bd 2835 0d3d fb85 babd 7385 1fbc
0.050955918 -0.09103635 0.111364044 0.019599812 0.021703629 0.09135164 0.011007367 0.06200566
0.07060045 0.08505543 0.09255178 0.010803818 0.04180918 0.20031098 -0.08925779 0.08987328
0.07466908 0.0052233655 0.0374695 0.2122487 -0.10873807 0.118572414 -0.34592336 0.030546524
-0.015342824 0.042500347 0.22773187 -0.067511916 0.08271507 -0.10065247 -0.074022956 0.14091063
0.16871758 -0.0118808495 -0.017738204 0.0947923 -0.06851985 0.07819919 0.03829284 -0.077517964
-0.027824672 -0.034194246 -0.0036765195 -0.070363104 0.0029788844 -0.045577507 0.091459684 -0.054254167
-0.12666725 -0.022177236 0.027313141 -0.1207262 -0.04082516 -0.037145887 0.026446458 -0.05218492
0.036019098 0.09622574 -0.1080681 -0.059505213 -0.04059475 0.03514743 0.15116741 -0.103784345
0.03912906 -0.017378261 0.030247942 0.028863844 -0.03946114 -0.06100386 0.051145677 -0.20748256
0.08093303 0.08321631 0.07155208 -0.117172875 0.06681588 -0.22591342 -0.09965269 -0.0012902814
-0.12831187 -0.018073753 0.012593594 -0.118751995 0.19623119 -0.088194564 0.31173277 -0.0041276817
0.041271802 -0.10460186 -0.1998587 -0.09751988 -0.06721405 -0.119282216 0.057669595 -0.14583142
-0.007887271 -0.0007524758 -0.0639904 0.1170229 0.006648449 0.041371766 -0.0021927638 0.07033906
-0.055340618 0.037367716 -0.036608353 0.014239462 -0.088540144 -0.034002032 -0.03971216 -0.020303247
-0.100163706 -0.07408095 -0.022016574 -0.08662897 -0.09180032 0.071316026 0.07385102 -0.08572985
-0.013371461 -0.17186213 -0.049168035 0.0647362 -0.048767835 0.034474522 -0.09107586 -0.009736407

output_layer.bias f4 [2]
00000000: e3f0 81be 03fc 123e
-0.25379094 0.14353947
