cartpole_rf_results/num_episodes=3000_alpha_policy=0.01_alpha_value=0.005_gamma=0.99_reward_scale=0.01/policy_net.pth (torch, 38822 bytes, 6 tensors)

hidden_layer1.weight f4 [128, 4]
0	0x3f0daa23	0.55337733
1	0x3e050075	0.12988456
2	0xbe32eaa8	-0.17472327
3	0x3dd9f27b	0.106419526
4	0xbccd3989	-0.025051849
5	0x3dcf8c2a	0.10134156
6	0xbf098456	-0.53717554
7	0xbeaa5b71	-0.3327289
8	0xbea06a64	-0.3133117
9	0x3d83deef	0.064390056
10	0xbdf8ca4b	-0.12147959
11	0xbd022b86	-0.03177979
12	0x3d179489	0.03700689
13	0xbed1d691	-0.40984014
14	0xbdd26ed8	-0.10275048
15	0x3d23d1f5	0.039995153
16	0x3dbbe858	0.091751754
17	0xbe4bce27	-0.1990286
18	0xbcdc59e2	-0.026898328
19	0xbe2f9193	-0.17145376
20	0x3d91b34b	0.071142755
21	0xbc9cf11d	-0.01915794
22	0xbe1a90a4	-0.15094239
23	0xbe9b81d3	-0.30372486
24	0x3f12a84c	0.5728805
25	0xbe9da5fb	-0.30790696
26	0x3eccd93e	0.40009493
27	0xbe581926	-0.21103343
28	0x3f017395	0.5056699
29	0x3e230bfe	0.15922543
30	0x3f1a700d	0.60327226
31	0x3df0506c	0.11734089
32	0xbce2f290	-0.027703553
33	0x3bf32b4d	0.0074209333
34	0xbdf9de39	-0.12200589
35	0x3e0d1c90	0.13780427
36	0xbd483415	-0.048877794
37	0x3e5073f0	0.20356727
38	0x3f54c8f7	0.8311915
39	0x3e772d0d	0.2413828
40	0xbe0a28ba	-0.13492098
41	0x3e2a8757	0.1665319
42	0xbd20c162	-0.039246924
43	0x3ead9c63	0.33908376
44	0x3ea06876	0.31329697
45	0xbc96f88f	-0.018429069
46	0x3e01e5e8	0.12685359
47	0xbd091357	-0.03346571
48	0xbea03e06	-0.3129732
49	0x3c41a595	0.011819263
50	0x3ee0775f	0.43841073
51	0x3ec6b7aa	0.38812
52	0xbe947f84	-0.29003537
53	0x3e267d8d	0.16258831
54	0xbed734db	-0.42032513
55	0xbe71a5ef	-0.23598455
56	0xbdb55997	-0.088549785
57	0x3e0eacda	0.13933125
58	0xbeadc62c	-0.33940256
59	0x3de623d7	0.11237305
60	0xbc474fcd	-0.012165022
61	0x3caa5e23	0.020796841
62	0xbe487fbf	-0.19579981
63	0x3e690298	0.22754896
64	0xbf11e5d3	-0.5699131
65	0x3d05561f	0.032552835
66	0x3e79a429	0.24379028
67	0xbedffd6e	-0.4374804
68	0x3e22bbc0	0.15891933
69	0x3e1109ef	0.14163946
70	0xbd578af6	-0.052622758
71	0x3e7af207	0.24506389
72	0x3d9ce0cc	0.07660064
73	0x3e5c57fb	0.21517937
74	0x3c8fcc38	0.017553434
75	0x3d8a6aea	0.067586735
76	0xbe9da5bd	-0.3079051
77	0x3f08aab7	0.5338549
78	0x3f5156d2	0.817731
79	0x3f265985	0.64980346
80	0x3dc956d2	0.09831013
81	0x3e8b8231	0.27247766
82	0x3f76f7b7	0.9647173
83	0x3edaa888	0.42706704
84	0x3df42e5f	0.11922907
85	0x3ce1b26f	0.027550904
86	0xbea73386	-0.32656497
87	0xbf0d264c	-0.5513656
88	0xbee5b6e0	-0.44866085
89	0x3f220571	0.6328955
90	0x3f4ea9b1	0.8072768
91	0x3f2d57d3	0.67712134
92	0x3f0bae15	0.54562503
93	0xbe77a099	-0.24182357
94	0x3e71d812	0.2361758
95	0x3ef7302f	0.4827895
96	0x3d83b58f	0.06431114
97	0x3d0e8c2b	0.034801643
98	0xbe847735	-0.25872198
99	0x3d55aa8b	0.052164596
100	0x3ed9af66	0.4251663
101	0x3ecb4887	0.3970377
102	0x3d345247	0.04402378
103	0x3ee8dfd5	0.4548327
104	0xbe28171d	-0.16415067
105	0xbeefebfa	-0.46859723
106	0xbf1a752f	-0.6033506
107	0xbebeea65	-0.37288204
108	0xbf1390f0	-0.5764303
109	0x3e6c2dd9	0.23064364
110	0xbf14e944	-0.58168435
111	0xbeac2da9	-0.33628586
112	0xbe33cd2c	-0.17558736
113	0xbd8cd032	-0.068756476
114	0x3ea23813	0.31683406
115	0xbe444aca	-0.19169155
116	0xbe919453	-0.28433475
117	0x3dd91d4e	0.106012926
118	0x3e836e05	0.25669876
119	0x3efcc6b9	0.49370363
120	0x3e24abba	0.16081133
121	0x3e20687f	0.15664862
122	0x3f466428	0.77496576
123	0x3e65eb05	0.22452934
124	0xbe426cd1	-0.18986823
125	0xbd393b1d	-0.04522239
126	0x3f6026b6	0.8755907
127	0x3eea419a	0.45753175
128	0xbf134a10	-0.57534885
129	0xbd86b056	-0.06576602
130	0xbe3341e2	-0.17505601
131	0xbe12d23c	-0.1433801
132	0x3eadda09	0.3395541
133	0xbe8f577b	-0.2799643
134	0xbe10df19	-0.14147605
135	0x3dcfecce	0.10152589
136	0x3e7607ac	0.24026364
137	0x3d0ed2da	0.034869052
138	0xbf515233	-0.8176605
139	0xbea8b89e	-0.32953352
140	0xbe4f0409	-0.20216383
141	0x3edf2b1d	0.4358758
142	0x3f1ebfbf	0.6201133
143	0x3eb58190	0.3545041
144	0x3e785ec7	0.24254905
145	0xbe32f969	-0.17477955
146	0xbf5bd4f6	-0.8587183
147	0xbe2bf688	-0.16793263
148	0xbedf4833	-0.4360977
149	0xbd97715b	-0.07394668
150	0x3edc8d70	0.43076658
151	0xbdc47fd0	-0.09594691
152	0xbe798420	-0.24366808
153	0xbe9a2963	-0.301097
154	0xbf63446f	-0.88776296
155	0xbeb55b5b	-0.3542126
156	0xbf082b89	-0.5319143
157	0xbec9ef9c	-0.3944062
158	0xbe670745	-0.22561367
159	0xbd8bfdb1	-0.06835497
160	0x3cd04c6b	0.025427064
161	0xbeda37b6	-0.4262063
162	0xbf1637f6	-0.5867914
163	0xbc459dd5	-0.012061556
164	0xbcc64803	-0.02420426
165	0x3ea27434	0.3172928
166	0x3e6957a6	0.22787341
167	0xbd528c20	-0.051403165
168	0x3ef2117a	0.4727896
169	0x3d5a9fa4	0.0533749
170	0x3de5d16b	0.11221584
171	0x3f0e53d4	0.5559666
172	0x3e4ba2c3	0.19886307
173	0xbe4b2d57	-0.19841515
174	0x3e2ff988	0.17185032
175	0x3e642c3f	0.22282504
176	0x3d05cb84	0.03266479
177	0x3e327066	0.17425689
178	0x3f0cf1c4	0.55056405
179	0x3eebf9b7	0.46088955
180	0xbdcdcd03	-0.100488685
181	0xbc7e9d17	-0.015540383
182	0xbc4ded99	-0.012568855
183	0x3e8fe916	0.28107518
184	0xbe171332	-0.14753416
185	0xbddd55e3	-0.10807397
186	0x3da982a6	0.08276872
187	0xbede547d	-0.43423834
188	0xbe6bc58a	-0.23024574
189	0x3ed51479	0.41617182
190	0x3f80da69	1.0066653
191	0x3eec8cbd	0.46201125
192	0x3d35bf8e	0.044372134
193	0x3ef22fcc	0.4730209
194	0x3f5d30a2	0.8640233
195	0x3f158cc1	0.584179
196	0xbed566db	-0.41680035
197	0xbdd1402b	-0.10217317
198	0x3e735613	0.23763303
199	0x3f034545	0.5127757
200	0xbdac4a06	-0.08412556
201	0xbc39ad4a	-0.011332819
202	0x3e54fe3a	0.20800105
203	0xbee84f32	-0.4537292
204	0x3de182e8	0.110112965
205	0x3ec78f48	0.38976502
206	0x3e7803b0	0.24220157
207	0x3f175bef	0.59124655
208	0x3e5dab8d	0.21647473
209	0x3ea04080	0.3129921
210	0x3f0e37b5	0.5555375
211	0x3f21bd8c	0.6317985
212	0xbed9b8f2	-0.42523915
213	0x3e1caed3	0.15301065
214	0x3f745072	0.9543525
215	0x3f3206f2	0.6954185
216	0x3e8e18c5	0.27753273
217	0x3e55449f	0.20826958
218	0xbee9c48e	-0.45657772
219	0xbe3b702b	-0.18304507
220	0xbbb5ec78	-0.005551871
221	0xbf069552	-0.52571595
222	0xbf4cebdb	-0.80047387
223	0xbec8ae52	-0.39195496
224	0x3eae67b4	0.34063494
225	0xbeb8580e	-0.3600468
226	0x3e715e6e	0.23571178
227	0xbeeca057	-0.4621608
228	0x3ec45fcc	0.38354337
229	0xbe15a9c2	-0.14615539
230	0xbf0b40d0	-0.5439577
231	0xbea07068	-0.3133576
232	0xbdfa939c	-0.122351855
233	0x3e7336a9	0.2375132
234	0x3ee70bdd	0.45126238
235	0x3e64b158	0.22333276
236	0xbe974d78	-0.2955129
237	0xbeda3da8	-0.42625165
238	0xbec09853	-0.37616214
239	0xbeeb29ab	-0.45930228
240	0x3c7778e3	0.015104505
241	0x3ef17a2c	0.47163522
242	0x3f4def05	0.8044284
243	0x3ee7a132	0.4524017
244	0xbf3aea5d	-0.7301386
245	0xbe80f476	-0.2518651
246	0x3dc32b15	0.095297016
247	0xbe57377a	-0.21017256
248	0xbf113f63	-0.56737345
249	0x3c34a757	0.011026225
250	0x3d6dd49d	0.058064092
251	0xbd8f7d37	-0.07006305
252	0x3ed5f0a3	0.41785154
253	0xbd080b1f	-0.03321373
254	0xbcd77697	-0.026301665
255	0x3ef5f6ff	0.48040006

hidden_layer1.bias f4 [128]
0	0xbeb1a139	-0.34693316
1	0xbe750ac4	-0.23929888
2	0x3e7ee28a	0.24891105
3	0x3ea31367	0.3185074
4	0xbf124459	-0.5713554
5	0xbeeb5834	-0.4596573
6	0xbe69b8fb	-0.2282447
7	0x3aec1494	0.0018011504
8	0xbe7e1b9d	-0.24815221
9	0x3e3b8442	0.18312171
10	0xbf01e5e6	-0.5074142
11	0x3e974404	0.2954408
12	0x3dea5765	0.114424504
13	0x3e97b3e8	0.29629445
14	0xbe4c1ff5	-0.19934066
15	0xbe8b4b67	-0.27205965
16	0xbef7a44f	-0.48367545
17	0x3e990487	0.29886267
18	0xbf0dcd21	-0.55391127
19	0x3d9b1a75	0.07573406
20	0x3d84c8e6	0.06483631
21	0x3eb8fd04	0.36130536
22	0x3e227abc	0.15867132
23	0xbe45e237	-0.19324575
24	0xbe9c5272	-0.3053165
25	0x3e89c39f	0.2690706
26	0x3eb963f0	0.3620906
27	0xbe435515	-0.19075425
28	0xbe19254f	-0.14955638
29	0x3e26b26e	0.16279003
30	0x3d736a6c	0.059427664
31	0x3ebf2598	0.3733337
32	0xbde0dc1a	-0.10979481
33	0x3e613d42	0.21996024
34	0x3e9e04c7	0.3086302
35	0x3d9a1520	0.075235605
36	0x3e6820b4	0.22668725
37	0xbe2d6634	-0.16933519
38	0x3e8e8c14	0.27841246
39	0x3e2d54fd	0.16926952
40	0xbc02ba66	-0.007979011
41	0xbee295b6	-0.44254845
42	0x3c1c90ae	0.009555979
43	0xbd029740	-0.031882524
44	0x3e407a1c	0.18796581
45	0xbf0810b4	-0.53150487
46	0x3e6fd1b0	0.23419833
47	0x3e321448	0.17390549
48	0x3e180660	0.14846182
49	0xbe3bedf3	-0.18352489
50	0x3d0c0907	0.034188297
51	0x3c3a877f	0.011384844
52	0x3d597006	0.05308535
53	0x3ece34a6	0.40274543
54	0x3e7f9c8a	0.24962059
55	0x3e81c962	0.25348955
56	0xbeb9d3f0	-0.36294508
57	0x3e2631db	0.16229956
58	0x3e8c4df4	0.27403224
59	0x3e991b57	0.2990367
60	0x3e372a78	0.17887294
61	0xbe2e2009	-0.17004408
62	0xbe1a9037	-0.15094076
63	0x3e72e9ff	0.23722075
64	0xbdcbecf3	-0.09957304
65	0xbe9db63f	-0.30803105
66	0x3e625ab2	0.2210491
67	0x3ee2c6d5	0.44292322
68	0x3ec18ccd	0.37802735
69	0x3e9fee9b	0.3123673
70	0x3eb1ef40	0.34752846
71	0xbe9b0a36	-0.30281228
72	0xbe87f39a	-0.2655304
73	0xbe83d99c	-0.2575196
74	0x3ce1f83a	0.027584184
75	0x3eaee510	0.34159136
76	0x3dcd2480	0.100167274
77	0xbeca11da	-0.39466745
78	0xbe8613a6	-0.26186866
79	0xbe83bf4a	-0.2573188
80	0x3e96f68a	0.2948497
81	0x3e56ad1f	0.20964478
82	0x3eb045a6	0.34428138
83	0xbd667e72	-0.05627293
84	0x3c20508b	0.009784828
85	0xbde4fa59	-0.111805625
86	0xbea09c4f	-0.31369254
87	0x3d7076c9	0.058707032
88	0xbe8979a1	-0.26850608
89	0x3e843c8d	0.25827447
90	0x3ec8bfd6	0.3920886
91	0x3ea3bd0f	0.31980178
92	0x3d968c97	0.07351034
93	0x3e68b462	0.2272506
94	0x3e290eaf	0.16509508
95	0x3eb4b61e	0.35295194
96	0x3dba84af	0.09107339
97	0xbef88483	-0.48538598
98	0x3d9ac9f2	0.07558049
99	0x3cf17a93	0.029477393
100	0xbcf5175a	-0.029918361
101	0x3ea2dbb8	0.31808257
102	0x3e4dfcdd	0.20115991
103	0x3e4db31e	0.20087859
104	0x3d182987	0.03714898
105	0x3e93df25	0.28881183
106	0x3e1a9b64	0.1509834
107	0xbc95337b	-0.018213024
108	0x3ea1929b	0.31557164
109	0x3e4fa3ab	0.20277278
110	0x3eb294bf	0.3487911
111	0x3ebe91f0	0.37220716
112	0xbe46e2ef	-0.19422506
113	0xbe825971	-0.25458863
114	0x3c96b321	0.018395962
115	0xbdd537d5	-0.1041104
116	0xbf05f32f	-0.52324194
117	0x3dc0a2ad	0.09406028
118	0xbe130e09	-0.14360823
119	0xbe6609ca	-0.22464672
120	0xbf0f0f2e	-0.5588254
121	0xbe7b5491	-0.24543978
122	0x3b9e69b7	0.0048343795
123	0x3d9a59df	0.07536673
124	0x3ec30764	0.38091576
125	0xbf0a2571	-0.5396338
126	0x3e2ad6b8	0.16683471
127	0xbeecfa52	-0.4628473

hidden_layer2.weight f4 [64, 128]
0	0xbe49d760	-0.19711065
1	0x3de3bcd4	0.111200005
2	0x3e423f9a	0.18969575
3	0x3e67a80c	0.22622699
4	0xbc7210e4	-0.014774535
5	0xbd3f3bdb	-0.046687942
6	0xbe875061	-0.26428512
7	0xbdd7add8	-0.10531205
8	0x3dbf3151	0.09335578
9	0xbd83962c	-0.064251274
10	0x3cd04686	0.025424253
11	0x3de5a418	0.11212939
12	0xbc6782bc	-0.014130291
13	0x3de1810e	0.11010943
14	0x3cca9ac2	0.024731997
15	0x3d1c2be2	0.038127787
16	0x3da7a0de	0.0818498
17	0x3da798f2	0.08183469
18	0xbe65e1a5	-0.22449358
19	0xbe7c318c	-0.24628276
20	0xbd9475be	-0.0724902
21	0x3da3b7f5	0.079940714
22	0xbe4f8061	-0.20263816
23	0xbd509e82	-0.050932415
24	0xbe1a4a00	-0.15067291
25	0xbd3f64e7	-0.046727087
26	0x3ee01e63	0.43773183
27	0x3d708d32	0.058728404
28	0xbcbe521e	-0.023232516
29	0x3dec9ae6	0.11552982
30	0xbe69d8c0	-0.2283659
31	0x3cad34df	0.021143375
32	0x3e9b6668	0.30351567
33	0x3deb1b7b	0.11479851
34	0x3e595e53	0.21227388
35	0xbe26a6e8	-0.16274607
36	0x3e80cd34	0.25156558
37	0x3dc4bae7	0.09605961
38	0x3e813652	0.25236756
39	0x3e83534a	0.25649482
40	0x3d99aa7d	0.07503221
41	0xbdc6e5b1	-0.09711779
42	0xbd770463	-0.060306918
43	0x3da5d9ac	0.08098158
44	0xbc682b6a	-0.014170507
45	0x3d59d5dd	0.05318247
46	0x3e1d84b1	0.15382649
47	0xbe1f62fc	-0.15565103
48	0xbe9979f1	-0.29975846
49	0xbc9daad1	-0.01924649
50	0x3dcc5809	0.09977729
51	0xbd392ac2	-0.045206793
52	0xbe62f996	-0.22165522
53	0xbd283649	-0.041067395
54	0x3e163fd3	0.14672785
55	0x3e051eec	0.13000077
56	0xbde918a7	-0.11381655
57	0x3d31f669	0.043447886
58	0x3de974f7	0.113992624
59	0x3e6d7915	0.2319072
60	0xbe561fe7	-0.20910607
61	0x3e33db66	0.17564163
62	0x3d01c0df	0.031678077
63	0x3d3f697c	0.046731457
64	0x3e13f1f6	0.1444777
65	0xbdbb6860	-0.09150767
66	0x3d3f8bd1	0.0467642
67	0x3ebb2212	0.3654943
68	0x3dfdf105	0.123994865
69	0x3ecf6ef0	0.40514326
70	0x3e970627	0.2949688
71	0x3e080ecd	0.13286896
72	0x3dd5fc1d	0.104484774
73	0x3d6f5c5f	0.0584377
74	0xbd180004	-0.03710939
75	0x3e979142	0.2960301
76	0x3d87021c	0.06592199
77	0xbe314356	-0.17310843
78	0x3d3b4113	0.045716356
79	0xbe91aa47	-0.28450224
80	0xbd41a37b	-0.047275048
81	0x3e92deb6	0.2868554
82	0x3ca1da97	0.019757552
83	0x3e31207a	0.17297545
84	0x3e02f4d9	0.12788714
85	0x3df0afbe	0.1175227
86	0x3e21f341	0.1581545
87	0x3c61c6d5	0.013780315
88	0xbd0ee105	-0.034882564
89	0x3e373a9d	0.17893453
90	0x3e706ce5	0.2347904
91	0x3d94f651	0.072735436
92	0xbe9642ee	-0.29347938
93	0xbcc76bf6	-0.024343472
94	0xbc95a057	-0.018264933
95	0x3cf2f407	0.029657377
96	0x3cf33950	0.029690415
97	0xbdc8e23a	-0.09808774
98	0xbe57a36e	-0.21058437
99	0x3e024a76	0.12723717
100	0x3d859b91	0.065238126
101	0x3eb72151	0.35767606
102	0x3e269b78	0.16270244
103	0xbe22b3d5	-0.15888913
104	0x3deaecf5	0.11470977
105	0x3e87f160	0.26551342
106	0x3e3c344f	0.18379329
107	0x3e830c9a	0.25595552
108	0x3cb6745c	0.022272281
109	0x3e7618dd	0.24032922
110	0xbdece63c	-0.11567351
111	0x3f29e654	0.6636708
112	0xbdf79a98	-0.12090033
113	0xbc87954d	-0.016550684
114	0x3db6d59e	0.08927463
115	0x3eb606b8	0.35552
116	0xbe5db4e8	-0.21651042
117	0x3df945e6	0.12171535
118	0xbd82aa63	-0.06380155
119	0xbd800df1	-0.06252659
120	0x3c0342a5	0.008011495
121	0xbd4617b3	-0.048362445
122	0xbe781c41	-0.24229528
123	0xbd9479d0	-0.072497964
124	0x3ea3d3a4	0.31997406
125	0x3e5477bf	0.20748805
126	0x3e4283aa	0.18995538
127	0xbc7a4460	-0.015275091
128	0x3d4cbd57	0.049985256
129	0xbce82bb4	-0.028341152
130	0xbdd1e9fe	-0.102497086
131	0xbdd71c86	-0.10503487
132	0xbdb27bb3	-0.08715
133	0xbd1bcec7	-0.038038995
134	0x3d82784b	0.063706
135	0xbddcda28	-0.107837975
136	0xbda11301	-0.07864953
137	0xbdc20d40	-0.094751835
138	0x3be535ee	0.0069949543
139	0xbcff6935	-0.031178096
140	0x3cd66b3f	0.026174186
141	0xbdd87d3e	-0.10570763
142	0xbcafe468	-0.021471217
143	0x3ce56e9c	0.028006844
144	0xbc6ea80f	-0.0145664355
145	0x3cad5827	0.021160198
146	0x3d9f0ce7	0.07766133
147	0xbce28c16	-0.027654689
148	0x3dc487e0	0.095962286
149	0xbd516a22	-0.051126607
150	0xbe06dfb4	-0.13171273
151	0x3db36684	0.08759788
152	0xbd22ce3a	-0.039747454
153	0xbd82373a	-0.0635819
154	0xbdd13bc2	-0.10216476
155	0x3c3262b9	0.010887795
156	0xbd8fe911	-0.07026876
157	0x3bfca602	0.0077102194
158	0x3cc59b18	0.024121806
159	0xbd4c5f55	-0.049895603
160	0xbd6d66ae	-0.05795925
161	0xbdde6c21	-0.10860468
162	0xbe02d1ee	-0.12775394
163	0xbdb134db	-0.086526595
164	0xbdfc6ec8	-0.12325817
165	0x3d7396d4	0.059470013
166	0xbcc5ba4f	-0.02413669
167	0x3ccab0c3	0.02474249
168	0x3dddd7f2	0.10832204
169	0xbd2e65df	-0.04257762
170	0x3dcfa290	0.10138428
171	0xbaad333b	-0.001321412
172	0xbd64dfaa	-0.055877365
173	0xbd827af8	-0.06371111
174	0xbd34e17d	-0.044160355
175	0xbd9da8ad	-0.07698188
176	0xbd0d9df0	-0.03457445
177	0x3d84d7a5	0.064864434
178	0xbda688e7	-0.08131581
179	0x3df30488	0.11866099
180	0x3db2f310	0.08737767
181	0xbd2315c4	-0.03981568
182	0xbe14b188	-0.14520848
183	0xbda1a112	-0.0789205
184	0xbd96334d	-0.073340036
185	0xbce1c28c	-0.027558587
186	0xbb0c1ec8	-0.0021380652
187	0xbd81cd6a	-0.06338008
188	0xbd294223	-0.04132284
189	0xbd05f1eb	-0.032701414
190	0x3d8a0dfc	0.067409486
191	0xbd1d436a	-0.03839437
192	0x3d10027e	0.035158627
193	0x3c4f690e	0.012659324
194	0xbdc6b407	-0.09702306
195	0xbcee9eec	-0.029128514
196	0xbd990276	-0.074711725
197	0xbdaa5071	-0.08316124
198	0xbca7de5f	-0.020491777
199	0xbda08576	-0.07837956
200	0x3d0f7457	0.03502306
201	0x3d1b5a29	0.03792778
202	0xbb626ba1	-0.0034549015
203	0x38f5eb02	0.00011726284
204	0xbd6d26da	-0.05789838
205	0x3d53608a	0.05160574
206	0x3d5f3010	0.054489195
207	0x3da1540a	0.07877357
208	0xbd925659	-0.07145376
209	0xbdc5fadd	-0.09666989
210	0xbcba3bd0	-0.022733599
211	0xbc077dd3	-0.008269745
212	0xbdd6c536	-0.10486834
213	0xbd447daa	-0.047971405
214	0x3da5cadd	0.08095334
215	0x3d5cb0b7	0.053879466
216	0xbd356658	-0.044287056
217	0xbd542aaa	-0.0517985
218	0xbd60d07f	-0.054886337
219	0xbce84157	-0.028351469
220	0x3cb6576f	0.022258488
221	0xbdc5ac90	-0.09652054
222	0xbd2a5cea	-0.041592516
223	0xbd9eb52e	-0.07749401
224	0xb96f19a0	-0.00022802362
225	0xbda4ef3f	-0.08053445
226	0xbd3c5d80	-0.045987606
227	0xbdbe6a69	-0.0929764
228	0xbcd138df	-0.025539814
229	0xbd82f0c9	-0.063935824
230	0xbcea962b	-0.028636059
231	0x3cdcebd4	0.02696792
232	0xbe0df90b	-0.13864534
233	0x3c09a68d	0.008401525
234	0xbcc4bac0	-0.02401483
235	0xbcf9a2eb	-0.030473193
236	0xbdf015c7	-0.11722904
237	0xbd96a8eb	-0.07356437
238	0xbdb6c24a	-0.089237764
239	0xbcbf2397	-0.0233324
240	0xbc2db919	-0.010603213
241	0x3d182094	0.037140444
242	0xbc19e933	-0.009393978
243	0xbc6b5a3a	-0.014364773
244	0x3cb25e6a	0.021773536
245	0xbb885db3	-0.0041615604
246	0xbdf6e933	-0.12056198
247	0x3b9b6405	0.004742148
248	0x3d506dbc	0.0508859
249	0x3dea024d	0.1142622
250	0xbc665e56	-0.014060577
251	0xbd6a763b	-0.05724166
252	0xbdc80ec3	-0.097684406
253	0x3d3eefc8	0.046615392
254	0x3cda0a5d	0.02661627
255	0x3da3fc22	0.08007075

hidden_layer2.bias f4 [64]
0	0x3e9f40f4	0.31104243
1	0xbd0e599f	-0.034753438
2	0xbba9b382	-0.0051788697
3	0xbda7b28e	-0.081883535
4	0x3d8cadf1	0.06869114
5	0xbd318e80	-0.04334879
6	0x3bcf6803	0.006329538
7	0xbe05368e	-0.13009092
8	0x3d7e3f2a	0.062071957
9	0x3cdf6e67	0.027274324
10	0xbc208d2b	-0.009799282
11	0xbd428209	-0.047487292
12	0xbe1551fd	-0.14582057
13	0xbdb4855f	-0.08814501
14	0xbd4b4209	-0.049623523
15	0xbe17267b	-0.14760773
16	0xbcd049dc	-0.025425844
17	0xbd7b4fcd	-0.0613554
18	0xbcacfe68	-0.021117404
19	0xbdcf2b40	-0.10115671
20	0xbcd8db45	-0.026471743
21	0xbdf03dba	-0.117305234
22	0xbdb1c1a6	-0.08679514
23	0xbcfd3044	-0.030906804
24	0xbd8facb9	-0.07015366
25	0xbdc6e8c1	-0.09712363
26	0xbdf30897	-0.11866873
27	0xbda8a6e4	-0.08234957
28	0xbd927390	-0.07150948
29	0xbcddfb40	-0.027097344
30	0x3d1f5344	0.038897768
31	0x3dcaaa90	0.098958135
32	0xbcdf53c9	-0.027261632
33	0xbd237152	-0.039902993
34	0xbddc015e	-0.10742448
35	0xbdbeea77	-0.09322064
36	0xbe313040	-0.17303562
37	0xbdbac933	-0.09120407
38	0xbce73527	-0.028223587
39	0x3d3ecd52	0.046582527
40	0x3deda6c4	0.11604074
41	0xbdd5d8de	-0.10441755
42	0xbddca3ed	-0.10773454
43	0x3dba4b57	0.09096401
44	0xbda63038	-0.08114666
45	0xbe064067	-0.13110505
46	0x3c3d9cc5	0.011573021
47	0xbd3a3581	-0.04546118
48	0xbcbd914a	-0.023140568
49	0xbc99d7cd	-0.01877966
50	0x3de7df80	0.11321926
51	0xbd9ebde5	-0.07751063
52	0xbd3eb236	-0.046556674
53	0xbd1c2b43	-0.038127195
54	0x3d7a829e	0.061159723
55	0x3e622873	0.22085743
56	0xbc30ad11	-0.01078345
57	0xbd90f9d6	-0.070789024
58	0xbd87644a	-0.066109255
59	0xbddcecef	-0.10787379
60	0xbd880b70	-0.066428065
61	0xbd1b0250	-0.037844002
62	0xbc807574	-0.015681006
63	0x3d58dca9	0.052944813

output_layer.weight f4 [2, 64]
0	0x3e824781	0.25445178
1	0x3cbfcd47	0.023413314
2	0xbd0dd118	-0.034623235
3	0xbe2b99fa	-0.16757956
4	0xbd908899	-0.07057304
5	0x3d24d28a	0.04023985
6	0x3d7979ab	0.060907047
7	0xbd7ab0c4	-0.061203733
8	0xbdc0adb3	-0.094081305
9	0xbd0b6281	-0.034029488
10	0x3b776c9a	0.003775394
11	0xbcefc536	-0.029268842
12	0x3d2ec2f9	0.04266641
13	0x3d68f09a	0.05687008
14	0xbd7f19f9	-0.06228063
15	0x3dd86acc	0.10567245
16	0xbd558d08	-0.05213645
17	0xbcc47416	-0.023981135
18	0xbd96192c	-0.0732902
19	0xbda9f0e0	-0.082978964
20	0xbeba1116	-0.3634116
21	0x3cf4d9e4	0.029889055
22	0x3dd0d5cc	0.101970285
23	0x3a80bb27	0.0009821401
24	0x3da5624c	0.08075389
25	0x3d18cc1b	0.037304025
26	0xbd6d55ba	-0.057943083
27	0x3bf2bb78	0.007407602
28	0x3ca75662	0.020426933
29	0xbd13fbc2	-0.036128767
30	0xbe98b43d	-0.2982501
31	0xbe7660fa	-0.24060431
32	0xbdeca0e7	-0.11554127
33	0x3d966d70	0.07345092
34	0xbe006ae4	-0.12540776
35	0xbd40710f	-0.04698282
36	0xbe0883fc	-0.13331598
37	0x3c49b913	0.012312192
38	0xbcc2308e	-0.023704793
39	0x3d5df39d	0.054187406
40	0xbe4859eb	-0.19565551
41	0x3d63c515	0.055607874
42	0xbd4ebc3b	-0.05047248
43	0x3cd65b30	0.026166528
44	0x3d6a761f	0.057241555
45	0xbce3bb55	-0.027799288
46	0xbdbce91a	-0.09224148
47	0xbdcf3310	-0.10117161
48	0x3dbc0666	0.09180908
49	0xbd0a19ad	-0.033715893
50	0xbe914024	-0.28369248
51	0xbd16ef3b	-0.03684924
52	0xbd292324	-0.04129328
53	0xbd3e49c2	-0.04645706
54	0x3d8ffd55	0.07030741
55	0x3e7bf637	0.24605642
56	0xbd242922	-0.04007829
57	0xbccda887	-0.025104774
58	0x3d0e7116	0.034775816
59	0xbd1c1f4f	-0.038115796
60	0xbc8f6aa2	-0.017506901
61	0xbdc1e48d	-0.09467421
62	0x3bf041b6	0.007332052
63	0x3d88363a	0.06650968
64	0xbe57e0b4	-0.21081811
65	0xbdb1dcce	-0.08684693
66	0x3d5c979b	0.05385552
67	0xbd31d702	-0.043417938
68	0xbdb41d44	-0.087946445
69	0x3e09851b	0.13429682
70	0x3d28c6ce	0.04120522
71	0xbdf6f123	-0.12057712
72	0x3de4bf37	0.11169284
73	0xbbbbd7f9	-0.005732533
74	0xbd82ea4b	-0.06392344
75	0xbd8d3df0	-0.06896579
76	0xbd4fa7d5	-0.050697166
77	0x3d8d8492	0.069100514
78	0xbd806248	-0.06268746
79	0xbd097ff9	-0.03356931
80	0xbc0b01da	-0.008484328
81	0xbd642b2b	-0.05570523
82	0xbc764155	-0.015030225
83	0xbc377754	-0.011197884
84	0x3e3c4d0c	0.18388766
85	0x3de13436	0.109962866
86	0x3dbf8643	0.0935178
87	0xbdf25756	-0.11833064
88	0x3e1bfeaf	0.15233873
89	0x3d54b6af	0.051932033
90	0x3dbd3226	0.09238081
91	0x3dc5ecb0	0.09664285
92	0x3bb59ef7	0.0055426317
93	0x3df4bced	0.11950097
94	0x3e75541d	0.23957868
95	0x3e4298a5	0.19003542
96	0x3c584f61	0.013202519
97	0xbd9f548a	-0.077797964
98	0xbc262c99	-0.010142469
99	0xbdbd4423	-0.09241512
100	0x3d1629ac	0.036660835
101	0x3b80a7ff	0.0039262767
102	0x3ca6e49b	0.02037268
103	0x3d11325f	0.03544843
104	0x3e981ff5	0.2971188
105	0xbb381539	-0.0028088822
106	0x3a25e5d5	0.0006328498
107	0xbe7e7c48	-0.24852097
108	0x3d5ee47b	0.054417115
109	0x3db3e91e	0.08784698
110	0xbcd0a6f7	-0.02547024
111	0xbccd84f8	-0.025087819
112	0xbcd74318	-0.02627711
113	0x3dc612a1	0.09671522
114	0x3e4627da	0.1935114
115	0xbcffd4c7	-0.03122939
116	0x3dc66e3e	0.09688996
117	0x3aa08289	0.0012245934
118	0x3dae4947	0.0851007
119	0xbe301abe	-0.17197701
120	0xbd2ec0b9	-0.042664263
121	0x3ddca40d	0.10773478
122	0xbc1f9913	-0.009741086
123	0xbcc3e1cc	-0.02391138
124	0x3d7f8a17	0.062387552
125	0x3ccb73ff	0.024835585
126	0xbc2d3cef	-0.01057361
127	0x3d12e389	0.035861526

output_layer.bias f4 [2]
0	0x3e073045	0.13202007
1	0xbe7f5efc	-0.24938577
