cartpole_rf_results/num_episodes=3000_alpha_policy=0.005_alpha_value=0.001_gamma=0.99_reward_scale=0.005/policy_net.pth (torch, 38822 bytes, 6 tensors)

hidden_layer1.weight f4 [128, 4]
000000 15 bc 0c be 1c 5d 19 3e 6d c5 b7 be ad a1 4b be
       -0.13743623 0.14976925 -0.3589281 -0.19885893
000010 8c 5c 05 3e 7c 87 ac 3d 09 a7 17 3e 30 72 17 bf
       0.13023585 0.08424279 0.14809813 -0.5915861
000020 dd 7a e7 bd b7 60 ef be 9d db c6 3e f7 15 3e 3e
       -0.11302731 -0.46753475 0.38839427 0.18563066
000030 98 9d 1a be 56 36 cb 3e a5 58 12 bf c9 e1 04 bf
       -0.1509918 0.39689893 -0.5716651 -0.5190702
000040 c7 28 a9 bd 68 dd 88 3d af 71 70 3e 1e d4 5b 3e
       -0.08259731 0.06682855 0.23480867 0.21467635
000050 34 1b ab bd 98 e5 c3 3e 5d 47 12 bf d3 58 00 bf
       -0.08354798 0.38261104 -0.5714014 -0.50135535
000060 3a ae b4 3e c1 0c 6a bd 35 df 00 3f 99 9b 93 3e
       0.35289174 -0.05714107 0.50340587 0.2882965
000070 20 93 5d 3d f8 a7 8f 3d 40 6b 42 3d 5c e4 60 be
       0.054095387 0.07014459 0.047465563 -0.21962112
000080 8c f3 48 3e 5e 3d 53 3e 7b e4 11 be 21 73 93 3e
       0.19624156 0.20628878 -0.14247315 0.28798774
000090 d4 ff 7f 3d a9 b6 21 be 0b 0a 56 3e f9 b5 6d 3e
       0.062499836 -0.15792336 0.20902269 0.23213948
0000a0 2d fe d0 3e 65 51 18 bd b6 44 02 3e 6f 84 05 bf
       0.4081892 -0.037187 0.12721524 -0.521552
0000b0 93 70 7f 3e e0 85 0a 3e a7 31 23 bd 39 48 09 be
       0.24945287 0.13527632 -0.039842274 -0.13406457
0000c0 e2 01 10 be fa 1f 22 bd b1 a6 6e 3e de d3 3e bd
       -0.14063218 -0.039581276 0.23305775 -0.04658877
0000d0 f3 b4 c6 be 62 d3 9e 3e 16 37 9e bd 43 7c 7a be
       -0.38809928 0.31020647 -0.077253506 -0.24461465
0000e0 07 ec ac 3e ee 1f 03 3e a5 62 bf 3e 67 ce ef bd
       0.33773825 0.12805149 0.37379947 -0.1170929
0000f0 4b 52 85 3d 22 e1 d9 bd 4b 74 48 3e db be b5 3e
       0.06509837 -0.10638644 0.19575612 0.35497174
000100 6f 77 5d bd 5e c0 95 3e a9 75 ee 3e a5 0d 12 be
       -0.05406898 0.29248327 0.46574143 -0.14263017
000110 60 2e 67 be a5 55 9b 3d 43 57 12 3f ca 6c 0d 3e
       -0.22576284 0.07584695 0.571644 0.13811031
000120 2e ea b4 3e fe 29 d0 3c a1 70 a8 be a3 f8 89 3e
       0.35334915 0.025410648 -0.3289843 0.26947507
000130 9b 06 1a 3c 86 dc 04 3d 9a 30 71 3e 38 57 77 3e
       0.009400989 0.03243687 0.23553696 0.24154365
000140 75 a5 88 3b bd 95 8a be 09 92 c2 be 59 f5 02 bf
       0.0041701146 -0.27067366 -0.3800204 -0.5115562
000150 fc da b3 3d a5 42 6f 3e c5 e6 18 be 37 ba f0 3d
       0.08782002 0.23365267 -0.14931782 0.11754268
000160 96 7f dd 3d 06 39 aa be d9 0d a0 3e d3 b0 f6 be
       0.10815351 -0.3324663 0.31260565 -0.4818178
000170 c9 fe 4f bd 32 1e 1a 3f b6 09 de 3e 1f b9 f1 3d
       -0.05078009 0.60202324 0.43366784 0.11802887
000180 1a 43 f1 3c de 6e 2c be 43 3c d6 be c4 0b e5 be
       0.029450942 -0.16839167 -0.4184285 -0.4473554
000190 ed db e2 3d 6b c2 c7 be 4e c4 db be 60 92 cf be
       0.11077104 -0.39015517 -0.42923206 -0.40541363
0001a0 c0 ba b0 3e 94 00 db 3e 75 fd e8 3e 4f be 9b bd
       0.3451748 0.4277388 0.45505872 -0.07604658
0001b0 26 de a4 3e 6b 94 aa be 39 c4 13 bf 69 87 0c bf
       0.32200736 -0.3331636 -0.57721287 -0.5489412
0001c0 5b 87 3b 3c 79 82 81 be f1 96 d9 3e 64 d1 15 3d
       0.0114458455 -0.25294855 0.42497972 0.036576644
0001d0 f6 57 b5 3e 91 ee 3d 3c b9 c8 ea 3e 08 bd 4b be
       0.3541867 0.011592523 0.45856264 -0.19896328
0001e0 cf 7b ca 3e 85 24 8d 3e 9c 89 0c 3f 85 d3 1c 3f
       0.39547583 0.27566925 0.54897475 0.61260253
0001f0 81 1e eb bd 4f 5e c2 be 8c 94 18 be b4 f3 cd be
       -0.114804275 -0.37962577 -0.14900416 -0.40224993
000200 b6 01 be 3e b9 fb 1d be 8d 5e 17 3f ec b6 f1 3e
       0.3711068 -0.15428056 0.5912865 0.4720987
000210 ff da d2 be 46 5f 19 3f ee 19 0d 3f bc 14 d1 3e
       -0.41182706 0.59911 0.5511769 0.40836132
000220 41 f6 6e 3e 50 d3 00 be 3b d1 4a 3e 60 0c 00 bf
       0.23336126 -0.1258061 0.19806378 -0.5001888
000230 26 ed 98 3d 00 21 e1 3c f0 fc f2 3e fe 46 5a 3e
       0.074671075 0.027481556 0.474586 0.21316144
000240 99 0a 8c 3e 86 34 d7 be 40 79 2e be d4 13 c3 3d
       0.27351835 -0.4203226 -0.1703844 0.09525266
000250 54 b5 d4 3e 42 78 a6 3d 73 be bc 3e 43 3e 68 3d
       0.41544592 0.08128406 0.3686405 0.056700002
000260 aa 74 c8 be 59 e3 62 be c4 f1 49 bd 66 13 a5 be
       -0.39151508 -0.22157039 -0.04930283 -0.32241362
000270 e6 42 00 3e 5b a6 b1 bd 67 b0 08 bf 52 ff 1a bc
       0.1252552 -0.08674308 -0.5339417 -0.009460287
000280 29 01 ba be 08 e2 4c 3e b7 84 09 bf 4b 19 35 bd
       -0.3632901 0.20008099 -0.5371813 -0.044213574
000290 41 09 fd be 1a fd df bd d3 b9 d0 3e 45 25 20 be
       -0.49421123 -0.10936947 0.40766773 -0.15639217
0002a0 cf b8 f8 3e 54 40 75 3e 94 03 40 be 6a 83 ea be
       0.48578498 0.2395032 -0.18751365 -0.45803386
0002b0 2d 6f 6b 3e da 1c 3a 3d eb 2d 33 3d 33 ce 24 3e
       0.22991629 0.04543767 0.043744963 0.16094284
0002c0 59 48 36 3e 03 c9 9e bd 5d a7 18 bf f4 2b d1 be
       0.17801036 -0.07753184 -0.59630376 -0.40853846
0002d0 d6 b0 a2 3d a9 d3 84 be 86 18 d4 3e 9f df 0c 3f
       0.07943885 -0.25942734 0.4142496 0.5502872
0002e0 02 94 8d be 01 81 75 3d 57 73 cb be 89 17 2e 3d
       -0.27651983 0.05993748 -0.39736435 0.042502914
0002f0 b4 44 77 be 74 c8 34 3e 52 ac 90 be 68 3c 9e 3d
       -0.24147302 0.17654592 -0.2825647 0.07726365
000300 f0 ad 16 be c0 1b 1d 3d 20 29 28 3d a0 b5 16 3e
       -0.1471479 0.038356543 0.041054845 0.14717722
000310 32 51 14 be 2f 18 f2 3e ec ab 40 3e 2e 6e e7 3e
       -0.14484099 0.47284076 0.18815583 0.45201248
000320 7a 3b 43 be 6e a9 d6 3e ec 00 ca be cd 6b f1 3e
       -0.19065657 0.4192614 -0.39453828 0.47152558
000330 a8 c6 f6 3e 8c 2e f8 bd f9 be c4 3e 5f 16 84 3e
       0.48198438 -0.12118253 0.3842695 0.25798318
000340 bb 9b 39 3e f8 32 e8 bc bd 94 cb 3d ae cc cd 3e
       0.18125813 -0.028344616 0.09940479 0.4019522
000350 db 52 12 3c 9a d0 e0 3e 9c b4 07 3e 30 ac 1b 3f
       0.008930887 0.4390915 0.13252491 0.6080961
000360 2b ed 7a 3d ed 4c 90 3e f3 54 8f 3e d9 84 b0 be
       0.061261337 0.2818369 0.279945 -0.34476355
000370 3c 26 91 3d 21 ed ad be 04 40 f6 3e 80 bc 14 3f
       0.07087371 -0.33969977 0.48095715 0.5810013
000380 eb 22 f1 3e fd a5 0f be a4 e0 62 3e d1 c5 0a bf
       0.47096953 -0.14028163 0.22156006 -0.54208094
000390 7d d7 3e 3e 07 43 ea bd 11 33 10 3e 4e 77 45 3e
       0.1863689 -0.11438566 0.1408198 0.19283792
0003a0 8f e6 2d 3e 45 5e 0b 3f 68 e1 dc bd 52 5f ad 3e
       0.16982482 0.5444072 -0.1078518 0.33861786
0003b0 51 ba e3 3c dd 9c 01 3e eb 12 fe 3e 01 00 0d 3f
       0.027798804 0.12657495 0.49623808 0.5507813
0003c0 84 4b cb 3e 7d 0e f1 3e 38 58 23 3f 06 68 56 3e
       0.3970605 0.47081366 0.63806486 0.2093812
0003d0 96 9c 15 be d7 db b0 3e 58 4b d1 3b 8c fd e6 be
       -0.14610514 0.34542724 0.0063871555 -0.45115316
0003e0 3f ab b8 be 72 b7 7c be 2c a3 76 3e fc 9b a5 be
       -0.3606815 -0.24679354 0.24085683 -0.3234557
0003f0 13 e1 c3 bd be 46 d1 3e 5d e9 0a 3c c9 0e db be
       -0.09564414 0.40874285 0.00847849 -0.42784718

hidden_layer1.bias f4 [128]
000000 21 81 80 bd b9 c3 ce 3e 10 9a 5f 3d f5 5b 82 be
       -0.062746294 0.403837 0.054590285 -0.25460783
000010 bb 92 e3 3d 56 a1 26 be e1 9a 21 3e 16 3e f9 be
       0.11111971 -0.16272482 0.15781738 -0.4868018
000020 f9 bc ec be c0 1b a7 3e 4b 07 af 3e 12 86 f8 be
       -0.46237925 0.3263836 0.34185252 -0.48539788
000030 76 f5 00 bf 2e 97 db bd 2f 1c a0 3e a5 9d 65 be
       -0.50374544 -0.107221946 0.31271502 -0.22423418
000040 d6 6f c8 be 40 0f 18 3e 85 91 f9 be 20 e3 42 3e
       -0.39147824 0.14849567 -0.48743835 0.19031954
000050 69 e5 be 3e de ca 2d be 4e 65 da 3e 73 98 5f 3e
       0.372844 -0.16971919 0.42655414 0.21835499
000060 d0 a0 c9 3e 62 48 a3 3e af 11 82 bd 29 d7 a5 3e
       0.39380503 0.3189116 -0.06351029 0.32390717
000070 0f 21 c8 3e 27 f0 fd be 63 8e 9d 3e e0 8f da 3e
       0.39087722 -0.49597284 0.30772695 0.42687893
000080 6e da d6 3d 38 5d d1 3c 8f bc 12 3e 97 03 a4 3e
       0.10490881 0.025557145 0.14329742 0.3203399
000090 76 9f 95 bd f6 c9 b5 be b8 8b 63 3e 22 a2 7e bd
       -0.073058054 -0.35505646 0.22221267 -0.06216634
0000a0 fb a0 1f 3e 5e 37 d6 3e 4e 53 8f 3e 15 a7 8f be
       0.15588753 0.41839117 0.27993244 -0.2805716
0000b0 43 25 ae 3e 80 29 61 bd ee d6 9c 3e 7c 4b dd be
       0.34012803 -0.054971218 0.30632728 -0.43221653
0000c0 44 40 ab be 59 47 e8 3d 99 77 e3 be 97 58 09 3e
       -0.33447468 0.113417335 -0.44427183 0.134127
0000d0 02 79 23 3e 55 ce c3 3e 09 8a 94 be cf ae 1d 3e
       0.1596413 0.38243356 -0.29011562 0.15398715
0000e0 51 6b 66 be b5 ec 01 bf eb be a6 bc f7 ed 87 be
       -0.22501875 -0.5075181 -0.020354709 -0.2654874
0000f0 e2 57 9c 3e 02 9f 69 3e 8c f1 ca bd ef 77 b3 be
       0.305358 0.22814563 -0.09909353 -0.3505244
000100 07 13 2f 3e 50 ce d7 be 1b af b7 be 1f d5 36 3e
       0.17097102 -0.4214959 -0.35875782 0.17854737
000110 7b 37 02 3e 96 f6 17 3e 9e 33 5b 3e 12 5a 23 bd
       0.12716477 0.14840159 0.21406409 -0.03988082
000120 23 07 8e 3e 39 81 97 3d 82 05 c2 bd 52 28 e5 3e
       0.2773982 0.07397694 -0.09473707 0.44757324
000130 4d fc 13 3e fb 28 ab 3e 5c 3e d3 3d 25 52 8e be
       0.14451714 0.33429703 0.103146285 -0.27797046
000140 1c 80 d4 be 4e 0d 80 3e 89 fe ba be 65 97 8b 3d
       -0.4150399 0.2501015 -0.3652232 0.068159856
000150 33 bf f2 be 4b 9e 74 3d f6 53 bb 3e 2d 0f 95 be
       -0.47411498 0.059721272 0.36587495 -0.2911314
000160 90 c6 97 be 54 a1 a0 3d 0b ef 77 3e 02 09 b9 3e
       -0.2964368 0.07843271 0.24212281 0.36139685
000170 51 6d 0b 3e cf f9 8b bd 8d cc 0a be ea 68 0f be
       0.1361592 -0.068347566 -0.13554592 -0.14004865
000180 13 6b f1 be d1 cc 56 3e ea a0 9f bd 69 9f 73 be
       -0.47152004 0.20976569 -0.07794364 -0.23791279
000190 54 fb 4f be d5 5e b8 3d 54 ff 02 bf 48 d6 4b 3e
       -0.20310718 0.09002463 -0.5117085 0.1990596
0001a0 78 79 9d bd 1a db 7b 3e 5a 7b 2d be fd 43 34 be
       -0.07689184 0.245953 -0.16941586 -0.1760406
0001b0 6b 8e 60 3d 0d b4 9b 3d 1b bc f0 be 07 a2 41 3e
       0.05482332 0.07602701 -0.47018513 0.18909465
0001c0 de 31 39 3e 12 ff ed bc 92 fd e8 be 7e 68 95 3d
       0.18085429 -0.029052291 -0.4550596 0.07295321
0001d0 8d 76 5f 3d 28 d1 cb be 5a 1d de be 8a 9f 6f 3d
       0.05455642 -0.3980801 -0.43381768 0.058501758
0001e0 ee dc ea bc 72 5a b9 3e 07 16 32 3e a5 ab 58 be
       -0.0286698 0.36201817 0.17391215 -0.21159227
0001f0 47 df e4 3e c6 7f 0d 3e f0 93 dc 3e 04 c8 68 be
       0.44701597 0.13818273 0.43081617 -0.2273255

hidden_layer2.weight f4 [64, 128]
000000 f5 13 da bd 2f 92 71 3d 1a c5 36 3b 6e fa 3c bd
       -0.10648338 0.058977302 0.0027888478 -0.046137266
000010 cb d4 b4 3d 71 e6 6a 3d 63 5f 1a 3e 4b 07 48 bd
       0.088296495 0.057348672 0.1507545 -0.04883508
000020 46 7f 08 3e 51 db d1 3d a6 1a 3e 3d a5 1b a9 3c
       0.13329801 0.102469094 0.046412133 0.020643065
000030 f0 4e ea 3b ea fd 13 bd 62 49 1d 3d 73 9d 83 ba
       0.0071505234 -0.036130823 0.03840006 -0.001004143
000040 c6 a8 ba bd 6b 55 0d 3e 85 c4 0a bd f0 9b 11 3e
       -0.09114222 0.13802116 -0.033878822 0.14219642
000050 54 17 fb bc ff d5 01 3e 78 ad 89 bd 81 f3 94 3c
       -0.030650772 0.1267929 -0.0672254 0.018182518
000060 7e ea 42 bd d7 bd c5 bd 7a 25 1e 3e a5 2e 2c be
       -0.04758691 -0.0965535 0.15443984 -0.16814668
000070 fe c2 29 bc 8b 6c 2b bd da 54 21 3e ae 9d a2 3c
       -0.010361431 -0.04185156 0.15755025 0.019850578
000080 a8 93 1c 3e a8 f0 36 3e d3 14 9e bc fe e9 4d 3d
       0.15290701 0.1786524 -0.01929704 0.05027198
000090 e2 03 43 3c 5f dc ab 3a 82 9b c9 bd eb 26 72 3c
       0.011902781 0.001311194 -0.09844114 0.014779787
0000a0 e8 39 1e 3d 56 1d ee 3c 4e e3 4b bd c4 41 2d bd
       0.038629442 0.029066723 -0.04977732 -0.042299047
0000b0 b8 f1 a8 bd 2a 37 f1 3b 81 09 e1 3c 2f c3 d2 3c
       -0.08249229 0.0073613124 0.027470352 0.025727836
0000c0 3f ee 4d bd d5 01 73 3e 5e b0 9c 3d 21 f8 9a 3d
       -0.050276037 0.23731168 0.07650827 0.07566858
0000d0 22 69 f3 3d aa 4f 01 3e 08 0d 38 3d dc 69 08 3e
       0.11885287 0.12628046 0.044934303 0.13321632
0000e0 fa 29 4d 3d 1f 29 7e 3d 09 83 7f 3d bf 5b c7 3d
       0.05008886 0.062050935 0.062380824 0.09734296
0000f0 ba 74 f0 3d 37 ba 42 3c 6a d9 ec bc 6f 46 04 3d
       0.11741014 0.011885217 -0.028912265 0.032293733
000100 0b 73 a8 bc b3 86 9d 3d 23 68 15 bd 31 40 2f 3d
       -0.02056267 0.076917075 -0.036476266 0.042785827
000110 6c ce dc 3c 93 81 7f 3d cc b7 d3 bd c7 3b 8f 3d
       0.026953898 0.06237943 -0.10337791 0.069938235
000120 7d e9 0c 3e 21 61 03 3e 50 b0 b1 3d 71 87 d7 bd
       0.13760944 0.1283002 0.08676207 -0.1052388
000130 42 40 84 3d 38 a9 36 bd af 57 e0 bd ed 4f 98 3d
       0.06457569 -0.044594973 -0.10954224 0.0743712
000140 91 8e a9 3d 67 4b fe bd 38 f2 c5 3d a0 1f 80 bc
       0.082791455 -0.124167256 0.0966534 -0.01564008
000150 4a 15 49 3d 5f 22 31 3e 6f 59 db bc 8f 7c ef bc
       0.04909257 0.17298268 -0.026776044 -0.029234199
000160 87 6c 04 3e d1 60 73 3d d0 01 83 3d 17 b5 67 bd
       0.12932025 0.059418503 0.0639683 -0.056569185
000170 a8 9f 9f 3d 86 39 e2 3d 4c 42 cb 3a 85 a1 8b 3d
       0.07794124 0.11046128 0.0015507429 0.06817917
000180 39 e6 c7 3c 94 0b 62 3d 9a d5 2b 3c 72 68 70 bc
       0.02440177 0.055186823 0.010487938 -0.014673339
000190 fb 06 81 3d 5e c4 3c 3d 03 3b 6a bc d5 d6 39 3e
       0.063001595 0.046085708 -0.014296296 0.18148358
0001a0 08 29 a3 3d 53 ca ee bc 95 c0 64 bd 66 32 f6 3c
       0.079668105 -0.02914921 -0.055847723 0.030053329
0001b0 e3 67 12 3d 8f 5c 14 be 04 62 b0 3d 3b 98 3f 3d
       0.035743605 -0.14488433 0.08612445 0.046776038
0001c0 12 25 04 3e cb 36 f1 3c 19 cb 1b bd 8b c6 54 3e
       0.12904766 0.029445073 -0.038035486 0.20778863
0001d0 7f b0 45 3d 46 a1 d0 bb ae 90 09 bd 0b c8 c0 bb
       0.048264023 -0.0063668815 -0.033585243 -0.005883222
0001e0 3d 8b 7c bb 8f d1 5a bd 91 cf 02 3e ec 72 01 3d
       -0.003853514 -0.053422507 0.12774493 0.03160374
0001f0 d4 95 8d 3c 8f f1 1c be 6c 88 81 bd 6f c7 0f bd
       0.017283358 -0.15326522 -0.063248485 -0.035102304
000200 50 56 8f bd 0c 40 0a 3d b7 b1 1b 3e 76 e3 b9 bd
       -0.06998885 0.033752486 0.15204512 -0.09076588
000210 71 24 07 3e c2 1d bb bd 70 d2 6a 3d e7 aa 7e bd
       0.13197495 -0.09136535 0.057329595 -0.062174704
000220 d6 9f 2f 3d 52 4e a1 3d 64 1e cc bd b6 0c b3 3c
       0.04287704 0.078762665 -0.09966734 0.021856647
000230 04 3d ce bc 6b 6e c5 3d 0f d6 a7 3d b4 23 82 3c
       -0.025175579 0.09640201 0.08195125 0.015886165
000240 97 01 35 bd 68 22 c2 3d 0c e4 44 bd f5 02 9c 3d
       -0.04419097 0.09479219 -0.048069045 0.076177515
000250 2a 03 85 3b b8 07 c0 bc a6 a6 c7 bb 3c a3 a0 3d
       0.004059215 -0.02344118 -0.006092864 0.078436345
000260 63 06 ad bd e2 35 d5 bc 46 63 0d 3e 31 8d 0f bc
       -0.08448484 -0.02602667 0.13807401 -0.00876169
000270 ff 9b 01 bd 10 66 e2 bb 68 d0 05 3e 2e 50 69 bd
       -0.03164291 -0.0069091395 0.13067782 -0.05696123
000280 27 91 51 3d cc 99 81 3e 69 e8 d0 bb 1a a7 15 3d
       0.05116382 0.2531265 -0.0063753617 0.036536314
000290 50 13 06 bd f5 a8 c5 bc bc 80 a4 3d f7 b5 84 bd
       -0.03273326 -0.024128417 0.08032367 -0.064800195
0002a0 b5 50 c4 3d ef d7 bb 3d f9 b2 b5 bd 07 f6 f2 3c
       0.09585706 0.091720454 -0.08872027 0.02965833
0002b0 79 45 d2 bd a0 cf b7 3d bc 29 7d bd cd 7d 7c 3d
       -0.10267157 0.08975148 -0.06180738 0.06164341
0002c0 77 d5 23 bc 49 da 80 3e 43 e3 a5 3d 11 1d af 3d
       -0.009999624 0.25166538 0.08099987 0.08550466
0002d0 b3 28 a7 3c b5 04 b2 3d fb af 64 3d f9 46 b5 3d
       0.02040515 0.08692304 0.05583189 0.088514276
0002e0 62 ca 42 bd ad bd a9 bc ac a6 63 3d 58 23 eb 3c
       -0.04755629 -0.020720327 0.055578873 0.028703377
0002f0 9c f1 e7 3d 33 1b 3f ba 10 d1 dc bc fb 5c 60 3d
       0.1132538 -0.0007290125 -0.026955158 0.054776173
000300 fa d2 a8 3c ee 7c 95 3c 03 d3 1d bd 6a 0e cd bd
       0.020608414 0.018248048 -0.038531315 -0.10012515
000310 11 6d 3d 3d 37 5c f1 3c e4 7d a4 bc c6 18 f0 3b
       0.046246592 0.029462917 -0.02007956 0.007327172
000320 c4 b3 16 3e b1 8a 54 3e 80 dc 73 3c 04 3e 44 bd
       0.14717013 0.20756032 0.014884114 -0.047910705
000330 05 de da 3c 24 06 d7 3d 5e d9 30 bd b8 ec 3d bd
       0.026717195 0.10499218 -0.043176048 -0.04636833
000340 f3 6c 89 3c b3 08 98 bd 93 77 60 bd 5d a6 23 be
       0.016775584 -0.07423534 -0.054801535 -0.15981431
000350 4f 59 10 3d 89 9a e5 3d 70 87 71 3c e0 63 76 3d
       0.03524142 0.11211116 0.0147417635 0.060153842
000360 95 e6 8a 3d 69 b0 1a 3d 78 c2 01 3c 37 75 a4 bd
       0.06782261 0.037765894 0.0079199 -0.080301695
000370 a4 a8 fb 3d d5 b4 71 3d 4f 6f fe bc e4 bb a9 bd
       0.12288025 0.059010345 -0.031058935 -0.082877904
000380 e8 b4 94 bd 86 41 5a bd 74 4c 6e 3d 08 17 80 3d
       -0.07261068 -0.053285144 0.05817838 0.06254393
000390 18 ec 21 3d aa 69 a0 3c 37 d5 05 bc f4 df 6c 3e
       0.039531797 0.019581635 -0.00816851 0.23132306
0003a0 bc 88 29 3e 50 c5 73 3d 70 2c 18 3b 8b 2c a1 bc
       0.16556066 0.059514344 0.0023219846 -0.01967456
0003b0 08 3c d4 3d a8 2c d7 bd a6 1c 2a 3d 53 2b af bd
       0.103630126 -0.105065644 0.041531228 -0.08553185
0003c0 d4 38 90 3d 58 a9 ba 3d f5 29 a4 3d 36 92 41 3e
       0.07042089 0.09114331 0.08015815 0.18903431
0003d0 0f e9 5e 3d 5d a3 4c bc 21 50 34 3c 38 34 8f 3d
       0.05442148 -0.012490121 0.011005432 0.06992382
0003e0 f1 4e 22 3d 6e 64 c7 bd f1 b7 e6 3d a2 7c 15 bd
       0.039626066 -0.09735952 0.11265553 -0.036495812
0003f0 3e 48 89 3d 57 1e 19 be bb 40 22 3d ee 66 80 3c
       0.06703232 -0.1495298 0.039612513 0.01567408

hidden_layer2.bias f4 [64]
000000 07 0c b0 3d 49 db 97 3c e9 f2 d7 bd e4 35 49 3d
       0.08596044 0.01853718 -0.10544378 0.04912366
000010 35 c0 c3 bd 06 87 20 3d 7a 0a bc bc 43 8b 03 bd
       -0.09558145 0.03919127 -0.022954214 -0.032115232
000020 13 d4 42 bd 1c f1 98 bc ea 8a ac 3d 62 b1 16 bd
       -0.04756553 -0.018669657 0.08424933 -0.03679026
000030 86 bf a4 3c 48 e2 4a 3d 6f f9 5c bc 05 c0 6c bd
       0.020110857 0.049532205 -0.013487204 -0.05780031
000040 3e 9d 39 3d c3 a1 aa 3d fe a4 ec bd 27 5a b4 3d
       0.045315973 0.08331635 -0.11554907 0.08806258
000050 4f ad 2e bd ce 60 30 bd 7e 3f e9 bc 05 66 aa 3d
       -0.04264575 -0.04306107 -0.028472658 0.0832024
000060 12 1f 01 be 2b 3f a9 3c 86 08 14 3c 66 7c 50 bd
       -0.12609509 0.020660004 0.009035235 -0.050899886
000070 70 d9 da bd 2a a9 5e 3d 06 07 64 bd c5 7c 99 3d
       -0.10686004 0.054360546 -0.05567076 0.07494501
000080 02 2a c0 3c 8a c5 b6 bd f9 91 b8 3d d5 dc ca bc
       0.02345753 -0.08924396 0.09012217 -0.024763504
000090 54 dc d2 ba 92 90 88 3c d0 3a 80 bd a4 57 d3 bd
       -0.0016087391 0.016670499 -0.062612176 -0.103194505
0000a0 bf 32 52 3d d3 c2 b3 bd a9 12 78 3d 71 a3 e6 bd
       0.051317926 -0.08777394 0.06056467 -0.11261643
0000b0 3e d7 a3 bd 52 24 9c bd b8 46 64 3d df ee 1b 3d
       -0.080000386 -0.07624115 0.055731505 0.038069602
0000c0 69 15 5c bd ad 00 27 bc 5a 69 96 bd d2 d6 89 bd
       -0.053731356 -0.010193032 -0.07344313 -0.06730427
0000d0 09 06 99 3d 15 cb 49 bd dd fe 30 3d 5a c5 dd bd
       0.07471854 -0.04926594 0.043211807 -0.108286574
0000e0 19 f4 e5 bb d8 c5 42 bd 14 a8 22 3d 1e 5f c4 3b
       -0.007017624 -0.04755196 0.039711073 0.005992784
0000f0 78 2a 8f bd 3d 0f bb bd d5 54 c9 3c bb e5 14 bd
       -0.06990522 -0.09133766 0.024576584 -0.0363519

output_layer.weight f4 [2, 64]
000000 d7 a4 41 be 05 45 59 be 80 6b 5d bd 96 02 ae 3d
       -0.18910538 -0.21217735 -0.054057598 0.08496587
000010 5f b9 b7 3d e8 17 41 3e 9a 8b 3e be 23 40 a6 bd
       0.089709036 0.18856776 -0.18607941 -0.08117702
000020 dc 65 90 3d 01 fd 2e 3c 00 fb 4a 3d 88 83 39 be
       0.07050678 0.010680438 0.04955578 -0.18116581
000030 30 48 1f 3e f0 61 1b bd d3 90 33 bd 1c fa b2 3d
       0.15554881 -0.037935197 -0.043839287 0.08739111
000040 bc f9 70 bd 50 fa 2f be e3 e1 16 bd 4a 6d 00 3e
       -0.058831915 -0.1718533 -0.036836516 0.1254169
000050 92 40 9f bd d7 42 82 3d 70 04 d0 3c 05 5e 09 be
       -0.07775988 0.06360405 0.025392741 -0.13414772
000060 48 b3 7a bd b5 7f c4 3d 01 46 38 3e a6 60 a5 3d
       -0.061206132 0.09594671 0.17995454 0.08075075
000070 95 29 92 bd 0b 61 b8 3d dc 22 ae 3d 56 bc 19 3e
       -0.071368374 0.090028845 0.08502743 0.1501325
000080 c0 b2 2f be 93 44 ec bd de dc d8 3d 4a 4e a8 3d
       -0.17158031 -0.11536517 0.10589002 0.082180575
000090 fb 47 22 3e b6 87 be 3d 62 72 cc 3c 32 ec 7b bd
       0.15847771 0.093032286 0.024956886 -0.06150455
0000a0 dc a6 49 be 95 64 b4 3d 60 5c 91 bd 1d 0f e6 3c
       -0.19692558 0.08808247 -0.07097697 0.028083378
0000b0 f7 59 b2 bc 37 79 91 3d e4 39 18 be 54 f7 10 be
       -0.021771414 0.07103198 -0.14865834 -0.14156848
0000c0 a1 c0 53 3e dc 55 dc bd 42 80 0f bc eb 6f 68 3c
       0.20678951 -0.10758564 -0.008758606 0.01418684
0000d0 d8 e6 a1 3d 86 20 1d 3e be d1 0d be 4e cc 07 bd
       0.07905358 0.15344438 -0.13849542 -0.033153825
0000e0 20 38 d5 3c 7e 8f b8 bd 5b 28 63 bd 1b 0c b6 3d
       0.026027739 -0.09011744 -0.055458408 0.08889028
0000f0 9d 20 a8 3d f9 5b b5 3c 7d b8 2f 3c 04 4a 33 bd
       0.082093455 0.022138583 0.010725138 -0.04377176
000100 d6 23 bd 3d 07 06 0e 3e 57 5d 28 3c 8b d0 10 3d
       0.09235351 0.13869487 0.01027616 0.035355132
000110 ce 55 11 bd 06 62 69 bd e9 21 47 3e a8 26 a7 3d
       -0.03548222 -0.056978248 0.1944653 0.0816167
000120 69 29 07 be ad e0 82 bd 76 1f 02 be 1a a2 21 3e
       -0.1319939 -0.0639051 -0.12707314 0.15784493
000130 f1 d0 fb bd d9 90 bc bd ca 0e 2d bb d3 ad c2 3d
       -0.12295712 -0.09207315 -0.002640652 0.095058106
000140 c1 88 6c bd 62 e6 8a 3d d0 f4 3a 3d 06 c9 02 be
       -0.057747606 0.06782223 0.045643628 -0.12771997
000150 80 7b 7c bc 55 ba 97 3d f0 0e 0a 3d 86 a5 1f 3e
       -0.015410304 0.07408587 0.03370565 0.15590486
000160 0f b0 6d b9 03 9d f9 3d 3d 02 0d be 34 c2 37 3d
       -0.00022667668 0.12188151 -0.13770385 0.04486294
000170 6a 54 71 3d 0b b9 da bd c0 05 5d 3c 79 92 02 be
       0.058918394 -0.106798254 0.01349014 -0.12751187
000180 16 8a 8a 3d 9e 85 56 bd cf dc e3 bd 58 7c e4 bd
       0.06764619 -0.05237352 -0.111261 -0.11156529
000190 45 ee f6 bd d0 53 1f be af 9e 2f 3d 2c 77 ac 3d
       -0.12057165 -0.15559316 0.04287594 0.08421168
0001a0 e7 a1 9a 3d c0 ad c6 3d 06 5e 20 3e cf 98 15 3e
       0.07550412 0.09701109 0.15660867 0.14609073
0001b0 15 2f b9 3d 58 9f 8a bd b9 31 75 bd 04 f6 8c 3d
       0.09042183 -0.06768674 -0.059861872 0.06882861
0001c0 98 a0 77 bd d6 6a b8 3d f0 fe 16 3d 0b e6 6e bc
       -0.06045589 0.09004752 0.03686422 -0.014581214
0001d0 3f 9b dd bd 2b 09 2b bd 36 f8 3a 3e c0 62 01 bd
       -0.108206265 -0.04175679 0.18258747 -0.031588316
0001e0 60 7c 6e 3c f4 8c b8 bd c1 88 34 3e 19 1a ef bc
       0.0145560205 -0.0901126 0.17630292 -0.029187249
0001f0 4e 54 13 bd 2a da 45 3d d4 6f 29 be bb d1 c0 bd
       -0.03596907 0.04830376 -0.16546565 -0.09415003

output_layer.bias f4 [2]
000000 2a 25 44 3d ef 35 df bd
       0.047887005 -0.10898959
