cartpole_rf_results/num_episodes=3000_alpha_policy=0.001_alpha_value=0.001_gamma=0.99_reward_scale=0.01/policy_net.pth (torch, 38822 bytes, 6 tensors)

hidden_layer1.weight f4 [128, 4]
000000 66 7f 05 be ea 82 a9 3c 42 61 85 be 9b f6 c6 3e
       -0.1303688 0.020692308 -0.26050764 0.3886002
000010 61 0a ce 3e c6 42 62 bd 49 cc b9 bd 46 59 65 bc
       0.40242293 -0.05523946 -0.090721674 -0.013998335
000020 61 15 a5 be 64 0b a6 3e dd 06 84 be c8 a3 d7 be
       -0.32242873 0.32430565 -0.25786486 -0.42117143
000030 6a fa 34 3e 25 6e 0c 3f f3 7c 20 3f 27 d8 da 3b
       0.1767365 0.5485557 0.6269066 0.0066785994
000040 c6 f2 03 bd f2 3e 86 3e 7e e8 35 be 05 19 5f be
       -0.03221395 0.26219898 -0.1776447 -0.21786888
000050 ed 39 53 3d be 93 b0 be 11 c0 1d 3e e4 6b a3 3e
       0.051568914 -0.34487718 0.15405299 0.31918252
000060 11 77 56 be f1 56 89 3e cf eb b7 be f9 7d cb 3c
       -0.20943858 0.26824144 -0.35922095 0.024840342
000070 80 26 c8 b9 53 7a d6 3d d3 9c c7 bd c4 64 c5 bc
       -0.00038175657 0.1047255 -0.09746709 -0.0240959
000080 8a 97 7b bd 94 6e 4a 3c 6e 5f 6f be 36 9e 67 be
       -0.061423816 0.012355465 -0.23376247 -0.22618946
000090 79 e4 41 3e 15 08 dc 3e 26 9d 92 be 4f a6 b5 be
       0.18934812 0.42974916 -0.2863552 -0.35478446
0000a0 c8 fe e2 3e 20 69 8f 3e 60 f7 86 3d 84 cd b9 3d
       0.44335008 0.28009892 0.06590152 0.09072402
0000b0 3b 75 9a 3e ad c0 85 be 2b b5 13 3e 38 f1 8d 3e
       0.30167565 -0.26123562 0.14424579 0.27723098
0000c0 56 07 1f be d5 e6 12 bc 22 bc 95 3e 29 c7 27 3e
       -0.15530142 -0.008966167 0.29245096 0.16384567
0000d0 27 6a 9c 3e a8 74 6c bd a2 52 5f 3e 25 6d 20 3e
       0.30549738 -0.05772844 0.21808866 0.15666635
0000e0 4d 15 0c 3e 04 74 30 bd 08 3f ea be b4 b2 0d bf
       0.1368 -0.04307939 -0.45751214 -0.55350804
0000f0 7f 47 70 be ba 91 52 be 77 51 17 be 43 07 0c 3f
       -0.23464774 -0.20563403 -0.1477717 0.5469858
000100 6f 6f d8 bd 8c 59 c4 3d 29 2d 83 3e f3 4e a6 3e
       -0.10568129 0.09587392 0.25620392 0.32482108
000110 a0 ab cf 3e 4c 57 d6 bb 5d 73 79 bc 81 87 8d 3e
       0.40560627 -0.0065411683 -0.015225259 0.27642444
000120 8b a6 b9 be 10 91 e3 3e b0 72 51 3d 6d 9f 6b 3e
       -0.36259875 0.4444661 0.051134765 0.23010035
000130 f1 9e 72 3e b7 42 84 3e 06 fe a3 bd 66 78 14 3e
       0.23693444 0.2583215 -0.080074355 0.14499053
000140 35 5a b5 3e 28 8d 9b be 81 a4 94 be be e5 10 bf
       0.35420385 -0.3038113 -0.29031757 -0.5660056
000150 52 c5 79 be c9 3c b4 be 60 30 87 bd 20 65 99 be
       -0.24391678 -0.35202625 -0.06601024 -0.29959965
000160 a1 b3 da be 4c 4b d5 be ee 18 09 bd 9a cd c0 3e
       -0.4271517 -0.4165901 -0.03347104 0.37656862
000170 c6 db 56 bd 7d 17 7d 3e 3e 76 18 bf fd 8b 2c be
       -0.052455686 0.24715991 -0.59555423 -0.16850276
000180 f9 46 f6 3e 49 09 96 3e d9 f5 f7 be 79 65 c1 bd
       0.48101023 0.2930396 -0.48429754 -0.094431825
000190 b2 6a 5c 3e 01 a7 60 be e7 96 34 bf 76 71 13 bf
       0.21525076 -0.21938707 -0.7054276 -0.57595
0001a0 06 d6 1b 3e bb 18 66 bd 03 a1 89 3e ea bb b7 3e
       0.15218362 -0.05617593 0.26880655 0.35885555
0001b0 3a 51 6c be 53 5a ec be f5 da 0f 3f 7e 1f f3 3d
       -0.2307786 -0.46162662 0.56193477 0.11871241
0001c0 eb bc ab bc 66 c3 ad be e2 05 46 be b7 93 18 bf
       -0.020964107 -0.3393814 -0.19338182 -0.59600395
0001d0 a9 60 86 bd 01 a0 2c 3e 2e ae 06 be 0b d8 e7 be
       -0.06561405 0.16857912 -0.13152382 -0.45282015
0001e0 13 05 0f 3e 66 da a6 be 1c 10 d0 3e c2 18 ac be
       0.1396678 -0.325885 0.4063729 -0.3361264
0001f0 8a 86 f3 be cb cb d4 3e 52 18 a3 be 77 15 03 bf
       -0.47563583 0.41561732 -0.31854492 -0.5120463
000200 25 ab 5e 3e da 23 42 be b0 58 20 be 74 9e f9 3e
       0.21744974 -0.18958989 -0.15658832 0.48753703
000210 b1 30 a3 3e 6a 81 a9 3e ce f6 cb 3e b5 62 35 be
       0.31873086 0.33106548 0.39836735 -0.17713435
000220 09 74 b3 be 26 47 da be b1 03 d5 bd 18 9b f5 3e
       -0.35049465 -0.42632407 -0.10401095 0.4796989
000230 68 44 56 3e e9 0c 46 be 2e 4c 62 be 0c 83 ac be
       0.20924532 -0.19340862 -0.22099373 -0.3369373
000240 88 0f ea be 34 cb 2e 3d da 69 2b 3e c9 7a 9a be
       -0.45714974 0.04267426 0.16739598 -0.30171803
000250 88 59 c1 3e bc 1c 67 3d bb 91 90 be 1e c5 b9 3e
       0.3776362 0.056423888 -0.28236184 0.362832
000260 c7 08 f4 3c db b0 ee be f7 c5 7c be e1 b9 c5 3d
       0.029789342 -0.46619305 -0.24684893 0.09654594
000270 ea 98 a2 be cc 97 97 3e 69 cd c8 be 54 27 b4 bc
       -0.3175729 0.29608 -0.39219216 -0.02199141
000280 59 31 a8 3c f0 79 69 3e 90 a5 c2 3d e8 97 ca 3e
       0.020531343 0.22800422 0.09504235 0.3956902
000290 38 da 68 bb fb 56 c2 3e 67 7e dc be de 6f 84 bd
       -0.003553046 0.37956986 -0.43065187 -0.064666495
0002a0 d3 e0 95 bb 4f a3 1a be e5 98 ce be db 50 a8 be
       -0.0045739203 -0.1510136 -0.40351024 -0.32874188
0002b0 94 ad 25 be 05 b8 71 3d 0d 2c 86 bc 41 e4 d5 be
       -0.16179496 0.059013385 -0.016378427 -0.41775706
0002c0 c9 49 f3 3e bf e9 5c 3e 8c ba 73 be aa ea ea 3e
       0.4751723 0.21573542 -0.2380163 0.4588216
0002d0 c1 73 c6 be 67 7e 98 3e a0 cf fc 3c 03 f9 ae be
       -0.38760188 0.29783937 0.030860722 -0.34174356
0002e0 71 30 d7 be 0c 24 36 be a6 64 2e 3e 1b 66 43 3e
       -0.42029145 -0.17787188 0.17030582 0.19081919
0002f0 4c d4 e5 be d6 95 77 be 96 70 05 3f 82 50 b3 be
       -0.44888532 -0.24178252 0.5212492 -0.3502236
000300 57 72 30 3e d1 bb 63 3e 78 63 bf 3e 2b 83 16 3f
       0.17231117 0.22239615 0.37380576 0.58793896
000310 1f 19 2e 3c c1 14 8b be 1d 96 dd 3e 2b 12 d7 3d
       0.0106261065 -0.2716427 0.4327859 0.10501512
000320 00 b2 c8 be e0 08 8e 3e 26 62 99 3d 91 9f 89 3e
       -0.39198303 0.27741146 0.074894235 0.26879552
000330 4b 67 53 be 91 e4 d0 be 14 d1 09 bf fd b3 e2 be
       -0.20644872 -0.40799382 -0.5383465 -0.44277945
000340 63 26 31 3e 3f 49 9a 3e 9d c5 3a 3e 60 29 25 3e
       0.172998 0.30134007 0.18239446 0.16129065
000350 f8 b9 a5 3e be 2d 85 be ab 32 95 bd 5e 62 93 be
       0.32368445 -0.2601146 -0.07285055 -0.28785986
000360 b9 29 01 3f 0d de 57 3e cf 4a cc 3e 0d 1d 8a 3e
       0.5045429 0.210808 0.39900824 0.2697529
000370 16 80 fd 3e 50 f1 cb be 91 cd 6e 3e aa f7 f0 be
       0.49511784 -0.39832544 0.23320605 -0.47063953
000380 64 7c e7 3e 5a 13 13 be 2e 16 3d be c4 08 b9 be
       0.4521209 -0.14362851 -0.18465492 -0.361395
000390 7c 73 98 3e ec cd d6 be 04 a2 65 be 00 ae f9 be
       0.29775608 -0.4195398 -0.22425085 -0.48765564
0003a0 3c f5 a1 3e a7 15 4e be ea ad ca 3d 00 c4 a4 3e
       0.3163241 -0.20125447 0.09896453 0.32180786
0003b0 11 fd a1 3e 29 22 58 bc 9d f0 80 3e 25 3d 67 be
       0.31638387 -0.013191738 0.25183573 -0.22581919
0003c0 a2 57 24 be 19 ba 63 3e ff 7a d6 be f9 11 c8 be
       -0.16049054 0.2223896 -0.41890714 -0.39076212
0003d0 38 a0 8a bd d1 61 c1 3a 97 5f 03 bd 16 62 ac be
       -0.067688406 0.0014753883 -0.032073583 -0.33668584
0003e0 68 9a fa 3d ea df 8d 3e 14 29 9a bd ab b2 91 be
       0.12236482 0.27709895 -0.07527366 -0.28456625
0003f0 e9 54 b9 be c2 ba a5 bc 04 92 06 bf 8f 83 bf be
       -0.36197594 -0.020230655 -0.5256655 -0.3740506

hidden_layer1.bias f4 [128]
000000 37 75 23 bc a6 1a 88 be c3 0c f2 3e b2 d9 9d 3e
       -0.009976677 -0.2658283 0.4727536 0.3083015
000010 82 9b ea 3e 5b 9a ad be a5 55 bb bc b1 8a 47 be
       0.45821768 -0.33906826 -0.022867987 -0.194865
000020 17 2f ee 3e 5f d3 3e 3e f0 2d ba 3e 4a 5a 02 3f
       0.46520302 0.18635319 0.36363173 0.5091902
000030 85 e1 34 be c4 f4 7e be 03 c8 61 3e af c3 c4 3d
       -0.17664154 -0.24898058 0.22048955 0.09607636
000040 45 94 f4 3d cb cd 67 3e 5c 24 97 3c 31 18 22 be
       0.11942343 0.22637098 0.018449955 -0.15829541
000050 dd ea 65 3e 29 7d fe 3e 18 83 8f be 2d 5b 6a 3a
       0.22452874 0.49704865 -0.28029704 0.0008939978
000060 b3 bb bb 39 f6 72 ad 3e 49 5e a8 3e 8d d9 10 bc
       0.00035807266 0.3387677 0.32884434 -0.008840931
000070 9b b7 40 3d 52 a3 82 3e 07 09 6f be 8a da c5 3e
       0.0470501 0.2551523 -0.23343287 0.38643295
000080 3a 64 d8 3e d7 23 f3 bd 40 e6 ed be 61 31 f1 be
       0.42263967 -0.1187207 -0.4646473 -0.47107986
000090 54 d7 a3 3e 0b 02 f4 be 87 5d b5 be cb 0b 0d bd
       0.3200022 -0.4765781 -0.35422918 -0.034435075
0000a0 58 2f f2 3e 73 75 e8 be 4f 3e ab be 91 73 59 3e
       0.47301745 -0.45402107 -0.33445975 0.21235491
0000b0 2b a4 a2 3e d9 5d 07 3e 84 b7 92 be e2 99 ae 3e
       0.31765875 0.13219394 -0.28655636 0.34101778
0000c0 85 1e 68 3c 0c 8d b9 3d 3a e2 d0 3e 59 9f 90 be
       0.014167433 0.09060106 0.40797597 -0.28246573
0000d0 06 a1 f6 be cd b8 b7 3e b3 1e a7 be 79 dd 3b be
       -0.48169726 0.3588318 -0.3264061 -0.18346204
0000e0 75 b7 bd 3d ce 24 04 3e 13 ed 8f be c4 d8 e5 be
       0.09263507 0.12904665 -0.2811056 -0.44891942
0000f0 fd cf 31 3e 90 6f 8a be e0 39 c6 3e 0b 98 d1 3c
       0.17364497 -0.2703824 0.3871603 0.025585195
000100 78 f2 eb be c7 82 d4 be bb ab 1f 3e 50 73 68 be
       -0.46083426 -0.41506025 0.15592854 -0.22700238
000110 bf 6f fb 3e e8 47 5a be 02 60 d5 be ba a5 f0 3e
       0.49108693 -0.21316493 -0.4167481 0.4700144
000120 8a d6 ec be 25 62 0c be bc ae f3 be a7 c1 9f be
       -0.4625743 -0.13709314 -0.4759425 -0.31202433
000130 b0 ac 71 bd f7 34 d2 3e f6 b9 ae be 4b 7e 8b 3e
       -0.05900258 0.41056034 -0.34126252 0.2724479
000140 24 00 77 be 85 39 f4 3e 1a c8 c2 bd 00 2e a9 be
       -0.24121147 0.47700134 -0.095108226 -0.33042908
000150 ea ce 5e be a6 f0 df bd 2b 63 6e be d2 57 5d 3d
       -0.21758619 -0.10934572 -0.23280017 0.05403883
000160 5c 7f 92 be 0b 39 a0 3e 5f b7 df 3d 82 c7 5a be
       -0.28612792 0.3129352 0.10923647 -0.21365169
000170 e3 5b 79 3e e4 7e c9 be c6 0e 13 be 35 c0 b1 3d
       0.24351458 -0.39354622 -0.14361104 0.08679239
000180 e6 5f 95 be 68 26 dd 3e 73 df 9a bb c7 36 fb be
       -0.29174727 0.43193364 -0.0047263443 -0.4906523
000190 a4 bf 3f 3d 09 12 d2 3e cf 15 09 be 68 18 87 3e
       0.046813622 0.41029385 -0.13387226 0.26385808
0001a0 60 a1 ad be 6d 64 9d be 78 5e bf 3e 8e 02 c9 3e
       -0.33912182 -0.3074068 0.3737676 0.39259762
0001b0 30 ba e9 3d 74 38 0f be 15 5f ec be ce 83 05 3e
       0.114124656 -0.13986379 -0.46166292 0.13038561
0001c0 00 a5 ae be 18 4a 9d be 47 32 18 3e 29 75 b2 3e
       -0.3411026 -0.30720592 0.1486293 0.3485501
0001d0 1b 96 4f be 8b a4 f0 3e dc 96 d0 be 05 a5 75 be
       -0.20272104 0.47000536 -0.40740097 -0.23988731
0001e0 de 4b 91 3e 0e ec 97 3e ec c6 87 3e c9 65 88 be
       0.28378195 0.29672283 0.26518953 -0.26640156
0001f0 a5 a0 9a 3e b7 e0 47 3e e6 66 e7 be 14 b7 24 3e
       0.30200687 0.19519316 -0.45195693 0.16085464

hidden_layer2.weight f4 [64, 128]
000000 57 0b 9b bd 5d 07 18 bd 2b 65 cb bb 9e 26 f5 bb
       -0.07570522 -0.037116397 -0.0062071285 -0.00748141
000010 99 a6 20 bd c9 28 71 3a fe 73 6d 3d 8b 3c 94 3c
       -0.03922138 0.0009199498 0.057971947 0.018095275
000020 a3 a1 a7 3d c8 bf 44 bd 05 56 76 3d 67 e2 b9 bd
       0.08185127 -0.04803446 0.06014063 -0.09076386
000030 81 70 d1 3c 1d 9a 02 3d b5 74 31 3c b0 a0 2c bd
       0.025566341 0.031885255 0.010831048 -0.04214543
000040 23 e3 1b 3d a3 d1 bf bd 50 98 48 3d d4 92 42 bd
       0.03805841 -0.09366157 0.04897338 -0.047503307
000050 43 ee 87 3d 9a de 67 bd 73 a5 56 3d fe 9b c8 3d
       0.06637242 -0.056608774 0.05240388 0.09795378
000060 31 bc 8e 3d 52 58 5f bb ce e9 a1 bd 80 95 0c 3b
       0.069694884 -0.0034079743 -0.07905923 0.0021451414
000070 1e f6 db 3c 0b c5 58 bd 79 8c a7 bd 5c a2 02 bd
       0.026850756 -0.05292229 -0.0818109 -0.03189312
000080 4e a6 5a 3d ff 02 a4 3d 20 46 72 3d 54 9d 4f bd
       0.053381257 0.08008384 0.059148908 -0.05068715
000090 74 84 ac 3d 64 6f 97 bc df d2 a4 bd cd dc 8c bd
       0.08423701 -0.018485732 -0.08048033 -0.06878052
0000a0 6b fb 1b 3d 50 d1 55 bd d5 e9 94 3d 9c 37 92 3d
       0.038081568 -0.05220157 0.072711624 0.07139513
0000b0 7a ab 67 bd 0b 24 90 bc 21 8f ef bc b0 c4 38 3a
       -0.056560017 -0.017595312 -0.029243054 0.00070483517
0000c0 15 30 60 3c b7 ec 4e 3c 0c 29 45 bd ee 25 a5 3d
       0.013683339 0.012629679 -0.04813485 0.08063875
0000d0 f8 f9 62 3c d3 c8 4f 3c b2 1d b8 bd 9c 12 ac bd
       0.0138535425 0.012682158 -0.08990039 -0.08401987
0000e0 3c 3e e4 bc 0e f6 9a bd 7c e4 06 bd 60 57 32 bd
       -0.027861707 -0.075664625 -0.032932743 -0.04354036
0000f0 b1 1a 23 3b 07 b5 80 3d e0 dd d0 3c c1 27 ae 3d
       0.0024887735 0.06284528 0.025496423 0.08503676
000100 85 15 07 3d bb ed 6a 3d 92 7f 88 3d a5 93 93 bd
       0.032979507 0.057355624 0.06664957 -0.07205895
000110 44 0e 12 bd 3c e7 c3 3d c4 21 77 3d ac 0f 6b bc
       -0.035658136 0.09565589 0.060334936 -0.014346998
000120 74 7f 84 3d 40 5f 88 bc ce ca a8 bd b9 47 3a bd
       0.06469622 -0.016646981 -0.08241807 -0.045478556
000130 eb a4 66 bd e5 cd 99 bd b1 b4 b1 3d 1b 28 12 3c
       -0.05630962 -0.075099744 0.08677042 0.008920695
000140 6f 72 9a bd fd b7 a6 3c 97 81 0b bd b6 ce 47 bd
       -0.07541358 0.020351404 -0.034059133 -0.04878112
000150 11 bd 97 bd a7 41 45 3d 3f 46 35 3d 14 11 9c bd
       -0.074091084 0.048158314 0.044256445 -0.07620445
000160 c0 49 fe bb 2e bd 33 bd 59 ef 9b 3d 2e 9b 9a bd
       -0.0077602565 -0.043881588 0.07614011 -0.075491294
000170 6b 5e 5c 3d 2b 02 c7 bc 82 d9 40 bd e6 7a 90 bd
       0.05380098 -0.024293026 -0.04708243 -0.07054691
000180 43 db a3 bd 43 9b d2 bc cb ac bf bd ff 5f dc bc
       -0.08000805 -0.0257088 -0.093591295 -0.026901243
000190 a7 c7 b5 3c 71 0c 80 3d 65 7c 3e bd 51 da 7a 3d
       0.022189928 0.06252373 -0.04650535 0.06124336
0001a0 0f 62 9d bc d6 34 82 bd 58 80 09 bd 44 99 5c bd
       -0.019211797 -0.06357734 -0.033569664 -0.053857103
0001b0 7b dd 24 bd 6d 7d 1b 3d ef 25 1d 3d 13 2d 91 bb
       -0.040250283 0.037961412 0.038366254 -0.004430422
0001c0 6f f1 23 bb 94 c1 83 3c 9f 5e 73 bc 28 7a 34 bd
       -0.0025015732 0.016083516 -0.014854102 -0.04406181
0001d0 88 2e 8b 3d 82 2c ae bc ef 33 5a bd e5 a5 92 bd
       0.067959845 -0.021261457 -0.053272184 -0.07160548
0001e0 29 ac b0 3b b5 c4 4f bd bb 93 5e 3d c9 b0 92 bc
       0.005391617 -0.050724704 0.054340106 -0.017906563
0001f0 af 2c 93 bd aa 4d d7 bc dd e3 07 3d 3c a4 a4 3b
       -0.07186257 -0.02628215 0.03317629 0.005024461
000200 3d 37 ad 3c aa ed c4 bc 25 e5 c6 bd 29 94 e3 3b
       0.021144504 -0.024039108 -0.097116746 0.0069451523
000210 c5 53 26 bd cc df 79 bd f5 2c 44 bd 66 2d dd bb
       -0.040607233 -0.061004445 -0.047894437 -0.0067497967
000220 6c 6a c4 bd 0f e4 9c bc 54 ae 80 bd 79 c0 2e bd
       -0.09590611 -0.019151716 -0.062832505 -0.042664025
000230 8c 73 ab bd 4e f0 f4 bc cf 63 2b 3d 0a b8 9a bd
       -0.08371648 -0.029899742 0.04184323 -0.07554634
000240 ad 57 70 bc 3f f7 41 bc 5a c7 58 3d a2 8e 23 3d
       -0.014669341 -0.011838733 0.05292449 0.039930947
000250 0d 8c 9c 3c 53 9c f5 3b 7b 4a 11 bd 7a 8d 27 3d
       0.01910975 0.007495442 -0.03547142 0.040906407
000260 9a d6 b6 bc 39 6b ae bd 0f 9c 90 bd 37 c9 8e bd
       -0.022319127 -0.08516545 -0.07061016 -0.069719724
000270 99 b5 86 39 c8 27 19 bc 06 e7 b4 3d 05 c1 16 bd
       0.00025693772 -0.0093478635 0.08833127 -0.03680517
000280 49 8f 21 3d ec 58 e8 bb 73 1e 0b 3d 3e c2 6e 3d
       0.039443288 -0.0070906784 0.033964586 0.058290713
000290 a4 8a 26 3d cb cf af 3d d9 72 66 3c d3 9b 3f 3d
       0.04065956 0.08584555 0.014065468 0.046779465
0002a0 5e 96 3b 3d 19 bb 13 bd e1 b4 7a 3d ea f2 dc 3c
       0.0457977 -0.036067102 0.061207656 0.0269713
0002b0 62 b8 c9 3c f9 6b 87 3c 30 6a 9e 3d a5 e2 96 bd
       0.024624053 0.016530978 0.077350974 -0.07367448
0002c0 63 ea 5d 3c f4 e7 63 bd 57 ad 56 bd a7 47 95 3c
       0.013544652 -0.05564113 -0.052411404 0.018222643
0002d0 93 ad 87 3d b7 56 8c bd 39 c5 d1 bb b9 c1 87 3d
       0.066249035 -0.06852477 -0.0064016846 0.066287465
0002e0 70 98 35 bd bb 37 74 bc c3 97 87 bc 6e 3d 5d 3d
       -0.04433483 -0.014905865 -0.016551858 0.054013662
0002f0 64 50 d2 3c 21 4f 0f 3d ec 12 85 3d a7 09 d9 3c
       0.025673099 0.034987573 0.0649775 0.02649386
000300 a5 43 51 bd 85 1d a9 3c 3c a3 de 3c 79 66 1a 3d
       -0.0510899 0.020643959 0.027177446 0.03769538
000310 b9 af a3 bc eb 69 ea bc 8e 13 76 bd 5f 6f f2 3c
       -0.019981252 -0.028614959 -0.060077243 0.029594122
000320 a4 7a 58 bd 30 34 3a bb ff 19 91 bc 57 f1 3c bd
       -0.052851334 -0.0028412454 -0.017712591 -0.046128597
000330 5b 8f e1 bc 6e c0 0f 3c b3 40 39 bd cc f2 b7 bd
       -0.027534178 0.008773906 -0.045227718 -0.08981857
000340 f7 26 b4 bd a3 9e 51 bd 6c d7 8b 3c 53 3b 60 bc
       -0.087964945 -0.05117668 0.017070495 -0.013686019
000350 0a bd 87 3c db a0 46 3d ce 56 b0 bd 6b c8 5b bd
       0.016569633 0.048493247 -0.08610307 -0.05365793
000360 eb f1 1c bd 8b 68 ad bd ad c2 a9 bd 2d 59 8c 3c
       -0.03831665 -0.084672056 -0.082890846 0.017132366
000370 a8 40 9c bc 9f 0b 0b bd 0d 69 39 3d 51 47 a3 bd
       -0.0190738 -0.03394663 0.0452662 -0.07972587
000380 02 9e 88 bd 34 67 87 bd 34 6d 91 bd e1 d7 80 3d
       -0.066707626 -0.06611481 -0.07100907 0.06291176
000390 2d 0c f8 bc ed 9d f8 bc 35 ec a2 3c 45 48 99 bd
       -0.030279243 -0.030348742 0.019888023 -0.074844874
0003a0 60 70 4e 3d fa 9a a4 3d 60 72 53 bd c9 78 5f 3d
       0.050400138 0.08037372 -0.05162275 0.05455855
0003b0 1e 72 51 3d 81 3d 81 3d c4 23 0f bd 4c d4 31 bc
       0.05113422 0.06310559 -0.034946218 -0.010853838
0003c0 94 55 3e bc 34 2b 9d 3d e9 86 22 bd aa fc 95 bd
       -0.011617083 0.07674256 -0.03967944 -0.073235825
0003d0 69 a9 5c bd 4c 11 75 3d a8 f2 1e 3d 34 ab 64 3c
       -0.0538725 0.05983095 0.038805634 0.013956834
0003e0 40 97 90 3c 58 1f e2 3c 1f 13 91 3d bc 45 f9 bc
       0.017650247 0.027602836 0.07083725 -0.03042876
0003f0 36 d2 47 bd aa ee 85 bd d9 73 2a bd 6a 35 84 3d
       -0.048784457 -0.06539662 -0.041614387 0.064555004

hidden_layer2.bias f4 [64]
000000 74 b3 5b 3d 19 81 17 bd 87 c0 29 bc 5d 65 0b bd
       0.053637937 -0.03698835 -0.0103608435 -0.034032214
000010 58 36 49 bd ca 5a d7 3d 45 9d a5 bc fe 2d 72 bd
       -0.049124092 0.105153635 -0.020216594 -0.059125893
000020 7b 53 5b 3b 68 ca 88 bd b0 92 c2 bb 38 05 d4 3c
       0.0033466506 -0.06679231 -0.0059378967 0.025881395
000030 e2 0f 65 bb 15 46 e8 3b df 6c fd bc 2e 05 3e bd
       -0.0034952094 0.0070884326 -0.030935703 -0.04639166
000040 73 6f 2c bd 2d 87 09 bc 89 77 68 bd 02 b3 c9 3b
       -0.042098474 -0.008394045 -0.056754623 0.0061553726
000050 de 0c 8f 3d 02 69 18 bd 12 17 3e bd 73 e3 73 bd
       0.06984876 -0.03720952 -0.04640872 -0.059543084
000060 e1 65 5a bd f5 05 85 bc e5 ee 4b bd 6a e3 56 bd
       -0.053319816 -0.016238192 -0.049788374 -0.052462973
000070 ee eb 7b 3d 83 96 7a 3c 7b ab 53 3d 25 f0 a4 3d
       0.061504297 0.015294674 0.05167721 0.080536164
000080 34 38 e3 bc 7f 34 ad 3d d4 e8 cf 3c 3d de 25 bd
       -0.02773676 0.084572785 0.025379576 -0.040495146
000090 fe fb 16 3d c2 fe 95 bd 91 06 91 3d 34 32 28 bc
       0.036861412 -0.07323982 0.070813306 -0.010265876
0000a0 2a 40 c3 bc ee 1d c0 3d d5 f7 60 3b 30 78 a4 3d
       -0.023834307 0.09380709 0.0034327407 0.080307364
0000b0 7c ff 55 3d eb a0 9e 3d 3d cd 29 3d fc 43 f8 bc
       0.052245602 0.077455364 0.041455496 -0.030305855
0000c0 c9 ee 11 bd d8 86 e0 3d cb 23 35 3d 9b 7e d0 3d
       -0.035628114 0.109632194 0.044223588 0.10180398
0000d0 be 92 62 bc 77 e5 42 3d de 93 85 3d 13 40 c8 3d
       -0.013828931 0.047582116 0.06522344 0.09777846
0000e0 74 5f bf 3d 04 1b da 3a 18 eb e0 3c cb 82 b7 3d
       0.09344378 0.0016640131 0.027455851 0.08960494
0000f0 80 7c ef bc 8a 4f 76 bd f5 be b4 bd eb d8 8b 3d
       -0.02923417 -0.060134448 -0.08825485 0.06828483

output_layer.weight f4 [2, 64]
000000 19 19 73 bd 5a a1 dd 38 66 52 d2 bc bd 7c dd bd
       -0.059350107 0.00010568155 -0.025674056 -0.108148076
000010 16 6b 14 3d 62 cd f6 3c 20 1e aa 3d 90 c5 1f 3e
       0.036234938 0.030127231 0.08306527 0.15602708
000020 d1 98 35 bd ee 3b c8 3d 67 2d 21 bc e0 38 0a be
       -0.04433519 0.09777056 -0.009837485 -0.13498259
000030 e5 cb 57 bd d8 e4 2c 3d 8d 47 39 3e 2b 7c 15 3e
       -0.052684683 0.04221043 0.180937 0.14598148
000040 e0 3f c4 bd 23 09 16 3e bd 44 af 3c d2 5a 10 bd
       -0.09582496 0.14651923 0.021395082 -0.035242863
000050 8c 6f bf 3d 5e cf ef bc 43 8a 0f 3d bd a8 93 bd
       0.09347448 -0.029273685 0.035043966 -0.07209919
000060 9e 54 0b 3e 1a 5d 35 be e3 e8 be bc 8a 84 56 3b
       0.13606498 -0.17711297 -0.023304408 0.0032732808
000070 a9 54 da 3d 59 2f 5b bd fa 93 bc 3d 67 47 2f 3e
       0.10660679 -0.05351195 0.09207912 0.17117082
000080 48 f4 7e 3d 8b a8 48 bd 32 1b 07 3e 1c c6 de 3d
       0.062244684 -0.04898886 0.13193968 0.1087763
000090 4c fb 87 bd c0 da bf bc a4 75 41 be cb 54 f0 3b
       -0.06639728 -0.023419738 -0.18892533 0.007334327
0000a0 3a 6d 0c 3e 5a ad 17 be e2 36 17 3e 77 8d 34 be
       0.13713542 -0.14812222 0.1476703 -0.1763209
0000b0 88 51 f4 3b 5e 32 32 bc 00 95 e9 3d 2d 2e 41 bc
       0.0074560083 -0.010876266 0.114053726 -0.011790794
0000c0 48 85 d0 bd 32 1c 28 be 38 50 33 be 94 19 36 bd
       -0.101816714 -0.16417006 -0.1751107 -0.044457987
0000d0 fa 07 dd 3d 8e 40 35 be 6f b2 f4 bd db 4f 79 bd
       0.10792537 -0.17700407 -0.11948096 -0.06086717
0000e0 d9 4f c2 3d d2 7b 27 3e 86 b1 fb 3d 54 f9 2f be
       0.09487886 0.16355827 0.12289719 -0.17184955
0000f0 42 45 f5 3d 49 b3 df 3d 4e a3 81 3d 5d b5 e3 3c
       0.119761005 0.10922868 0.06329976 0.027796442
000100 03 59 e3 bd 66 ed 77 bd 9e 99 e2 3d f5 7a 36 3d
       -0.11100962 -0.060529135 0.110644564 0.044550855
000110 56 37 e4 3c 9c 5b 3a be c9 87 d6 3d 06 42 81 3d
       0.027858417 -0.18199009 0.10475118 0.06311421
000120 bd 92 1a 3d fa 52 96 3d df 3e ce bd e5 a8 bf 3d
       0.037737597 0.07340045 -0.100705855 0.09358386
000130 37 65 83 3d e6 a5 04 be 60 93 3c be 0e bd 2c bd
       0.064157896 -0.1295391 -0.18415594 -0.042172484
000140 66 11 0d 3e 25 e6 e7 bd d3 05 4d 3c 8e f8 5a bd
       0.13776168 -0.113231935 0.012513596 -0.053459696
000150 f4 db 8f bd 6e 00 87 3d 21 a8 1b 3e 45 e3 03 3e
       -0.070243746 0.06591879 0.15200855 0.12879665
000160 73 dc 08 be df 81 1a 3e 00 e0 bd bd 33 01 aa 3d
       -0.13365345 0.15088604 -0.0927124 0.0830101
000170 7e 5e 45 3d f5 f9 94 3d 8e 11 d4 bc 22 e4 24 bd
       0.048185818 0.07274238 -0.025887277 -0.040256627
000180 8a fb f7 bd 40 eb 30 3e 6d ab b1 bc a2 73 89 bd
       -0.12108524 0.17277241 -0.021688187 -0.06711508
000190 2c f1 b9 3d d6 c3 d3 3d 83 eb 27 bd c5 54 19 be
       0.09079203 0.10340087 -0.040996086 -0.14973743
0001a0 d0 4d 78 bd a9 59 1e 3e 50 06 2b bd ef 9b b7 3d
       -0.060621083 0.1546389 -0.041754067 0.08965289
0001b0 39 9c 05 be fe d4 90 3c e3 b8 7c 3c b8 5b 2e 3e
       -0.13047875 0.017679688 0.01542494 0.17027175
0001c0 23 19 7e 3d 25 d9 26 3e 91 ae 25 3e 8f 60 2c be
       0.06203569 0.16293772 0.16179873 -0.16833709
0001d0 86 4b a3 bd be e1 45 3e 68 72 d8 3c 9c d2 07 3e
       -0.07973389 0.19324395 0.02642174 0.13263935
0001e0 f5 e9 26 be 5a bc dc bd 77 81 60 bd 98 0a ff 3d
       -0.16300185 -0.10778113 -0.054810967 0.124531925
0001f0 86 15 e1 bd d0 9a 6c bd f8 00 7f 3d e8 e1 0c be
       -0.109904334 -0.05776483 0.062256783 -0.13758051

output_layer.bias f4 [2]
000000 bb f5 dd 3d ed 4d 42 3a
       0.10837885 0.00074121245
