cartpole_rf_results/num_episodes=3000_alpha_policy=0.001_alpha_value=0.01_gamma=0.99_reward_scale=0.005/policy_net.pth (torch, 38822 bytes, 6 tensors)

hidden_layer1.weight f4 [128, 4]
00000000: c5d3 b2be 4dae fcbe 3049 f23e eda3 0b3f
00000010: 0bd9 dabe ff2e 5b3c 614f b33e 8fa8 923e
00000020: b010 ec3e 968f cdbe 9378 a8be 2449 dd3e
00000030: 4f51 2b3e 7e3c a4bd 663f e23e c5b5 813e
00000040: dbac a53e 34c0 d73e 2d9d 9d3e f1ac 41bd
00000050: 1802 95be 46d0 7abd ace6 12bf c3c1 0ebf
00000060: 211a 903d e72c cfbe 7ca2 d53c 4fa9 92be
00000070: 2b8d 97be 6280 743e 58bb 03bd faa5 643e
00000080: f33d e73d 2b74 05bd deea 1c3f c295 733e
00000090: e72a 8c3e 7f4d babe 508e bbbc e1d8 d63e
000000a0: e2eb 58bd 85d4 d0be 0cdb 083f 9d9b ed3d
000000b0: 7b6b 973e a50c 853d be7d cebe a296 79be
000000c0: 94af 513e 2e09 94be 1081 afbe fc25 d0be
000000d0: 5f8e 8abe c4f5 7b3e 66d1 213e 44d4 893e
000000e0: 9455 cd3c 9c17 d2be a099 cabe 6799 8cbe
000000f0: f2bb c43e ee2d fc3d 2d10 753e bce9 0c3f
00000100: 5990 2e3d 2d49 18be 1698 e03e 5117 db3e
00000110: 04aa dc3e 3089 ecbe ef27 94be 6d30 04bf
00000120: 6811 8ebd 8ee1 a23e 049b c5be 3bab 82be
00000130: 340c 16be 7487 96be 3f75 13be 29e2 b8be
00000140: 5df6 b53e d403 e43e aad1 d3be 0f4d 9f3d
00000150: b1b6 bdbe c0e1 d5be 53c7 efbb 4417 adbe
00000160: 0a25 d5be a9a8 b83e 9f25 103f 5757 053f
00000170: 207d 243e 445f a2be 0d40 ba3b 345a d7be
00000180: 9208 223e 3258 bbbe 76cd ecbe 77a5 a63c
00000190: 6db8 b93e 02a8 e03e 62fa 90bd 1b44 dcbe
000001a0: f96a f23e 7a65 dc3e 2737 ee3e 6039 8e3e
000001b0: 2f9c 07be da8f a6bd f15c 7b3e a8e0 193f
000001c0: b386 e43d f8d7 be3e 41ac 20be e558 14be
000001d0: 1d88 103d b0bf 5f3d bec7 a5be 5268 18bf
000001e0: 383c 65be 8178 063b b714 05bf fba0 b3be
000001f0: 4aab 54bd eaaa 833e 7213 44be eece fa3e
00000200: c907 01be 37b5 e5be ae67 1c3f 1669 9a3e
00000210: c3b0 92be 967c af3e 9a16 0c3f 86ca af3d
00000220: 3531 20bd 7314 9abe a441 44be ccaa 0dbf
00000230: 7690 4cbe 3845 eabd a659 393e c7a4 9c3e
00000240: 9a6a df3e ecb6 3abe bf3e 2c3f 1422 a83d
00000250: c395 fcbd b707 863e 9130 163d d8c4 90be
00000260: e1cd dd3d 2dd1 1abd 9a88 bb3e 587c f9bd
00000270: 15ed af3e 849a ad3e f07c fbbe 6326 0fbc
00000280: bc6a 05bd 3cd1 33be e6bf 143e 954e 13bf
00000290: 10aa dbbe 7e54 95bd 8df1 933e 030f 04bd
000002a0: 9bb0 ccbe 77d9 353e 53aa e1be 826e 09be
000002b0: 4241 a1be ab26 8b3e 8cf6 f5bd 6e90 af3e
000002c0: a2b5 81be 149a f5be 62a9 9d3d e192 b13e
000002d0: faf4 b9be 49dd f5be 9ca4 963c 1cfb 0bbe
000002e0: 78e1 e13d 603a 733e 56fa a1bd 19ff 43be
000002f0: cabe fd3e 0b92 16bd c112 f43e e958 c73e
00000300: 695c 823e c326 f33e 3964 42bd 680e fd3e
00000310: 0afd 523e d1e0 3a3e b01f bfbe a618 843d
00000320: 03cf e0be ed28 8d3e d45a 91be 1a28 29be
00000330: 3c8a 6d3e 43b2 92be e7bb 243d c935 d9be
00000340: a9ac 833e ecba 66be e247 1e3e c141 09bf
00000350: e21e 06be 845a bbbd 0376 8cbc 1f57 a5be
00000360: ef18 01bf 058d 91be a77b 0d3e 0ab1 c43e
00000370: cdf1 dcbe f25d d5be fe5c 973d d04e 04bf
00000380: c9be dfbe 1d4b 9e3e 2dd9 023f dea2 70bd
00000390: fe5d e23e 8d67 e73d 59b4 6ebd ac78 f0be
000003a0: 63ec 8dbe d3a5 1dbe 2976 0c3f 3e32 c03e
000003b0: e912 c43e f91a d0bd f8b8 053f 2f74 993b
000003c0: 7c64 b03e 2e68 003f 0a98 1e3e ced4 c73e
000003d0: 5d44 c93e 1fab 3c3e 1e70 7cbe 5fe9 2cbe
000003e0: 77f8 47be 7d18 8b3e 5017 ef3c 95e8 013f
000003f0: dbbb b7be f426 99bd 249e 94be 6bf0 14be
-0.34927192 -0.4935173 0.47321463 0.54547006 -0.42743716 0.013377904 0.350215 0.28644225
0.46106482 -0.4014861 -0.3290449 0.43219864 0.16730236 -0.080193505 0.44188994 0.25333992
0.3235844 0.42138827 0.30783978 -0.04728407 -0.2910316 -0.06123378 -0.5738323 -0.55764407
0.07036234 -0.40463945 0.026078455 -0.28644797 -0.2959989 0.23877099 -0.032161087 0.2232894
0.11291113 -0.03258149 0.6129588 0.23787597 0.27376482 -0.3638725 -0.022895008 0.4196234
-0.05295933 -0.4078714 0.5345924 0.116019465 0.2957419 0.064965524 -0.4033031 -0.24373868
0.20477134 -0.28913254 -0.34278154 -0.4065398 -0.27061746 0.24605471 0.15802535 0.26919758
0.02506522 -0.41033638 -0.39570332 -0.27460787 0.3842464 0.12313448 0.23931952 0.5504415
0.04261813 -0.14871664 0.43866032 0.42791227 0.43098462 -0.46198416 -0.28936717 -0.5163639
-0.06936914 0.3181271 -0.3859483 -0.25521263 -0.14653093 -0.29400218 -0.14400195 -0.36110047
0.35539523 0.4453417 -0.41370898 0.0777837 -0.37053445 -0.41773796 -0.0073174625 -0.33806813
-0.4162982 0.36066177 0.56307405 0.52086395 0.16063356 -0.31713307 0.005683905 -0.42061007
0.15823582 -0.36590725 -0.46250504 0.020342572 0.36273518 0.4387818 -0.07079007 -0.4302071
0.4734724 0.4304617 0.46526453 0.2777815 -0.13243173 -0.08132906 0.24547173 0.60108423
0.11158504 0.37274146 -0.1569071 -0.14487036 0.035286058 0.054626167 -0.32378954 -0.5953418
-0.22386253 0.0020518603 -0.51984733 -0.35083756 -0.051921166 0.25716335 -0.19148043 0.48986
-0.12600626 -0.44864818 0.610957 0.301583 -0.28650483 0.3427474 0.5472199 0.0858355
-0.039109427 -0.30093727 -0.19165665 -0.5533874 -0.19976982 -0.11438984 0.18100604 0.30594465
0.43636018 -0.18233842 0.6728324 0.08209625 -0.12333252 0.2617776 0.03666741 -0.2827518
0.10830284 -0.03779714 0.36627656 -0.1218192 0.34360567 0.3390695 -0.49118757 -0.008737179
-0.032572493 -0.17560285 0.14526328 -0.5754178 -0.42903185 -0.07291506 0.28895226 -0.03224088
-0.3997849 0.17758738 -0.4407526 -0.13421062 -0.314951 0.2717794 -0.12009916 0.3428988
-0.25333887 -0.47969115 0.07698323 0.34682372 -0.36319715 -0.4802039 0.018389039 -0.1367001
0.11029333 0.23752737 -0.07909076 -0.19140281 0.49559623 -0.03676037 0.47670558 0.3893502
0.25461128 0.4749051 -0.04745886 0.49425054 0.20604339 0.18249823 -0.37328863 0.06450014
-0.43907937 0.27570286 -0.2838961 -0.16519204 0.23197263 -0.28651628 0.04021826 -0.42423847
0.25717667 -0.22532243 0.15457109 -0.5361596 -0.13097718 -0.09148124 -0.017146116 -0.3229303
-0.5042867 -0.28427902 0.13816701 0.3841632 -0.4315323 -0.41673237 0.07390784 -0.5168276
-0.43700245 0.30916682 0.51112634 -0.058749072 0.44212335 0.112990476 -0.05827746 -0.46967065
-0.2771941 -0.15395288 0.548678 0.37538332 0.38295677 -0.101613946 0.52235365 0.0046830396
0.34451663 0.50158966 0.15487686 0.39029545 0.3930997 0.18424653 -0.24652144 -0.16885899
-0.19528376 0.2716712 0.029185921 0.50745517 -0.3588551 -0.07478133 -0.29026902 -0.14544837

hidden_layer1.bias f4 [128]
00000000: ccad 163b 230f d2be 9f4a b1be 024b cc3e
00000010: 648a 133e c85f 84bc 690c ddbe 04e7 c4be
00000020: 25f9 4a3e 7f93 f03e 8499 99be c5c2 fc3e
00000030: 73b9 36be 1805 85be 6cae 9b3e 7f88 373e
00000040: 3734 16be 1d6c 1abe 59e9 bbbb d38e aebe
00000050: 7123 e03d e9bc 593e 57d9 713e ad79 ecbe
00000060: 7939 6a3b 4596 13bc 72e1 bf3e 5900 ef3e
00000070: 4021 9c3e 6d18 c13e 5777 87be 47a8 d63d
00000080: 6b9e c63e 3599 9b3e ed41 8a3d 640b 56be
00000090: 241b b93d d203 223e 52d2 27be be89 2a3e
000000a0: 71bb 233e 98c5 843e efdd 92bb 1ea7 dabe
000000b0: d0cb c8be f4a4 6dbe 3b4e b6be f9ba d3bd
000000c0: cbd1 36be 1d43 ca3e fa9a eb3e 8600 a6be
000000d0: 1e59 d43e 53b3 cabe 113f d73e 170d e13d
000000e0: 87ca 5ebd 9ad4 b93d 2a78 a63e 4197 f73e
000000f0: 60a8 b5be a8d3 c33e 8d1b 423e 42c5 22bd
00000100: d50f ba3e b616 963e 3af3 a53e d985 213d
00000110: 2f1c acbe c278 8bbe 9d36 993e fdb1 7a3e
00000120: 5a69 983e 59bb e83c 2633 813e 95ce 123e
00000130: 2de2 9c3e 109b d23e a40b 523d ca69 ca3d
00000140: 933f 98be b1cf 773e 34cb d7be cd2c 923e
00000150: 6ac0 bdbc 3732 eabe 4210 823d a857 8a3c
00000160: 6d41 873d b78e a0bd e7bb 413e 9d3c c13e
00000170: 12f4 053e e79d 463e 17dd 9bbd 1d95 e8bd
00000180: d0c5 cb3d 5e80 5d3e f1aa e83e 2fb4 97be
00000190: 5628 b63d 1c86 3ebc d5e4 19be 8b18 b43d
000001a0: 32d5 993e 11ac 0a3e 06b2 cabe 85b1 91be
000001b0: f690 d63d b2db ebbe 5fd1 b73e a643 f0be
000001c0: 1b7e 74be 0334 d13e 2793 e13e 7bbe c53d
000001d0: 82f7 5bbe f2dd 88bc be96 023f ba16 45bd
000001e0: 60c8 783e b19e 703e f4dd d2bd d7b1 f1be
000001f0: d26a 03bf a7cd e83e 9980 963d 8c80 00be
0.0022991775 -0.41027173 -0.34627244 0.39900976 0.1440826 -0.016158953 -0.4317353 -0.384575
0.19821604 0.4698753 -0.29999936 0.49367347 -0.17844181 -0.2598045 0.3040651 0.17923163
-0.14668356 -0.15080304 -0.0057346043 -0.3409334 0.1094426 0.2126347 0.23618065 -0.4618658
0.0035739823 -0.009007995 0.3747669 0.46679953 0.30494118 0.37713948 -0.26458237 0.10481315
0.38792738 0.30390325 0.067508556 -0.20902783 0.0903838 0.1582177 -0.16388825 0.16654107
0.15989472 0.25932002 -0.004482023 -0.42705625 -0.39217997 -0.23207456 -0.3560656 -0.103383966
-0.17853467 0.39504328 0.46016675 -0.32422274 0.4147424 -0.3958994 0.42040303 0.10988825
-0.054392364 0.09073754 0.32513553 0.48357585 -0.35480022 0.38247418 0.18955822 -0.0397389
0.36340204 0.29314202 0.3241213 0.039434288 -0.33615252 -0.27240568 0.2992448 0.2448196
0.29767877 0.028409647 0.25234336 0.14336617 0.30641308 0.41133928 0.051280633 0.09883459
-0.29736003 0.24200322 -0.4214722 0.28549805 -0.02316304 -0.45741436 0.06350757 0.0168875
0.06604276 -0.07839721 0.18919335 0.37741557 0.13081387 0.19396172 -0.07610529 -0.11356566
0.09949839 0.21631 0.45442918 -0.29629657 0.08894412 -0.011628654 -0.15028699 0.08793744
0.30045468 0.135422 -0.39588946 -0.2845575 0.10476868 -0.46066052 0.35901925 -0.46926612
-0.2387623 0.40859994 0.4405758 0.09655472 -0.21481135 -0.016707394 0.51011264 -0.048117377
0.24295187 0.23498036 -0.102962404 -0.47205994 -0.5133487 0.454694 0.07348747 -0.12549037

hidden_layer2.weight f4 [64, 128]
00000000: 58d4 003e d71a c93d 6bd4 56bd c167 853c
00000010: 8b27 a93d de20 b9bc 4a06 b8bc 28de 933b
00000020: 8ec1 203d 6827 023e 6e1f 49bd 7e67 a93d
00000030: 71b9 b5bd 8311 ac3d 16cf babc 0386 ce3d
00000040: 7887 5c3c 9a90 0bbe 77eb e0bd b437 213c
00000050: 171c 00bd 4dfc bbbd 2755 c53d cc7b 43bd
00000060: 59dd 0bbd 83ae 8bbd 0d0f ff3d eedb dc3d
00000070: 252d 35bb f536 fbbd 2adf 32bd ca13 f93c
00000080: 937b 22bc b7f4 153e 13f4 09bd 95db 8bbb
00000090: 78df ad3b 6732 8c3c 6cf9 abbc 5c03 b4bb
000000a0: 7420 10be a821 3cbd 196a bbbd 258f 1d3c
000000b0: ce1c 483d d818 9f3c 93d2 9ebd bd8c b3bc
000000c0: 04dd 083d bcb7 13bd 9526 58bd aa85 67bd
000000d0: b35d cdbb db83 b33c a169 ad3c 21ed b63b
000000e0: e5c0 f93d c801 40bd 7a27 a23d fa7f d9bc
000000f0: e69c 413d 524a c23d fc3f 1e3e 3a93 09bd
00000100: 3fe8 51bc 0d9c f53c 7c67 af3d bd4e 9b3d
00000110: 2074 26bd b0cd 2a3d 5275 bd3d 1a06 b3bc
00000120: 1e84 83bd 125a de39 7b72 a23c d183 b73d
00000130: 1e1b 863d a809 933d f78e 403c 3c22 babd
00000140: 149b 05bd ad75 e4bb 3b57 a83d 391f 843d
00000150: cb84 6abc 5625 72bd 222a 27bd c108 3f3d
00000160: 9694 32bd fee4 ff3d 2e1e f0bd f219 c7bc
00000170: 4c9f 263e ac69 8e3d 039d 293b 880e dbbd
00000180: e06c 89bd 320f 993c 0883 80bd a477 80bd
00000190: 0ad1 bbbd 885c c2bd 171b c6bc b63f aebd
000001a0: 8051 95bb 972f aabd 8bd7 0a3d 7d81 8a3d
000001b0: 8faa e53d e964 79bd f0cd b03a 381d 8cbd
000001c0: 19fb bb3d 82b2 91bd 8ab5 1a3d 690e 683d
000001d0: babc 60bd 80f8 c53d f76e bd3b b244 94bd
000001e0: b295 823d 386f 433d 2d76 243d a2c8 ef3c
000001f0: 1363 d23c dd31 ab3d 930d 6cbd 4eb3 73bd
00000200: 7042 abbd 7f48 90bd 26e1 633c b23a 103c
00000210: cdd8 863d 07ee a33d 7356 5a3c 4608 293d
00000220: 7ddf 8b3d 3e7f a9bd 4ea6 a4bc 68ca a23d
00000230: 2110 36bd caf9 41bd 4304 693d e7e8 ecbc
00000240: 1909 493d 894e 1f3b 9697 b5bd 5fe3 853b
00000250: a66a a43d 60f8 1bbc bbc3 25bd 9a1d a13b
00000260: 9271 78bd 3e85 82bd 7098 c3bd 2961 fa3c
00000270: 04ff 833d e953 463d 7056 9dbd 6b37 71bd
00000280: 4715 b0bd bcda 523a 2d3b 68bc 4f7e af3d
00000290: 3db6 993d 5040 66bd 9d9e 34ba ebb8 733d
000002a0: b2e2 833d 4518 adbd fc0b 0ebd 6e9c 73bd
000002b0: cd1d 2a3d ac78 46bc 65d4 db3c a5fc 7cbd
000002c0: b6fd 6b3d 3fac 5abd 666c 22bc b41b 453c
000002d0: 5688 8cbb 1f02 133c 4115 f33b 727d 0e3b
000002e0: de2a 313d 81f4 bebb a2d4 883d 771a 5e3c
000002f0: b46a 08bd 4354 5cbd 4736 0bbd b1d5 9fbd
00000300: d5c0 a4bd 046f 73bc 824f 043c 4711 f9bb
00000310: e2e6 923d cfb0 993d 71de 2cbd 165a 883c
00000320: d1b0 1f3d 2813 b2bd 2b3d 8fba 0bc1 583d
00000330: 0a1b 91bd 5490 2bbd 7fc2 8bbd 285d 9bbd
00000340: 122a 1cbd 1f86 4bbd a489 7b3d 3d36 093b
00000350: b525 a73d fb91 f93c bbb5 9f3c 4d33 8dbd
00000360: bf12 963a 37e7 bf3c b486 c23a b0a6 603d
00000370: 2786 6d3d f9eb 563d 8763 993d 1782 94bd
00000380: 2922 94bc 5eb6 c0bd 2879 a7bd 4aed 9cbd
00000390: f73c 1a3d 6a6a 19bc 3322 453d 1942 a83d
000003a0: 8377 a4bd ba51 6abd 48ca 273d 2f7e 283d
000003b0: 61c7 d2bd 3829 273b 7a37 44bc f0c4 0ebd
000003c0: f117 083d 554f 96bd 9a61 5f3d 1e67 d5bd
000003d0: 6f2a 5d3d f344 a0bd c9ce 01bd 6556 943a
000003e0: e126 ee3b b97f db3c 0701 923d 91b6 a53d
000003f0: 353c 9d3c a2af b5bd 3dbb 4b3d d791 2bbd
0.12581003 0.098195724 -0.05244867 0.016284825 0.08259495 -0.02259868 -0.022463936 0.004512567
0.039247088 0.12710345 -0.04910224 0.08271693 -0.08873261 0.084017776 -0.022803824 0.100841545
0.013460033 -0.1362938 -0.10982411 0.009839941 -0.03127679 -0.09178982 0.09635382 -0.047725484
-0.03414664 -0.06820395 0.124540426 0.10784136 -0.0027645316 -0.122663416 -0.043669857 0.030404944
-0.009917158 0.14644133 -0.033680033 -0.0042681196 0.0053061806 0.017113877 -0.020992957 -0.0054935645
-0.1407488 -0.045930535 -0.09151096 0.009616648 0.048855595 0.019421026 -0.077550076 -0.021917695
0.033413902 -0.036063895 -0.05277117 -0.056523956 -0.0062672733 0.02191346 0.021168532 0.005582467
0.12194995 -0.0468767 0.07917686 -0.026550282 0.04726877 0.09486832 0.15454096 -0.03358767
-0.012811719 0.029981637 0.0856466 0.075833775 -0.04063809 0.041700065 0.09250893 -0.021853495
-0.06421684 0.00042410247 0.01982998 0.08960689 0.06548141 0.07179576 0.0117528355 -0.09088561
-0.032618597 -0.006972036 0.08219763 0.06451268 -0.014313887 -0.059117638 -0.040811665 0.046639208
-0.043598734 0.12494849 -0.11724506 -0.024304364 0.16271704 0.06953749 0.002588094 -0.10696131
-0.067102194 0.018684004 -0.06274992 -0.0627282 -0.091707304 -0.09490305 -0.02418284 -0.08508246
-0.0045568347 -0.08309858 0.033896964 0.06762979 0.11214172 -0.06088725 0.0013489109 -0.068415105
0.091787525 -0.07114126 0.037770785 0.056654368 -0.054867484 0.09666538 0.0057810503 -0.07239665
0.06376208 0.04771349 0.040151764 0.029270474 0.025682008 0.0835912 -0.057630133 -0.05949717
-0.08362281 -0.070450775 0.01390866 0.008803057 0.0658432 0.080043845 0.013326275 0.041267656
0.068297364 -0.08276223 -0.020098832 0.07948762 -0.044448975 -0.047357358 0.05688883 -0.02891965
0.04908094 0.0024308285 -0.08866803 0.0040859426 0.08028154 -0.009519666 -0.040469866 0.004916859
-0.060655184 -0.0637307 -0.095505595 0.030563908 0.06445125 0.048419867 -0.07682502 -0.05889074
-0.08597808 0.0008043458 -0.014174265 0.08569013 0.07505462 -0.056213677 -0.00068900903 0.059502523
0.06439723 -0.08451895 -0.034679398 -0.059475355 0.041532326 -0.012113731 0.026834676 -0.061764378
0.057615004 -0.053386923 -0.0099135395 0.012030531 -0.0042887134 0.008972674 0.007418305 0.0021742252
0.043253772 -0.005827487 0.066811815 0.013556114 -0.033304885 -0.053791296 -0.03398731 -0.0780443
-0.08044592 -0.014858011 0.008075597 -0.0076009366 0.07172944 0.07504427 -0.042204324 0.016644519
0.038986985 -0.0869506 -0.0010928264 0.052918475 -0.070852354 -0.04188569 -0.068242066 -0.075861275
-0.03812606 -0.049688455 0.06141056 0.002093687 0.08161489 0.030465117 0.019495836 -0.068945505
0.0011449679 0.023425682 0.001484117 0.054846466 0.057989266 0.052471135 0.074896865 -0.07251375
-0.018082695 -0.09409784 -0.081774056 -0.07662447 0.037655797 -0.00936375 0.048128318 0.08215732
-0.080306076 -0.057206847 0.040964395 0.041135963 -0.10291935 0.0025506746 -0.011976117 -0.034855783
0.033225957 -0.0733935 0.05453644 -0.10420059 0.053995546 -0.07825651 -0.031691346 0.0011317251
0.0072678183 0.026794301 0.07129102 0.080914624 0.019193748 -0.0887139 0.04973911 -0.04188713

hidden_layer2.bias f4 [64]
00000000: 481f b23d 5098 723d aa2c b0bc 520a 88bd
00000010: 47d6 28bc 3e4c 963d cce5 913d 23c6 293d
00000020: 2881 41bd 90df 6abc 1986 8f3d 926e e73d
00000030: f440 a33d 2bc5 653d 81ea 4a3c 9819 ab3d
00000040: b519 473d 5eb8 99bd d284 db3d 857e c23d
00000050: b6df 13bc a5b6 3f3d 1e2e 29bd d538 523d
00000060: 59c1 d4bc 7815 9fbd d378 bbbd d3e0 633d
00000070: 26bc bebc 98c1 febb 54e3 c5bd 496d 46bd
00000080: 7e8d 6fbd 38d2 103d f1ed 623d 7e85 893d
00000090: 0df1 2ebd 4ed5 223c 2984 b9bc 2b60 aebd
000000a0: 1b7c 303d 5efe 6bbd 5b2c 69bd 95ef 34bd
000000b0: 8408 0c3c 5f2f 17bd 19da 9fbd 073d 983d
000000c0: 24fa c23d 6b99 acbd 573b 0ebd 43c4 1ebc
000000d0: c43e 00bd f271 b6bd 58d3 73bd e3c2 a43d
000000e0: 40c3 4c3d 7de5 b3bd 1d9a 86bd 2f8c 6a3c
000000f0: e9ea dc3c 8117 a53d 8a81 8d3b e265 5c3b
0.08697373 0.059227288 -0.021505672 -0.066425934 -0.010304994 0.07338761 0.071239084 0.041448724
-0.047242314 -0.014335528 0.07007999 0.113003865 0.07971373 0.056096237 0.012385012 0.08354491
0.0486085 -0.075058684 0.10718693 0.09496788 -0.009025505 0.046805043 -0.041303746 0.05132373
-0.025971102 -0.07767767 -0.09153905 0.05563433 -0.023283076 -0.007774543 -0.096625 -0.048444066
-0.058484547 0.03535673 0.0554027 0.06714915 -0.042710353 0.009938551 -0.022646027 -0.08514436
0.043087106 -0.05761563 -0.056927066 -0.044173796 0.008546952 -0.03691041 -0.07805271 0.07433515
0.09520367 -0.084277 -0.03472456 -0.009690347 -0.031309858 -0.08908452 -0.059527725 0.08044984
0.049990892 -0.08784006 -0.065723635 0.014315649 0.026967483 0.08061124 0.004318421 0.0033630063

output_layer.weight f4 [2, 64]
00000000: dbb3 44be c222 91bd 539e b63c 4dec b0bd
00000010: 345f 0b3e 32f0 bdbc 7452 38be 15d7 ccbd
00000020: 5cb6 203e c3ea 323d 3a2f e13d 9cbe 4cbd
00000030: 00b5 2abd f4aa 0a3e 8909 2abe c3e3 25bd
00000040: 01c5 2b3e de19 08bc d6ee 1c3e 888a 003e
00000050: 47ce 23be 3490 103d b976 ba3d b7c7 8ebd
00000060: 16f3 a93d cb2b ffbc c00e d8bd c34e 8cbb
00000070: 9f96 a83c e1d5 d43d c265 66bd 6817 2e3d
00000080: 9977 babd ba93 dbbd 509c 07be 9ece 93bd
00000090: 3bd2 33be bb7d c73d 15f9 8f3d 3e4d 0a3a
000000a0: 201a 223e bf09 183e 15e2 2abe b177 80bd
000000b0: a18a b2bc 344e f13d 50e6 c83c 7f60 24be
000000c0: a5c0 20be 4cfd a03b f667 bc3d 8387 5ebc
000000d0: 4963 32be 2c52 55bd 2473 5c3d f44a 043e
000000e0: 1f16 a7bd 4ed2 2dbd 905b d93d 6f54 263e
000000f0: 009f 9e3d 17d7 c43d 1216 bc3d a123 0c3e
00000100: 6bc7 b93c cdbb cbbd 666a fc3c 94cd 593a
00000110: ae07 82bd dc43 86bd de8a eb3d 234c 823d
00000120: d416 bc3c bc89 b83c 9a49 2cbe 7e9a 1e3e
00000130: 4243 8cbd ff99 28bd b4b5 72bc df6b 3c3e
00000140: b123 13be 2a21 2ebd b558 293c 84cb 23be
00000150: 38ca e8bc 003b 4c3d 7057 69bd 67bb df3c
00000160: 8091 93bd 64b0 993d 5044 f73b 1e3f b6bd
00000170: 6e37 babd 0ce3 713c 777f 793d 47b3 edbd
00000180: 5b25 cebd b184 413e 1e67 a03d 0e40 0e3e
00000190: 8af0 563d 2dc0 1abe c7bb ecbd 161b e4bd
000001a0: 0e0c f5bd 08b6 cb3c 01a8 933d 2960 e23d
000001b0: 5d1f ca3d 9301 f2bd a4c9 e3bd f9ae 5b3d
000001c0: 598e 0e3e 2acf b93b a9f5 153e d6d2 21be
000001d0: 9990 c03d a30f 97bd 38db c5bc bb0d 99bd
000001e0: c176 9dbd 911a 3ebd 7079 fdbd 594d c0bd
000001f0: 7c20 04be 5e31 543c 75b0 bcbd 7258 d3bd
-0.19209234 -0.07086708 0.022292292 -0.08638821 0.13610536 -0.023185823 -0.18000203 -0.10001961
0.15694565 0.043680917 0.10995336 -0.049986467 -0.04167652 0.13541776 -0.166052 -0.040500414
0.1677437 -0.0083069485 0.15325484 0.12552845 -0.15996657 0.035293773 0.09104676 -0.06971686
0.08298318 -0.031148812 -0.10549688 -0.00428185 0.020579634 0.10392357 -0.056249388 0.04250279
-0.09104843 -0.10721536 -0.13243222 -0.072171435 -0.17560665 0.09740778 0.070299305 0.0005275792
0.15830278 0.14847468 -0.16687806 -0.06272829 -0.021794619 0.11782494 0.024523884 -0.16052435
-0.15698488 0.004913008 0.091995165 -0.013582113 -0.17420687 -0.05208032 0.053820744 0.12919217
-0.08158516 -0.04243689 0.10613167 0.16243146 0.077451706 0.09611338 0.09183897 0.13685466
0.022678098 -0.099479295 0.030812453 0.00083085266 -0.06349121 -0.06555912 0.11501096 0.06362178
0.022960104 0.022526614 -0.16824952 0.15488622 -0.06848766 -0.041162487 -0.014813829 0.18400525
-0.14369084 -0.042512096 0.010336091 -0.15995604 -0.028416738 0.049860954 -0.056968153 0.02731104
-0.07205486 0.07504347 0.0075459853 -0.088987574 -0.090926036 0.014763605 0.060912576 -0.1160646
-0.10065719 0.18898274 0.07832168 0.13891622 0.05247549 -0.15112372 -0.11559253 -0.11137979
-0.1196519 0.024867073 0.072097786 0.11053497 0.09869263 -0.118167065 -0.11122444 0.053633664
0.13921489 0.005670448 0.14644493 -0.15803084 0.0940258 -0.07376029 -0.024152383 -0.07473322
-0.07688666 -0.046412054 -0.12376678 -0.09389753 -0.12903017 0.012951223 -0.09213344 -0.10319604

output_layer.bias f4 [2]
00000000: ae0d 4cbd ba72 22bd
-0.049817733 -0.039660193
