cartpole_rf_results/num_episodes=3000_alpha_policy=0.001_alpha_value=0.005_gamma=0.99_reward_scale=0.01/policy_net.pth (torch, 38822 bytes, 6 tensors)

hidden_layer1.weight f4 [128, 4]
000000 a2 cb 37 be 5a 2b e0 be d1 dc 09 bf 2d 1f 95 be
       -0.17948774 -0.43783075 -0.53852564 -0.29125348
000010 7a 1d de bd 78 87 32 3e 51 50 8e 3e 98 90 2b 3e
       -0.10845466 0.1743449 0.27795652 0.16754377
000020 70 4c f2 be e8 d3 88 3d 0b 12 ad 3e ec 23 61 3e
       -0.47323942 0.06681043 0.33802828 0.2198636
000030 33 f8 31 be 89 e3 dc be 43 43 94 3e 00 0c 71 be
       -0.17379837 -0.43142346 0.28957567 -0.23539734
000040 f8 b5 aa 3d 5c 88 7c 3e 0d c3 0c bf 1b 57 d3 be
       0.08335489 0.24661392 -0.54985124 -0.41277394
000050 70 bd c6 be f8 4d 98 be f2 d9 88 be 08 4a a7 be
       -0.38816404 -0.29746985 -0.2672878 -0.3267367
000060 56 0d fa bd cc 66 0c 3f 57 cb 06 3f 48 cb 9e 3e
       -0.12209575 0.54844356 0.5265402 0.31014466
000070 e5 b6 b0 3e 22 c5 d1 3d 94 8c 19 bd 24 7e eb be
       0.34514537 0.10242678 -0.03748758 -0.45994675
000080 13 47 66 be bb 40 4f be 34 8d ae be 02 24 76 3d
       -0.2248805 -0.20239536 -0.34092104 0.060092933
000090 e1 04 2e be df 1e dd be ff ae ed bd f6 93 f6 3e
       -0.16994049 -0.43187615 -0.116056435 0.4815976
0000a0 a7 61 ad be bb cb bc be a5 35 1f 3f 47 15 8d 3e
       -0.33863565 -0.36874184 0.6219123 0.27555296
0000b0 83 5f 83 be 0e af 93 3e 87 b4 fe 3d 1d 89 8c 3e
       -0.25658807 0.28844494 0.124367766 0.2744836
0000c0 a5 3b 1e 3d a2 57 fa be b9 ef 52 bc 13 d6 b5 be
       0.0386311 -0.48894984 -0.012874537 -0.35514888
0000d0 e6 90 78 3e 4d 64 ae 3e 97 c4 02 bf cb 80 66 3d
       0.24274024 0.34060898 -0.5108122 0.05627517
0000e0 1c 74 20 be 51 86 b5 be eb f6 0d be 7c 3d ba be
       -0.15669292 -0.35454038 -0.13863723 -0.36375034
0000f0 a4 6e 62 3e 10 3f bc 3e 20 07 2d 3f eb c6 d2 3e
       0.22112519 0.36766863 0.67588997 0.41167387
000100 ca e0 c1 be 26 59 b0 3e 79 fd 8b be a9 93 82 3e
       -0.37866813 0.34443015 -0.27341822 0.2550328
000110 f0 d7 7b be 59 16 39 be 75 13 d8 be 55 7d ac 3e
       -0.24594092 -0.18074931 -0.42202345 0.3368937
000120 fa dd c9 3e ba 89 ac bc 02 c3 13 3f db 74 fc 3e
       0.39427167 -0.021061767 0.57719433 0.49307904
000130 be b8 d7 be e4 66 66 3d f2 dc b6 bd f5 4a 2e bd
       -0.42133135 0.056250468 -0.08928861 -0.042551953
000140 57 a3 ae be 83 01 c3 be 19 8c 4d bc 68 01 3d be
       -0.34108993 -0.3808709 -0.012545609 -0.18457568
000150 c4 ba d0 3e 52 c4 d7 3d 04 3d 93 be e4 b9 01 bd
       0.4076749 0.10535492 -0.2875749 -0.03167142
000160 1b ac 9e 3e ed 10 a5 be c0 c9 fb be cc bd 06 bd
       0.3099068 -0.32239476 -0.4917736 -0.03289585
000170 fb 46 f3 bd 8c 77 e3 be 84 9d a6 3e 6a 2a 8e be
       -0.11878773 -0.44427145 0.3254205 -0.27766734
000180 e6 55 0e bd e6 e3 bb be 3b 4d a3 be 29 99 f0 be
       -0.034749888 -0.3669731 -0.3189486 -0.46991852
000190 a6 f8 4f bd 03 e9 e1 3c 3a ba bb 3c 92 64 3b bd
       -0.05077424 0.027576929 0.022915948 -0.04575021
0001a0 36 40 9d 3e 51 9d e2 be df 29 18 3f 1c 1d 1a 3f
       0.30713052 -0.44260648 0.5943889 0.6020067
0001b0 32 11 6c 3d db 1e 90 bd 45 7b ce 3e 19 76 b3 be
       0.057633586 -0.07037135 0.40328422 -0.3505104
0001c0 f9 1b ad 3e 37 48 23 3d 86 ca ca be 50 3c 59 be
       0.33810404 0.03986379 -0.39607638 -0.21214414
0001d0 83 2a 5b be 38 f2 5c be 81 22 9b be a0 da 7b be
       -0.21402936 -0.21576774 -0.30299762 -0.24595118
0001e0 86 5b 09 3e bf 3a aa be 6f c8 e8 3e 37 50 2f be
       0.1341382 -0.33247945 0.4546542 -0.17120443
0001f0 e9 57 c0 be 77 35 e9 bc b6 3e c9 3e ba 7f 05 3f
       -0.3756707 -0.028467877 0.39305657 0.5214802
000200 20 5a e2 be d3 4e 74 be 08 70 38 3d b8 33 f4 be
       -0.44209385 -0.23858194 0.045028716 -0.47695708
000210 17 28 23 be c3 ba 1d 3e 34 d9 7d be 6d 12 15 be
       -0.15933262 0.15403275 -0.24789888 -0.1455781
000220 9c 77 c4 3e 40 c9 cc 3e d5 02 45 be a5 44 88 3e
       0.38372505 0.39997292 -0.19239362 0.26614872
000230 1d 5f c1 be 60 98 7d 3e ca f5 d4 3d 2b 93 7f be
       -0.37767878 0.24765158 0.10398443 -0.24958484
000240 a6 90 f6 be e0 55 13 3e 1b fa 1c 3f 62 38 69 3e
       -0.48157233 0.14388227 0.6131913 0.22775415
000250 fb 7d 55 be fd f2 d9 3e 41 c2 82 be 03 c3 bc 3e
       -0.20848839 0.42568198 -0.2553883 0.36867532
000260 fa b5 dd 3e ce 62 a6 be c2 73 a6 3e 5b be f4 bc
       0.433029 -0.32497257 0.3251019 -0.029875925
000270 06 b4 b7 be 78 52 93 3d 26 2b c0 be 47 be a0 bd
       -0.35879534 0.07193464 -0.3753292 -0.078487925
000280 18 84 5e be 9a 32 89 3e 4e d8 8b 3e 5d 35 a7 3e
       -0.21730077 0.26796418 0.27313465 0.326579
000290 17 b2 d1 bd b3 7f e4 be ec b1 b1 bb 5b e8 ae 3c
       -0.10239046 -0.44628677 -0.0054228213 0.02135103
0002a0 ce 72 8f be 89 b5 ab 3e 3e 4d 6a 3e 93 62 a9 3d
       -0.28017277 0.33536938 0.22881028 0.08270755
0002b0 19 1c 99 3d ca 24 c3 be 0d c4 14 3f ba a6 0e 3f
       0.07476062 -0.38114005 0.5811165 0.55723155
0002c0 16 a7 2d be 2b 63 7e 3e c0 c8 02 3f d4 34 a8 3e
       -0.1695827 0.24842517 0.5108757 0.32852805
0002d0 cf c2 d3 3e 98 1d 92 be e1 bc 95 3a 14 a4 d6 3e
       0.41359565 -0.28538203 0.0011424088 0.41922057
0002e0 23 13 f5 be 85 7d d1 be 71 86 82 be 5d 77 a6 be
       -0.47866163 -0.40916076 -0.25493196 -0.32512942
0002f0 74 99 df bd c6 02 ba 3e 3d 1b 13 3f b7 9f 7c 3e
       -0.10917941 0.3633024 0.5746344 0.24670301
000300 da dc e4 be 29 11 a2 be 11 bf bb 3e 09 c6 d8 bd
       -0.44699746 -0.31653717 0.3666921 -0.10584647
000310 a9 22 2d be a0 4e 8c bd 71 6b b7 be 7b 2f da be
       -0.16907753 -0.06850934 -0.3582416 -0.4261435
000320 41 34 f1 be 7c a3 f9 be e1 a4 e3 3e c8 44 8b 3e
       -0.4711018 -0.4875754 0.4446173 0.27200913
000330 73 35 2a 3e 76 26 77 be cb 74 ef bc ac 07 02 bf
       0.16621952 -0.24135765 -0.029230496 -0.50792956
000340 6b 35 cd 3e ff 9d 66 bd ea b5 31 bd 95 9f 2a be
       0.40079817 -0.05630302 -0.043386377 -0.16662438
000350 7f d5 e5 3d aa e5 7d 3e 4d fd 49 be 6a f6 6d be
       0.11222362 0.24794641 -0.19725533 -0.23238531
000360 2d 4d e4 3e 6c 76 4a 3d 85 20 a5 3d d1 84 ff bc
       0.4459013 0.049429342 0.08062843 -0.031191261
000370 4f 66 bd 3d 76 eb 6c be 44 7c 76 3e 6b ef 04 3f
       0.092480294 -0.23136696 0.24070841 0.5192782
000380 a5 24 a8 3d 42 da 38 be 74 ac b7 3e 57 9e fa 3e
       0.082101144 -0.18052009 0.3587376 0.4894893
000390 d4 92 e0 be 44 37 a2 be 8c 58 a1 3e 39 7d 4a 3e
       -0.4386202 -0.3168279 0.31512868 0.19774331
0003a0 7a 2a ad bc 8f 40 ba 3c bc 92 05 3f 1e 5e 84 bc
       -0.021138418 0.022735862 0.52177024 -0.01615816
0003b0 86 0d 0a be 4b b4 b2 be f9 eb e1 3d 9c 2e a4 bd
       -0.13481721 -0.34903178 0.11031336 -0.080167025
0003c0 21 37 5c be 09 ad 01 bf 43 12 08 bf 3c 5f 8c be
       -0.21505405 -0.50654656 -0.53152865 -0.27416408
0003d0 29 15 ff 3d 68 0a fd bc 0e f9 b7 be 44 b5 8a be
       0.12455208 -0.030888751 -0.359322 -0.2709142
0003e0 32 93 de bd 12 70 88 3e 3f 9a 9f 3e 1c ad 2f be
       -0.10867919 0.26648003 0.31172368 -0.1715588
0003f0 b1 f0 61 3e 4c 47 85 3e 7f de 89 be 3f 36 d9 bd
       0.22064473 0.26030958 -0.26927564 -0.1060605

hidden_layer1.bias f4 [128]
000000 2d e5 89 bc 14 28 2d 3d ac 1c 8d 3e 70 8f 62 3e
       -0.016832912 0.04227455 0.27560937 0.2212503
000010 d7 ec ae be fe 7d 30 be 7f 60 b7 bc 0d eb 8d be
       -0.3416507 -0.17235562 -0.02238488 -0.27718392
000020 33 eb c4 3e d7 02 77 be 25 df 33 be 34 8d f9 be
       0.38460693 -0.24122177 -0.17565592 -0.48740542
000030 a4 d8 ab 3e 4e 2d 3b 3d e5 80 9b 3e 35 90 db 3d
       0.3356372 0.045697503 0.30371776 0.10720865
000040 44 54 7a be a1 b6 aa be 2c ba 7b 3e 3e 7a 90 be
       -0.24446207 -0.3334246 0.24582738 -0.28218263
000050 52 16 c2 3e b0 43 15 be de 5b 81 3d 81 13 7b 3e
       0.37907654 -0.14576602 0.063163504 0.24519159
000060 3f 2c b3 3d 37 b1 fa 3e 1c 1e 26 3e 71 51 31 be
       0.08748674 0.4896333 0.16222423 -0.17316224
000070 ea 25 b8 3d e5 21 40 3e 56 fe 02 bf 5d f2 d9 bd
       0.089916065 0.1876293 -0.51169336 -0.1064193
000080 58 72 f5 3d 4a 79 d9 3e e5 b3 df be c2 55 e6 3e
       0.119847 0.4247535 -0.43691936 0.44987303
000090 40 fc b7 3d b5 14 97 be 51 76 04 be 14 89 5c 3d
       0.0898366 -0.29507986 -0.12935759 0.053841665
0000a0 98 f3 a3 be be df c9 be 03 1f 5f be c0 7a 0e bd
       -0.32021785 -0.39428514 -0.21789174 -0.034785032
0000b0 6d 12 6b 3e f8 f4 d0 3e e5 98 b8 3e ad 45 06 3e
       0.22956248 0.40811896 0.3605415 0.13112517
0000c0 a5 fc 94 3e a3 53 13 3e f2 00 64 3c ab 9c e2 3d
       0.29099002 0.14387374 0.013916241 0.11065038
0000d0 84 c2 e7 3d 3c 73 50 be ca 1a 52 3e 40 4a f8 3d
       0.11316398 -0.20356458 0.20518032 0.12123537
0000e0 bb 26 98 3e b2 3a 97 3d 8c ca e7 3d bc 9b e7 be
       0.2971705 0.07384242 0.113179296 -0.45236003
0000f0 4a f3 f5 3e 04 85 03 3f d6 7e 03 3f fe 7e fb be
       0.48037177 0.5137484 0.5136541 -0.49120325
000100 e9 e5 d9 be 81 09 e2 3e 39 7e e5 3e b1 b3 b7 be
       -0.4255822 0.44147876 0.44822863 -0.3587928
000110 bc 1d 65 3e 2c 06 e1 be b8 03 ae 3e 7f 7a 65 3e
       0.22374624 -0.4395002 0.33987212 0.2241001
000120 e8 ed 2e be 25 0d d2 3d a8 57 97 bd c4 84 86 3e
       -0.17082942 0.10256413 -0.07389766 0.26273167
000130 ef 25 db 3e ce ed 33 be f3 52 c2 3e b1 56 49 be
       0.4280238 -0.17571184 0.3795391 -0.19661976
000140 8c 2f 03 3e 0a e5 9c be e2 e3 b0 be 9f ab fd 3d
       0.12811106 -0.30643493 -0.3454886 0.1238625
000150 b4 16 22 3e bb 32 5f bd 04 39 68 be 64 43 81 3e
       0.15828973 -0.05449174 -0.22678 0.25246727
000160 71 2a 9e 3e e4 37 0e be a9 bb af 3e ec 54 03 bf
       0.30891755 -0.13888508 0.3432286 -0.51301455
000170 ab 9b 23 3c c7 a1 ae bd 2d 08 03 bf 8f b2 d4 3e
       0.009985845 -0.0852695 -0.5118435 0.4154248
000180 19 ec cd be 49 ea c6 be 34 09 53 3e a9 c5 23 3e
       -0.4021919 -0.3885062 0.2060898 0.1599337
000190 c4 f8 eb be 31 3e 90 bd 52 f9 c9 be a3 e2 6d 3e
       -0.4608823 -0.07043112 -0.3944803 0.23230986
0001a0 aa ae d4 be 06 36 ec be 36 4f e2 be 9a 5d a4 be
       -0.41539508 -0.46134967 -0.44201058 -0.32102662
0001b0 79 fe fb 3e 73 84 ab 3e 0e 4b b5 be b2 98 0a 3f
       0.49217585 0.33499488 -0.35408825 0.54139245
0001c0 b8 fb b6 3e f2 97 9b 3d c9 48 f1 3c 14 bb 9d 3e
       0.3573892 0.07597341 0.029453652 0.30806792
0001d0 7d 74 d2 be 42 8c ed be 55 67 07 3e 7d 3a 9a 3e
       -0.41104499 -0.4639607 0.13223012 0.30122748
0001e0 94 ec c3 3e a0 34 05 3d 9c 0f 81 be 21 57 a7 be
       0.38266432 0.03252089 -0.25207222 -0.32683662
0001f0 f6 52 01 3f 41 b5 e6 be fb b8 25 3e 98 7a ba 3d
       0.50517213 -0.4506016 0.16183846 0.09105414

hidden_layer2.weight f4 [64, 128]
000000 bc 45 2c 3e 0a 2e b9 bc 7e ca 7a bd 57 d8 89 3d
       0.16823477 -0.022604961 -0.061228268 0.06730717
000010 f0 b5 90 bd 26 89 05 3e e1 fc 0b be 41 39 f1 bc
       -0.07065952 0.13040599 -0.13670684 -0.029446246
000020 a5 2d 32 3d 3e 97 94 3d 44 e3 c4 bc 44 23 bd 3a
       0.04350056 0.0725541 -0.02403415 0.0014430066
000030 96 a7 a0 bc 9f 78 7b 3d b5 67 00 3e 3b d5 00 be
       -0.019611161 0.06139433 0.12539561 -0.12581341
000040 f9 dd cb bd af 2a 55 3d b7 14 ae bb 8b 52 21 bd
       -0.09954447 0.05204266 -0.005312528 -0.03938536
000050 79 62 c2 3d a8 58 e7 3c 8c 9d 99 3d 6f c0 cf bc
       0.094914384 0.028240517 0.07500753 -0.025360314
000060 09 82 e1 3c bc 63 ca bc 76 10 0d be 71 ff 42 bd
       0.027527826 -0.02470576 -0.1377581 -0.04760689
000070 ac 9e a9 3c a7 5c f2 3d e0 2f c1 3c 45 de 0e be
       0.020705543 0.11834078 0.023582399 -0.13951977
000080 95 df d5 3d e0 2c ba 3c ea f2 4e bd b8 73 17 3d
       0.104430355 0.022726476 -0.05052463 0.036975592
000090 7d 1b 0b be 2c 2a 8e bc f4 bb 16 3d 44 97 05 bc
       -0.13584705 -0.017354093 0.03680034 -0.00815374
0000a0 a0 11 f7 3c 4d 5e 1b 3d 5c 17 17 3d 27 a3 3d bc
       0.030159771 0.03793173 0.03688751 -0.011574543
0000b0 f6 fa ad bd da 39 8f bd 11 18 06 3e ad 11 a6 bd
       -0.084951326 -0.06993456 0.13095118 -0.0810884
0000c0 14 cd 91 bc 92 54 ad 3d a4 ef 93 bd 50 63 01 3e
       -0.017797984 0.08463396 -0.07223442 0.12635541
0000d0 e3 6b 41 3d 26 83 4e 3c 3c df 8e 3d d6 b8 ff bd
       0.04722203 0.01260451 0.06976172 -0.124864265
0000e0 42 1b 41 3d f4 1e db bd cb 73 13 bd 8f fd 21 3d
       0.047145136 -0.10699263 -0.0359991 0.039548453
0000f0 38 25 10 3d a7 22 07 3e 12 83 4b 3d 8b e9 9c 3d
       0.035191745 0.13196813 0.049685545 0.07661732
000100 a8 6c d9 3b 50 62 7e 3d ff 7f 90 bd 49 ff 2b 3c
       0.0066352673 0.062105477 -0.07055663 0.010497876
000110 38 c1 bd 3d 40 18 82 3c 99 70 b3 3d bc 11 b2 bc
       0.09265369 0.015880704 0.08761711 -0.021736972
000120 3d 0b 12 bd ae 6b 9b bd aa a1 06 be 98 62 3f 3d
       -0.03565525 -0.07588898 -0.13147607 0.046724886
000130 15 90 29 3d 9b 14 73 3d a9 5e ee 3d 91 c5 75 3c
       0.041397173 0.059345823 0.11639149 0.015000717
000140 23 b5 f2 bc 17 31 62 3d 00 78 98 bd e2 de ce bc
       -0.029627388 0.055222597 -0.07444763 -0.025252763
000150 d5 fa e6 bd e2 8e 0a be ae ea 8b bd 01 3f 12 bd
       -0.11278311 -0.13531068 -0.06831871 -0.035704616
000160 e8 fb 39 bc 2a 16 c9 bb 84 1c 38 3d e7 db 8a bc
       -0.011351563 -0.0061366754 0.04494907 -0.01695056
000170 e4 d1 b3 3d a1 14 89 3a f7 a3 51 bd 3e 6d 8b bd
       0.08780268 0.0010458418 -0.05118176 -0.06807946
000180 af d4 dc bc 9e c1 9a bd cf 4b c7 3d 91 7f e9 3d
       -0.026956884 -0.07556461 0.09731256 0.114012845
000190 88 70 e5 3c d4 d2 19 3d e3 dd ca 3c ca c2 e3 3d
       0.02800776 0.037554577 0.024764007 0.111211374
0001a0 fb 20 23 bd 69 7b b0 3d 0a 12 89 bd c6 00 7b 3d
       -0.039826375 0.086172886 -0.06692894 0.061280034
0001b0 d9 bd 36 bd 60 59 dd 3d e8 06 8f 3d c5 47 e6 3d
       -0.044614647 0.108080626 0.06983739 0.11244158
0001c0 4e 90 08 3d 31 67 6e bd fd de ed bd c5 38 35 bd
       0.033340745 -0.05820388 -0.11614797 -0.044243593
0001d0 c3 8b c2 3b 50 ad fc 3c 1b 7b bb 3d 7f 6c 01 bd
       0.005937071 0.03084436 0.0915434 -0.03159761
0001e0 2c 81 6a 3c 0b cf 9f 3d 45 22 be 3c e3 81 94 3d
       0.014313024 0.07803162 0.0232097 0.072513364
0001f0 78 2d d0 bc 81 07 4c 3c 44 2c de 3d 26 b3 6b bd
       -0.025412306 0.012452961 0.10848287 -0.057543896
000200 ff 06 31 be 45 24 13 3e c0 36 55 3c f4 95 5f bd
       -0.17287825 0.14369304 0.013013542 -0.054586366
000210 13 09 84 3d 53 47 0d be 7a b5 09 3d fe b0 83 bd
       0.06447043 -0.1379674 0.033620335 -0.06430243
000220 0d 9a 71 bd cd 7d 8d 3d 5f f6 34 3d 73 f8 79 3c
       -0.058984805 0.0690876 0.04418027 0.015256989
000230 3f 01 0f bd 34 07 91 3d 80 f3 88 3d 82 d3 39 3d
       -0.034913298 0.07081452 0.06687069 0.045367725
000240 4b c5 20 bc 5d f8 f4 bc 75 d2 d7 3d 1f 03 28 bd
       -0.009812663 -0.029903585 0.10538188 -0.0410186
000250 4f 98 a9 3b f8 67 8a bd 85 ad 2d bd 24 a7 08 3a
       0.0051756273 -0.06758112 -0.04240181 0.0005212894
000260 41 ef 12 be a2 b3 27 3b 8c 68 49 3d e4 d7 39 3d
       -0.1434908 0.0025589247 0.04917197 0.045371905
000270 e6 58 01 bd 05 6d df bd 27 8f a8 3c de 4f a9 3c
       -0.03157892 -0.10909466 0.020576073 0.020667966
000280 4f 4a 0a bc dc c8 b1 3c 96 4e 9f 3d 40 81 4f bc
       -0.008440568 0.021702223 0.07778661 -0.012665093
000290 3d db 49 3e 56 83 b4 3a 3e e2 03 3d 4e 94 2e bd
       0.19712539 0.0013772051 0.032198183 -0.042621903
0002a0 36 9e 79 3d b1 89 b0 3c 3d 15 32 3d 4f 24 32 3d
       0.060941897 0.021550031 0.043477286 0.043491658
0002b0 21 ef c1 3c db 8c 9b 3d ca 9f de 3c 34 d9 25 3d
       0.023673596 0.075952254 0.027175803 0.040490344
0002c0 8a ae 78 3d db fa 91 bd db 57 bd bb e3 d0 aa bd
       0.06071333 -0.07127925 -0.0057782955 -0.08340623
0002d0 37 fa 69 bd e3 3f 7e 3d 3a 49 15 bd 86 f1 76 3d
       -0.05712339 0.062072646 -0.036446787 0.06028893
0002e0 4a 6b a7 3d 4f 17 f3 3d 50 77 c1 3d 85 2b 6e bd
       0.08174761 0.1186968 0.09446585 -0.058146972
0002f0 53 be 51 3c 90 ff 4d bd 20 d5 c9 3d 1b 82 5c bd
       0.0128017245 -0.05029255 0.098551035 -0.053835016
000300 d5 71 38 3d 70 f0 37 3c 44 8b 38 3d 5f b1 ef ba
       0.045030434 0.011226758 0.04505469 -0.0018287114
000310 8b 12 b5 3d ae 1f 83 3d 6d 05 ec bd 6b ac c3 3c
       0.088414274 0.06402527 -0.115244724 0.023885926
000320 d8 b6 a5 bc 07 04 eb 3d d1 95 06 3e 96 28 d5 bd
       -0.020228788 0.114753775 0.13143088 -0.10408132
000330 c8 f1 a5 3d b7 45 d7 3d bd 63 c1 bc 01 ed 48 bd
       0.08102757 0.10511344 -0.02360713 -0.04905415
000340 e3 46 d9 3d bb 77 ac 3c cf 5c 73 3d 52 45 ec 3c
       0.10609224 0.021053186 0.05941468 0.028841648
000350 f3 db 92 3d 56 ee 0b 3e b1 dc 14 3d 2c 5c f0 3a
       0.07170858 0.13665137 0.03634328 0.0018338016
000360 10 31 55 bb 75 d2 b0 3b 24 43 ae 3c 9c 81 47 3d
       -0.0032530464 0.005396182 0.02127225 0.04870759
000370 95 fd 9b bd e4 db 5b 3b 0d 49 92 bd 43 0e 0f 3e
       -0.07616726 0.0033547813 -0.071428396 0.13970284
000380 86 2c 1a 3d b9 ba 3c bc fb 84 e8 bd 35 af bb 3c
       0.037640117 -0.0115191275 -0.11353489 0.022910694
000390 ac b2 19 bb ba e0 39 bd 8c 48 a3 bd 17 a0 d7 bd
       -0.0023452444 -0.04538033 -0.079728216 -0.105285816
0003a0 74 cf f2 bb d4 87 ad bd 33 40 4f bd ae c3 00 bd
       -0.0074099842 -0.08473173 -0.050598335 -0.031436615
0003b0 de 8c 0e 3e 8a 82 c6 3d e4 bb c7 3d 4f 96 c3 3d
       0.13920924 0.09692867 0.09752634 0.095501535
0003c0 34 13 d0 3d 0c eb d3 3d 14 41 bd 3d 67 77 a2 3d
       0.10159913 0.10347566 0.09240928 0.079329304
0003d0 c2 dd 64 3d 44 b2 32 ba 50 b7 42 bd 23 ee d3 bc
       0.055875547 -0.0006816725 -0.0475381 -0.025870388
0003e0 54 11 ec 3d f8 be ad bd 95 19 66 bc 5b 8b 83 bd
       0.115267426 -0.0848369 -0.014044185 -0.06423064
0003f0 ef 7f 98 3d 41 63 2f 3d a8 98 58 bd 46 49 3d 3e
       0.074462764 0.042819265 -0.05287996 0.18484983

hidden_layer2.bias f4 [64]
000000 c1 0e 24 3d 1d 96 83 bc d5 e2 19 bd 3e 52 31 3c
       0.040053133 -0.01606279 -0.03756984 0.010822831
000010 be 25 a4 3d 02 fb 4f bc 81 6e ab 3b 24 92 4b 3d
       0.08015011 -0.012694122 0.005231679 0.049699917
000020 9f be c9 bd 73 30 3f bb 42 dd e7 3d 9c 78 0e 3d
       -0.09850811 -0.0029173165 0.113214985 0.03478299
000030 08 1b 95 bd af 62 00 bd 90 2e cb 3b e5 ff a0 bc
       -0.072805464 -0.031344112 0.006200619 -0.01965327
000040 16 69 86 bd 59 ab 8e bd 80 c4 a3 3d f5 eb d8 3a
       -0.06563012 -0.06966276 0.07996464 0.0016549813
000050 a5 2e 95 3d 53 29 9b bc 2f fb f7 bb b7 ee 8b 3c
       0.07284287 -0.018940603 -0.007567785 0.017081602
000060 f3 96 ae 3d ab bf 9e 3b bb 59 43 bb 42 2c 32 3d
       0.08524885 0.004844626 -0.0029808122 0.04349924
000070 18 10 f1 bb 56 0a 15 3d 1f 70 f9 bc 56 bd 19 3c
       -0.007356655 0.03638681 -0.030448971 0.00938352
000080 af b9 9f 3c 94 61 d3 3c 74 87 c8 3c 45 86 89 bd
       0.01949772 0.025803365 0.024478652 -0.06715063
000090 23 b4 9f 3d 92 6a bb 3c 75 d6 1f 3d 3b f9 6d 3d
       0.0779803 0.022877965 0.03902288 0.058099013
0000a0 b3 33 1d 3d f7 10 69 ba 3e 0a 4e bb f8 d1 b6 3d
       0.038379382 -0.00088907726 -0.003143921 0.08926767
0000b0 21 c1 b7 3d 4c b4 07 bc 63 37 e7 bc 68 7c be bd
       0.08972383 -0.008282732 -0.028224653 -0.09301072
0000c0 1c 1e 9f bd 17 9a e2 bc 0f 18 cb bb f6 55 d0 3d
       -0.07769415 -0.027661366 -0.0061979364 0.10172646
0000d0 32 f9 06 3c d8 f3 d4 3c ae ef 10 3d 9a 9f b2 3c
       0.008238124 0.02599518 0.035384826 0.02180462
0000e0 87 2a 62 bc 16 43 96 3d 22 7c 88 bc e4 54 af bd
       -0.013804085 0.073370144 -0.016660754 -0.085611135
0000f0 61 0d ca 3c 0a 3a 03 bd f7 74 a7 bc 2e ad ca 3d
       0.024664583 -0.032037772 -0.020441515 0.09896313

output_layer.weight f4 [2, 64]
000000 34 a1 8e 3d 4d be 17 bd a7 5d b5 bd ac 73 10 3d
       0.06964341 -0.03704672 -0.088557534 0.035266563
000010 d1 88 a0 3d 78 4e 24 be 08 f4 af 3c 66 a2 07 be
       0.07838596 -0.16045558 0.021478668 -0.13245544
000020 be 86 e3 3d e7 70 40 be 78 a3 30 be 4a 67 47 3d
       0.111096844 -0.18793069 -0.17249858 0.04868249
000030 f6 ed cc 3d 5c c6 9f bd f6 30 4c be 36 1e ff 3d
       0.10006325 -0.07801506 -0.19940552 0.12456934
000040 90 b6 e6 bd 20 15 8f bb 25 fc 09 3e c2 37 93 bd
       -0.1126529 -0.004366532 0.13475092 -0.07188369
000050 c0 08 c3 bd 00 b6 48 3a ce be 8c 3d 80 71 48 3b
       -0.09523153 0.00076565146 0.068723306 0.003058523
000060 d7 30 a7 bc 01 6a c6 3c 26 fe 4b bd e6 56 5f 3d
       -0.02040903 0.024220468 -0.04980292 0.054526232
000070 09 f5 a4 bc 97 ef ae 3d c3 65 a6 bd 56 19 bb bd
       -0.020136373 0.08541792 -0.08124878 -0.09135692
000080 c5 38 05 be 68 c3 8a bd a2 74 16 be bf 3d 96 39
       -0.13009937 -0.06775552 -0.1469293 0.00028656234
000090 9b f0 1f 3d 11 c4 9b bd 88 03 be 3d 66 26 dc 3d
       0.03904782 -0.07605756 0.09278017 0.107495114
0000a0 22 b5 cc 3d 7f 5d 19 3e 38 a2 0b bd e8 e1 1f 3e
       0.09995486 0.14977072 -0.03409025 0.1561352
0000b0 13 be 8a bc ff aa ac bd 86 58 ff 3d b8 db b3 bd
       -0.016936338 -0.084310524 0.124680564 -0.087821424
0000c0 b5 4b e7 bd 86 8e 3d be fa 76 af bd b1 d3 38 be
       -0.11293737 -0.185114 -0.08567615 -0.18049504
0000d0 84 b4 ec 3d 76 ed 38 3d c2 b5 81 3d 1e 41 0b 3e
       0.11557868 0.045148335 0.06333496 0.13599059
0000e0 6f a5 1b 3d 5d 2a 1a 3e 7c de 0e be 09 92 bf bd
       0.037999567 0.15055223 -0.13952059 -0.09354026
0000f0 79 bc 24 3e 5d b7 82 bd a7 89 b2 3d 00 69 4c 3d
       0.16087522 -0.0638263 0.08717661 0.049904823
000100 0f 91 3b be 5e 93 13 3e b8 f0 cf 3c 35 93 72 bd
       -0.18317054 0.14411685 0.025383338 -0.05922242
000110 8e 6b 03 bd 55 d6 18 3e 08 b0 da 3c 38 11 36 3d
       -0.032084994 0.14925511 0.026695266 0.044450015
000120 51 cc 90 3d 5c e4 2a 3e a2 a0 32 3d 1a 9f a0 bc
       0.0707022 0.16688675 0.043610223 -0.019607116
000130 fa 97 99 3d 02 ba ac 3c 83 03 db 3c f8 39 2d bd
       0.0749969 0.02108479 0.026735073 -0.04229161
000140 4d e4 44 3d 60 f9 f3 3c 8e 2d 18 bd ae 5b 2a 3e
       0.048069287 0.029781997 -0.03715282 0.16636536
000150 54 05 0b 3e 8c 90 da 3d 23 6e cb bc 5a 4a bd 3d
       0.13576251 0.106721014 -0.02483279 0.09242697
000160 d7 73 25 be 7d 8b 02 3e 27 9b de 3d c5 3b 4f 3c
       -0.1615747 0.12748523 0.10869437 0.0126485275
000170 40 2a d4 3d ff 2c ff bc b9 7c cc 3d 5b 07 22 3e
       0.10359621 -0.031149385 0.099847265 0.15823118
000180 cb 34 9a 3d 7c 3e aa bd 46 61 9e 3d fb 93 48 3c
       0.07529601 -0.08312699 0.07733397 0.012242313
000190 33 27 34 bd 81 1b 36 3e 4d 53 e9 bd 70 66 2b 3d
       -0.043982696 0.1778393 -0.113928415 0.04184574
0001a0 84 38 35 bd df 2a d9 39 c5 d5 36 3e e0 82 53 bd
       -0.04424335 0.00041421407 0.17854984 -0.051638484
0001b0 72 98 f6 bd 66 a7 89 3c 77 62 34 be d2 48 b8 bc
       -0.120407954 0.016803455 -0.17615686 -0.02249566
0001c0 bf f6 d4 bd 87 24 91 3d d0 84 41 bc ee ae 80 3d
       -0.103986256 0.07087045 -0.01181145 0.06283365
0001d0 b3 fd b3 bd 11 23 cb bd 04 41 46 be 59 3b 16 be
       -0.08788624 -0.09918798 -0.19360739 -0.14671077
0001e0 64 70 e0 3b f6 1e 07 bd 0c 1a bf bd 6f 33 9b bd
       0.0068493355 -0.03298851 -0.0933114 -0.075781696
0001f0 35 9f 69 3c 41 84 c2 bc dd 3f 1a be 8d b8 49 be
       0.014259149 -0.023744704 -0.15063424 -0.19699307

output_layer.bias f4 [2]
000000 8f 7a e6 3b 66 5e 9c 3d
       0.007033653 0.076351926
