cartpole_rf_results/num_episodes=3000_alpha_policy=0.005_alpha_value=0.01_gamma=0.99_reward_scale=0.005/policy_net.pth (torch, 38822 bytes, 6 tensors)

hidden_layer1.weight f4 [128, 4]
000000 65 48 c9 3e c8 4a 08 3e ff fd 0c bf 75 2b c9 3d
       0.39313045 0.13309777 -0.5507507 0.09822742
000010 de b1 02 be bd 81 1a 3f 7e 13 34 be 10 72 39 3e
       -0.12763163 0.60354215 -0.1758556 0.18109918
000020 28 db 68 be ec e3 9a 3e 03 bd c5 be c1 f5 d1 be
       -0.22739851 0.30252016 -0.38620767 -0.41007808
000030 61 76 31 3d 97 d5 b1 3d a5 c6 2d bf dc 5b ae bd
       0.043325786 0.08683317 -0.6788123 -0.085136145
000040 d7 81 37 bc cb 15 62 3e eb 80 4f 3d b8 ca 80 bb
       -0.01120039 0.22078626 0.050660055 -0.003930416
000050 2d 48 6a 3c f1 2a 3f 3d cc c7 41 bd 9d 98 02 bf
       0.014299435 0.04667181 -0.04730968 -0.5101412
000060 bb a3 c3 3d 97 54 1a 3c 92 ed 67 bd 4a 1d 0a bd
       0.095527135 0.009419582 -0.05662305 -0.03371934
000070 a2 e4 bf 3e 83 93 7a 3e a8 94 c0 3e 4a 9c 04 bf
       0.3747912 0.24470334 0.37613416 -0.5180098
000080 94 3f a8 3d df 41 6c 3e ab 58 95 3d 41 17 12 be
       0.082152516 0.23072003 0.07292303 -0.14266683
000090 86 f7 0c bf cc cb c5 be 6a 66 bc 3e 3d 73 94 3e
       -0.5506519 -0.38632047 0.36796886 0.2899417
0000a0 e0 46 ea 3d a0 39 63 bd ac fc 5f 3e e0 76 7f be
       0.114392996 -0.055474877 0.2187373 -0.24947691
0000b0 bb 4e 87 3e 86 e2 08 3f 89 d0 ec bd 63 f8 28 be
       0.26427254 0.5347065 -0.115632124 -0.16501002
0000c0 6a 6b 17 be ad ef 66 be 2d d8 b1 be 6f 14 70 3e
       -0.14787069 -0.22552367 -0.34735242 0.23445295
0000d0 77 20 1f 3f 44 a8 d2 3e 8a 2a 92 be 83 5f b2 3e
       0.6215891 0.41144 -0.2854808 0.34838495
0000e0 38 08 38 be ff 19 08 bf b7 6b 05 3f bd 4a 05 3f
       -0.17971885 -0.53164667 0.52117485 0.52067167
0000f0 b2 ef ee be 1b ba 28 3d bd e8 4a bf 4a 43 f9 be
       -0.46667248 0.04119311 -0.7926138 -0.4868415
000100 80 ed b2 3e 3f 83 ce be 2c 13 37 3f ec e0 31 3f
       0.34946823 -0.40334508 0.7151363 0.6948383
000110 07 50 8b 3d f4 6e 04 3e 3a 6c 6c 3e a2 f4 a9 3e
       0.068023734 0.1293295 0.2308816 0.33194453
000120 70 eb fb 3d 98 56 d2 bd fc 00 48 be 2c 5e 4b be
       0.123007655 -0.10270423 -0.19531626 -0.19860142
000130 a0 8b 80 3d 46 24 05 3e 0a 7f 7c be 90 39 17 be
       0.06276631 0.13002118 -0.24657837 -0.14768052
000140 80 f4 95 3b b6 6b ce 3e 94 09 0a 3f ac b2 a3 bd
       0.004576266 0.40316552 0.53920865 -0.07993063
000150 d3 27 46 3e 20 85 8f 3e 50 2b 21 bf ee 7f 70 be
       0.19351129 0.28031254 -0.62956715 -0.23486301
000160 5e 71 90 3c 8e cb f5 3d 56 93 88 be 93 07 f5 be
       0.017632183 0.120017156 -0.26674908 -0.4785734
000170 d3 5e 42 3d d1 b9 de 3d d2 02 c2 be 86 59 6e 3e
       0.047453713 0.108752854 -0.37892777 0.23276338
000180 7e f0 d9 3d a5 f4 60 3b 32 a7 f6 be 12 c6 96 be
       0.10641573 0.0034325507 -0.48174435 -0.2944799
000190 7f 41 87 bd 0f 99 f9 3c 05 3c 58 be 41 1e b3 3e
       -0.06604289 0.030468492 -0.21116646 0.3498402
0001a0 12 b3 bf bd d0 4e a0 3e 3d 97 a9 3e d0 46 6a 3e
       -0.09360327 0.3131013 0.33123198 0.22878575
0001b0 be 9a a4 3a a4 e2 02 be e0 0b 0f 3f 7e a1 57 be
       0.0012558324 -0.12781769 0.55877495 -0.21057698
0001c0 54 14 40 be c9 0b 1d be 21 37 9c bd 71 89 94 bc
       -0.18757755 -0.15336527 -0.076277025 -0.018131943
0001d0 2d 09 76 bd 12 de e1 be 25 d7 77 be 27 3a cd be
       -0.060067344 -0.4411474 -0.24203165 -0.4008343
0001e0 f3 4c ae be c3 18 e0 be 3a f6 c0 bc dc 74 3a 3f
       -0.34043083 -0.43768892 -0.02355491 0.72834563
0001f0 f1 d1 87 3d 32 15 bb be 09 88 e9 be 86 10 19 bf
       0.0663184 -0.36539608 -0.456116 -0.5979084
000200 0a ed 86 be e6 20 ee be 78 a4 41 3e 4c ba a6 3e
       -0.2635272 -0.46509475 0.18910396 0.32564008
000210 82 4e e8 3d a2 35 97 3d 80 52 b2 3e dc 59 1f 3f
       0.11343099 0.073832765 0.34828568 0.6224649
000220 88 a0 cc be c6 12 b1 3e 2c 8e 2a bf 48 95 46 bf
       -0.39966226 0.34584635 -0.6662319 -0.77571535
000230 0c 93 62 3d e4 cb ec be 8f a0 ea be e8 23 0c bf
       0.055316016 -0.46249306 -0.4582562 -0.5474229
000240 77 ac 4d 3e a7 4b fa be 47 fb 2e be e4 c2 37 bf
       0.20085321 -0.48885843 -0.17088042 -0.71781754
000250 b2 6f 5a be 19 c6 7b be 1d 63 bc 3d eb 0f 46 3e
       -0.21331671 -0.24587287 0.09198592 0.1934201
000260 6a a5 2f be c8 40 56 3e 08 ca 2a 3e b6 65 20 bf
       -0.17152944 0.2092315 0.16678631 -0.626552
000270 4c 35 48 be 8f 49 64 3e 18 b8 d1 3e b5 58 d4 3d
       -0.19551581 0.22293685 0.40960765 0.10368482
000280 97 4c 6c 3e 40 ff bd be ee 09 28 be e6 98 0d bf
       0.23076092 -0.37108803 -0.16410038 -0.5531143
000290 6c c3 09 3f f9 6b 24 3f e0 be 47 3e e6 4f dd 3c
       0.53813815 0.64227253 0.19506407 0.027015638
0002a0 0e a2 64 3e fb e1 81 3d c0 d9 e6 be a2 93 a0 be
       0.22327444 0.063419305 -0.45088005 -0.31362635
0002b0 ac 3f 30 be e6 6c 89 3e 85 7d e0 3d e0 31 38 bd
       -0.17211789 0.26840895 0.10961441 -0.04496944
0002c0 1a 6f 2e 3e 25 b6 cf be e0 24 a8 3e 4c 8f a5 be
       0.1703457 -0.40568653 0.32840633 -0.3233589
0002d0 b1 d3 d1 3d 3d 81 66 3e c0 79 20 bf 67 ab 0a bf
       0.10245455 0.22510238 -0.62685776 -0.5416779
0002e0 21 ee ad 3e b6 72 96 3e f4 8c 1a bf 80 8a 28 be
       0.3397074 0.29384392 -0.6037133 -0.16459084
0002f0 87 8f eb 3e 10 ec 96 be 8a b3 42 3f ab f4 c9 3e
       0.4600794 -0.29476976 0.76055205 0.3944448
000300 73 2f c7 bd 83 04 b5 be cd d3 10 be 8e 53 52 3e
       -0.09725847 -0.35355005 -0.14143296 0.20539686
000310 90 81 f1 be 0f 32 1f 3e 30 ae 48 bf 6c 01 fb be
       -0.4716916 0.1554644 -0.7839079 -0.49024522
000320 fc 19 ab bd 97 2b 81 3d 4e 18 b7 be cd 29 2d be
       -0.083545655 0.06307142 -0.3576073 -0.16910477
000330 d0 19 f7 be b3 53 a7 bd 5f 49 b3 bc b5 58 91 bd
       -0.4826188 -0.08170261 -0.021885572 -0.07096998
000340 3c 4e d6 be 61 f4 e0 be 69 dd eb 3e de a4 18 3e
       -0.41856563 -0.43936446 0.4606736 0.14906642
000350 b1 f7 91 3e e1 01 41 be 8f 5a d4 be 2e cd 06 bf
       0.28509286 -0.18848373 -0.4147534 -0.5265683
000360 a3 c2 c9 be a7 2a b4 3d b3 f0 82 bd 64 af 7c 3d
       -0.3940631 0.08797198 -0.06393566 0.061690703
000370 b2 7f a0 3e 9b 2c c4 3d 00 f2 74 3d 85 b4 c5 be
       0.31347424 0.0957882 0.0598011 -0.38614288
000380 cd 04 66 3e 1b 4b e2 3e 06 58 53 bd aa 30 9f 3c
       0.22462769 0.44197926 -0.051597618 0.019432385
000390 ba ba b3 3b 12 99 72 be a4 1d 24 3f f4 7f b6 3e
       0.005484906 -0.23691204 0.6410773 0.35644495
0003a0 a9 56 0d bf 30 61 72 3d a0 2d 2e 3f cd 27 8a 3e
       -0.5521036 0.059174716 0.6803837 0.2698349
0003b0 b7 d7 65 3e 2b 14 fe be 0a 24 51 3e 5a 9a 3a 3f
       0.2244557 -0.49624762 0.20423904 0.7289177
0003c0 7e c9 6c be c2 11 e4 be f8 06 b4 be ca 9c da be
       -0.23123738 -0.44544798 -0.35161567 -0.42697746
0003d0 d3 84 f2 3d 1f 40 fb be 08 e2 ce 3e 96 96 be 3e
       0.118417405 -0.49072358 0.40406823 0.37224263
0003e0 0f d6 7c be 8f cd 0b 3e ed 82 f7 bd 96 a4 03 bf
       -0.24691032 0.13652633 -0.12085519 -0.51423013
0003f0 8c d1 1a bf 6f 32 40 3d 7f 60 08 3f 33 d3 63 3e
       -0.60475993 0.046923097 0.5327224 0.22248535

hidden_layer1.bias f4 [128]
000000 ef 89 93 be 5a a4 81 3e 65 a1 d6 3e cd 93 9f be
       -0.28816172 0.25320703 0.4192001 -0.3116745
000010 4d 96 9a be ab e7 a6 be 78 78 0f be e7 01 21 3e
       -0.30192795 -0.32598624 -0.14010799 0.15723382
000020 7b fd ae bb 7c 28 92 bd 68 a4 e0 be 4e 72 b4 3e
       -0.005340276 -0.07136628 -0.43875432 0.35243458
000030 a7 73 c1 be 5e e1 c3 3e ac 8b db be 44 d5 da 3d
       -0.37783548 0.3825788 -0.4288 0.106852084
000040 7c 3e e1 3e 62 ed 11 bf e6 81 cc be 2b e8 3e be
       0.43992984 -0.5700284 -0.39942855 -0.18643253
000050 6d f4 6e 3e e0 5a e5 3c 9b 6c 96 3e 75 58 ac be
       0.23335429 0.027997434 0.29379734 -0.33661237
000060 36 ab 06 bf 25 74 cc be 3f cb 15 bf a2 52 d5 be
       -0.52605 -0.3993236 -0.58513254 -0.41664606
000070 20 52 66 be b7 3d 13 3e 4f 4d fb 3e c7 d9 2f 3e
       -0.22492266 0.14379011 0.4908242 0.17172919
000080 d5 d6 a8 be af bd e1 3e c6 ed 99 3d cb d4 64 be
       -0.32976404 0.4409003 0.07516055 -0.22346799
000090 15 5d 38 3e 10 c5 90 be e1 f5 ae 3e b2 47 1f bf
       0.18004258 -0.28275347 0.34171966 -0.62218773
0000a0 e9 85 74 3e 1c 8a 70 3e 33 b7 ac 3e f7 32 c1 be
       0.23879208 0.23490185 0.3373352 -0.37734196
0000b0 43 7b 1b 3e bc 9a 13 bd 7d 52 26 3e f7 36 55 3e
       0.1518374 -0.036036238 0.16242404 0.20821749
0000c0 ed 5c e9 be 40 bb 72 3d 01 47 55 be 13 d6 a6 be
       -0.4557871 0.059260607 -0.20827867 -0.325852
0000d0 4e 52 85 3e 0f c1 b9 3e c5 6d f3 bd 65 e1 b6 3d
       0.26039356 0.36280105 -0.11886171 0.08929709
0000e0 0c 4a 86 bd e8 a5 71 3e 48 61 bc 3c 8f b0 c8 3e
       -0.06557092 0.23598444 0.022995606 0.39197204
0000f0 00 3d eb be b9 f6 28 bd 95 15 b4 3e b4 0c b1 be
       -0.45944977 -0.041250918 0.35172716 -0.34580004
000100 5d 88 75 3e 96 05 2b be d6 26 20 3e 7e c0 82 3e
       0.239778 -0.1670135 0.15639815 0.25537485
000110 d3 1a 9c be 77 0d ae be 52 2f d8 3d d8 97 46 3e
       -0.30489215 -0.33994648 0.10555901 0.19393861
000120 94 59 8f 3e c4 d1 39 3e 14 e0 a1 be 2c 05 34 3e
       0.2799803 0.18146425 -0.3161627 0.17580098
000130 28 ca 1c 3c e1 14 1e 3e c5 b6 c2 3e 22 5e 38 3e
       0.009569682 0.15437652 0.38030067 0.18004659
000140 b9 da 76 3e 1e af f1 bd c8 70 f3 bc 9b 43 3e 3e
       0.24106874 -0.11800979 -0.029716864 0.18580477
000150 23 0d 9b 3e 96 e0 83 3d b9 7f 0e 3e 9f 92 0d 3e
       0.3028346 0.06439321 0.1391591 0.13825463
000160 6e 6d 62 be b2 bf 05 bf e7 b5 d6 be bc 57 91 be
       -0.22112057 -0.5224563 -0.41935655 -0.2838725
000170 20 1e 90 bd f5 07 17 3e f8 7f 7e 3e 9e 56 30 3d
       -0.07036996 0.14749129 0.24853504 0.043051355
000180 8a 3e cf 3e a3 5c b4 bd f4 db 3c 3e a6 a5 18 3e
       0.404774 -0.088067316 0.1844328 0.1490694
000190 e1 c0 26 bf fe bc 6e 3e 96 48 a6 3e f0 27 3a be
       -0.6513806 0.23314282 0.32477254 -0.18179297
0001a0 0f 15 e4 be 50 0a 27 be 02 d6 2f 3e b3 87 aa 3e
       -0.44547316 -0.16312528 0.17171481 0.33306655
0001b0 cb 60 c2 3d da 19 e9 3e 7e b6 9e be 29 1f 60 be
       0.09491118 0.45527536 -0.30998605 -0.21886887
0001c0 df 7e 48 3e 57 9d fa 3d 2d ea f7 3d b1 06 41 3d
       0.19579647 0.122370414 0.12105212 0.047125522
0001d0 5d ed 82 3e 78 fd c1 be 62 35 99 3d b3 0a 07 3e
       0.2557172 -0.37888694 0.07480885 0.13187675
0001e0 7b a2 c8 3d f8 32 ac 3e dd 87 ab 3e 39 5e 4d 3e
       0.09796616 0.33632636 0.33502093 0.20055474
0001f0 4e 8e ea 3b 16 b4 d3 be c3 b3 e9 3d 03 46 1e 3e
       0.0071580773 -0.41348332 0.1141124 0.15456395

hidden_layer2.weight f4 [64, 128]
000000 f8 a7 95 bd 31 ca c3 bd 20 7e e5 bd 1b 22 a2 bb
       -0.07307428 -0.09560049 -0.11205697 -0.0049479133
000010 f2 8f 92 3c c4 f4 97 bd 85 14 d7 3a a3 4f 1d bd
       0.017890904 -0.07419732 0.0016409314 -0.038406026
000020 3c 23 69 bd 0e 48 75 bd 90 82 d4 3c b8 e4 02 be
       -0.056918368 -0.05988317 0.025941163 -0.12782562
000030 b4 92 a1 bd bd 85 3b 3c bc 80 ba bc 4d cf 44 bd
       -0.078893095 0.01144546 -0.022766463 -0.04804926
000040 05 aa 9b bd 6a 6f 20 3c ec 85 fe bc e9 e0 d9 bc
       -0.07600788 0.009792188 -0.031069718 -0.026596503
000050 50 ba 83 bd 3b 14 52 bc 3f 57 57 3b 4f 4f d1 bd
       -0.06432021 -0.012822206 0.00328584 -0.10220205
000060 65 70 93 bd 95 e0 99 3d 8b 9f eb 3c 46 1c 70 bd
       -0.07199172 0.07513539 0.0287626 -0.058620714
000070 39 9e d5 bb f0 77 b2 bb 0a ab 93 bd 28 c3 89 3d
       -0.0065191058 -0.0054464266 -0.072103575 0.06726676
000080 db 54 d2 bb 89 eb a1 bc a8 ff 0c bd 68 d0 af bd
       -0.006418807 -0.019765632 -0.0344235 -0.08584672
000090 f4 71 ab 3d 8a 92 84 3c 87 e9 a1 bd a2 d7 99 3d
       0.08371344 0.016183157 -0.0790587 0.07511832
0000a0 18 ae 7a 3c bb 8a 69 bd fa 29 ca 3b 69 88 87 3d
       0.015300296 -0.05701707 0.006169555 0.06617815
0000b0 d8 41 a4 bd 7d 7b 31 3d f2 0d 05 be 96 4f 96 3c
       -0.08020371 0.04333066 -0.12993601 0.018348496
0000c0 04 8e 03 bd 16 34 95 bd 21 16 9c 3d 93 aa 49 3a
       -0.03211786 -0.07285325 0.07621408 0.0007692959
0000d0 c9 dc 7a bd 69 31 a6 bd c8 41 ac bd a9 37 d8 3c
       -0.061245713 -0.08114893 -0.08410984 0.026393728
0000e0 1e aa 2f bd 70 3c dd bd 1d e2 6e bd 28 b8 ba bc
       -0.042886846 -0.10802543 -0.058321107 -0.02279289
0000f0 1f 40 92 bd 8d 0c 51 bd ae 2c 59 bd 18 c3 68 bd
       -0.071411364 -0.05103736 -0.053021125 -0.05682668
000100 68 c9 da bd 78 9d 32 3d d1 8d f0 3c ae b6 49 3c
       -0.106829464 0.043607205 0.029364498 0.012311621
000110 d3 73 32 3d 86 47 94 bc 5c b1 e1 bd 64 cc 07 be
       0.04356749 -0.018100511 -0.11020157 -0.13261563
000120 49 23 2e bc 02 d2 a7 3d ed f1 ae 3d 5f a3 d5 3c
       -0.01062853 0.08194353 0.085422374 0.026078878
000130 15 2d 04 bd 62 5e 4b 3d 72 a2 92 bc f1 28 a7 bd
       -0.032269556 0.049650557 -0.017899726 -0.08162106
000140 3d 35 3a bc 4d f3 8c bd 08 48 3e 3d 3d fe 96 3d
       -0.011365232 -0.068823434 0.046455413 0.07372711
000150 50 71 bc bd 19 83 c5 bc f0 91 4e bd 9e 1e e1 ba
       -0.092013 -0.024110364 -0.050432146 -0.0017175262
000160 ad b7 c3 bd ae 19 43 bd bb d8 6d bd ba 94 3b bc
       -0.09556518 -0.047631912 -0.05806802 -0.011449033
000170 21 6b e9 bd a7 0d a6 bd b2 82 95 bd c5 b4 a3 bd
       -0.11397386 -0.08108073 -0.07300319 -0.079934634
000180 e2 cd b0 bd d3 a9 d1 3c b8 45 41 3c 39 b6 89 ba
       -0.08633019 0.025593674 0.011796407 -0.0010506577
000190 99 2b 8a 3d 69 d6 0b 3a 55 66 1e 3d fc 6f 85 3d
       0.06746597 0.0005334379 0.03867181 0.065155
0001a0 f0 c8 88 3d 7e 2a 89 3d f9 48 e0 3c 19 a9 f8 bc
       0.06678951 0.06697558 0.027378546 -0.03035407
0001b0 a0 d7 bf bd a7 c4 98 ba 91 33 7e bc 03 33 48 bd
       -0.09367299 -0.0011655287 -0.015515224 -0.048876774
0001c0 3c ba 8b bd aa d6 d3 3c 8c b7 96 3c 91 be 04 be
       -0.06822631 0.025859196 0.018398069 -0.1296332
0001d0 90 49 d9 bd 74 18 80 3c 4b 96 8c bd 48 51 55 bd
       -0.10609734 0.01563666 -0.068646036 -0.05207947
0001e0 87 b3 b0 3d 18 86 60 bc 64 b5 18 3d 02 f3 fb 3c
       0.08627992 -0.013703845 0.037282363 0.030755524
0001f0 9f fe b6 bd ce 00 f2 bc e3 63 5b bd e0 97 38 bd
       -0.08935284 -0.0295414 -0.053562056 -0.045066714
000200 c0 e3 cd 3c 61 5f 8e 3c 35 a0 27 3e db 46 ef 3c
       0.025133014 0.017379465 0.16369708 0.029208591
000210 4f d0 56 3d d6 60 11 bd 9a 31 0f 3d 2d 7b 0a bc
       0.052444752 -0.03549274 0.034959413 -0.008452219
000220 d1 c7 f1 3d c7 ef af bc 7d 38 93 3d f3 ef 06 3d
       0.1180569 -0.02147664 0.07188509 0.032943677
000230 8b 10 41 bd dd 0b bf 3b 5a 2f 9e bd 5b 33 db 3d
       -0.047134917 0.0058302716 -0.07723875 0.10703155
000240 c2 1d 95 bd 88 84 50 3d 6b 33 ac bd 36 48 55 bd
       -0.072810665 0.05090764 -0.08408245 -0.05207082
000250 d9 64 94 bc 3e 55 57 bd fc 38 5f 3d 56 78 0c 3e
       -0.018114494 -0.052571528 0.054497704 0.1371778
000260 5d 77 6b bd b4 82 23 3e 6e ec 72 bd 12 e7 a6 bd
       -0.05748688 0.15967828 -0.05930751 -0.08149542
000270 fe 81 18 3d 55 fe c5 3d bc 69 e8 bc d8 37 11 3e
       0.037233345 0.096676506 -0.02837073 0.14181459
000280 2a 14 21 be 2f 3b 73 3c ba e7 af 3b d9 20 28 3e
       -0.15730348 0.014845653 0.0053682 0.1641878
000290 e7 0e 9b 3e 5f 40 dd bc 28 50 8e 3d 7f b6 e5 3c
       0.30284807 -0.027008234 0.06948882 0.028041122
0002a0 d6 c7 80 3d 96 b2 83 bc 8d f8 fa 3c 61 94 8a 3d
       0.06288116 -0.016076367 0.030636096 0.06766582
0002b0 25 ea 1a 3e 56 89 37 3d ea 65 c2 bc 58 ca 89 bc
       0.15128382 0.044808708 -0.023730237 -0.016820118
0002c0 ce 14 5a 3d 32 70 52 3d 95 f6 94 3d ae af b6 bd
       0.053242497 0.05137653 0.07273594 -0.08920227
0002d0 23 19 61 3d dd 17 ab 3d 68 12 25 be ce 00 d4 3d
       0.054955613 0.08354161 -0.16120303 0.10351716
0002e0 31 fd 38 3d 70 12 2b 3c 12 bd 4f bb b4 13 52 bd
       0.045163337 0.010441408 -0.0031698388 -0.05128832
0002f0 b7 bb 8e 3d 71 16 00 be 67 c6 e3 3d ac e9 79 be
       0.069693975 -0.1250856 0.111218266 -0.24405545
000300 c3 b6 d7 3d ff d9 41 be a9 7d 9f 3d 31 e3 17 3e
       0.10532906 -0.18930815 0.0778764 0.1483276
000310 71 fb 0d be ac d1 75 bc 19 93 57 3d 0e 66 d0 3c
       -0.13865449 -0.015003603 0.052630518 0.025439288
000320 fc 2b 90 3d 18 95 14 3e e4 5d e2 bd 50 22 c1 3e
       0.07039639 0.1451 -0.110530645 0.3772149
000330 9f 78 e6 3d 67 17 dd 3b 45 74 29 3d cb b3 14 3e
       0.112534754 0.0067471745 0.04137065 0.1452171
000340 87 05 bd 3d 50 ca 1a be 44 20 f7 bc 6d 1f 12 3e
       0.0922957 -0.15116239 -0.030166753 0.142698
000350 e3 46 f1 3d f7 af 2f ba 00 46 00 bd 80 51 62 3e
       0.11781099 -0.0006701941 -0.031316757 0.22101402
000360 48 62 91 3d 1b 87 41 3c 38 6d 2a 3e 60 9d 42 3d
       0.07098824 0.011811997 0.16643226 0.047513366
000370 07 92 44 bd a9 58 e5 3d 9f 5d 08 3e e6 be e7 3d
       -0.047990825 0.11198551 0.13316964 0.11315708
000380 da bf dd 3d 19 40 f7 3d f8 3d 3a 3d 1f b7 71 3e
       0.108276084 0.120727725 0.045469254 0.23605011
000390 3a db d0 bd 0d ed bd 3b e7 02 73 3d 5d 8d 00 be
       -0.10198064 0.005796081 0.05932894 -0.12553926
0003a0 74 a8 35 3d 78 2d 1f bc 2b 2a 37 3d d3 15 a7 3b
       0.044350103 -0.00971543 0.04471795 0.005099037
0003b0 2e f9 fd 3c 16 a8 cf 3c 39 da 13 bc 71 b5 85 bd
       0.031002607 0.025348704 -0.009024196 -0.06528748
0003c0 d5 cf 00 3e 9c 08 2c bb b7 5d 3d 3e c4 c2 c5 3d
       0.12579282 -0.0026250249 0.1849278 0.09656289
0003d0 22 00 96 bc 76 08 5b be 71 6c 5e 3c 7c 13 11 3e
       -0.01831061 -0.21389946 0.013575659 0.14167589
0003e0 d1 11 80 3d 30 92 d3 bb 80 9a f4 3d bc 02 95 3d
       0.06253398 -0.006456636 0.11943531 0.07275912
0003f0 f4 20 22 3b e5 b2 53 bb b6 85 17 3e 0e 3c 38 bd
       0.002473888 -0.0032302674 0.147971 -0.044979148

hidden_layer2.bias f4 [64]
000000 03 2b 01 be 82 bf f0 bc a7 c3 86 bd e2 f0 1e 3c
       -0.12614064 -0.029388193 -0.065802865 0.009700986
000010 23 9c ff 3c 0e f7 d1 bd a1 e2 fc bc ea b0 a7 3a
       0.031202381 -0.102522 -0.030869784 0.0012793813
000020 f1 17 5a bd 83 24 04 3d b0 0b 9b bc 8b 66 b3 bd
       -0.05324549 0.032261383 -0.018926471 -0.08759793
000030 af ae 05 3d 6a 0f ec 3d 63 e1 a2 3d 66 f9 e2 bd
       0.032637294 0.115263775 0.07953145 -0.11082725
000040 36 1c 44 bb 38 c6 be bd 56 24 aa 3d 5d ed 45 bd
       -0.0029924042 -0.09315151 0.08307712 -0.04832207
000050 12 27 1c bd ab fd 19 be 6a 0f 97 3d 05 fb 1a 3d
       -0.038123198 -0.15038173 0.07375987 0.037837047
000060 da f1 bc bd 3e d1 b7 bc 7b 1e c6 3c a3 a7 87 3c
       -0.09225817 -0.022438642 0.024184456 0.016559428
000070 d8 0b 7c 3c fe a1 af bb 1d 76 d2 3c 57 b9 9d 3d
       0.015383683 -0.005359887 0.025691086 0.077013664
000080 1f ae 42 bd b7 a5 1d bd 1f c9 98 3d f4 b5 1f 3d
       -0.047529336 -0.038488116 0.07460236 0.038991883
000090 3e 58 40 3a 82 75 63 3d e2 03 98 3d 9a 8a 5d bd
       0.0007337368 0.055531986 0.074226156 -0.05408726
0000a0 b4 e6 69 3d a4 79 a1 bc 38 07 eb 3a 42 7f 2f bd
       0.05710478 -0.019711323 0.0017931229 -0.042845972
0000b0 58 a4 da bc e6 5f 02 3d a3 d7 19 bc 3f 02 05 bc
       -0.026689693 0.031829737 -0.009389791 -0.008118211
0000c0 a6 c3 f8 3d b8 31 aa 3c 04 80 fe bd d3 cd ef 3d
       0.12146692 0.02077566 -0.12426761 0.1170918
0000d0 a6 4f 9c bc 0e 25 ad bb dd 0e 47 3d 8b 67 4b 3d
       -0.019080948 -0.0052839583 0.04859816 0.049659293
0000e0 00 3e cf bd bf f7 64 ba 90 ce 40 bd eb 85 0d bd
       -0.101192474 -0.0008734427 -0.047071993 -0.034551542
0000f0 0a 6c e3 bd 46 1e 92 bc 87 6c b5 ba a9 97 72 3c
       -0.11104591 -0.017836701 -0.0013841548 0.014806666

output_layer.weight f4 [2, 64]
000000 85 d5 03 bd 84 6e fc 3c e8 43 a5 3d 55 27 17 bd
       -0.03218605 0.030814417 0.08069593 -0.036902744
000010 ea e7 29 be 05 6f a5 3d 22 ce 8d bd 05 5c 47 be
       -0.16592374 0.08077816 -0.06924082 -0.19468696
000020 7b 1d ba bd 95 d7 04 3e 54 f9 76 3d 1a 9f 1a bd
       -0.09087654 0.12972863 0.06029637 -0.037749387
000030 42 7a 37 3e 27 fb 60 be c4 dc 7d be 90 4f c4 bd
       0.17917731 -0.21970807 -0.24791247 -0.09585488
000040 38 98 56 3d c3 4f 01 bc df 10 2e 3e f2 07 8c 3d
       0.05239126 -0.007892552 0.16998623 0.06837453
000050 45 3b 9e 3c 12 50 78 bc a4 9a 1f 3e 44 bb f1 3d
       0.019315371 -0.015155809 0.15586334 0.11803296
000060 66 2b 14 bd b9 e1 7b be 6d ff e4 3d 28 cd a8 3b
       -0.0361742 -0.24597825 0.11181531 0.0051514097
000070 14 a5 36 ba 5b a2 82 3d ea 15 00 3e ee f0 ee bd
       -0.00069673476 0.06378623 0.1250836 -0.116670474
000080 40 c5 44 3d 3e ca 1d bd a2 5f 46 be bd 1c b6 3d
       0.048039675 -0.03852295 -0.19372419 0.088922
000090 14 9d 60 be ed 7a 3d 3e d3 b6 2c 3e b0 73 4d bd
       -0.2193492 0.18503924 0.16866617 -0.050159156
0000a0 56 b7 e4 3d df 4d d3 3d dc 10 23 be 53 4a 8c bd
       0.11167781 0.10317587 -0.159244 -0.06850114
0000b0 37 d4 e4 3c 34 59 c1 3d b0 b7 ce bc f0 44 53 bc
       0.027933223 0.09440842 -0.025234073 -0.012894854
0000c0 0f 2e 29 be 22 92 5f be 56 78 f2 3d 20 70 2a be
       -0.16521476 -0.21833089 0.118393585 -0.16644335
0000d0 b3 b2 67 bd 3d 9f 15 be 35 da 9a bd 1a 1e 66 bd
       -0.056566905 -0.14611526 -0.07561151 -0.05618105
0000e0 0d 97 40 bd 6c e5 a5 bd b9 21 15 3e a0 12 e7 3d
       -0.047019053 -0.081003994 0.14563645 0.11282849
0000f0 6b 75 ac bd 8c 21 d9 3d 23 19 44 be fa 8c ad bb
       -0.08420833 0.10602102 -0.19150214 -0.0052963467
000100 71 64 5f bd 58 56 d6 bd d8 1b 90 bc a9 95 0a 3d
       -0.054539148 -0.104656875 -0.017591402 0.033834133
000110 cb 8c 2e 3d 33 66 9b 3c b8 d0 5e 3d d6 f5 46 3e
       0.04261474 0.01896963 0.05439827 0.19429716
000120 73 2c 65 bd b2 20 14 be 9a e9 9a 3b 0e 6f 99 bd
       -0.055950593 -0.14465597 0.0047275545 -0.07491885
000130 c6 46 c2 bd 8c 59 d5 3d 6c 56 0a 3e a1 97 1d 3e
       -0.09486155 0.1041747 0.1350953 0.15389873
000140 ba b2 96 3c d9 7a 85 bc b7 ee 06 be 67 d5 5d 3d
       0.01839577 -0.01629393 -0.13177 0.054158594
000150 ae 54 05 3a 96 a2 18 be f7 b2 bc bd 8c c9 60 be
       0.00050861656 -0.14905772 -0.09213822 -0.21951884
000160 74 cc 96 3b 3a 95 67 3e 8d d2 54 3d b0 67 85 bc
       0.0046020094 0.22615519 0.05195861 -0.016284794
000170 05 6b 4a bd 16 d3 fc 3d ed 9c 9b 3d 45 11 80 3e
       -0.049418468 0.12344949 0.075982906 0.25013176
000180 83 59 66 3b 54 b0 52 3c 1c 44 49 3e 5d 48 03 be
       0.0035148568 0.012859423 0.19654888 -0.12820573
000190 98 73 47 3e 55 44 3a be 53 b0 cf bd 7a 2b ed bd
       0.1947769 -0.18190129 -0.10141053 -0.11580558
0001a0 2d 05 21 bd f8 5e 0c bd 1b 42 48 3e 58 95 b7 3d
       -0.039311577 -0.034270257 0.19556467 0.08964032
0001b0 bc 63 a1 3c 20 c4 5c bd 76 cd b2 3d 45 d4 92 bd
       0.019700877 -0.053897977 0.08730595 -0.071693935
0001c0 d3 8b 07 3e d3 1f 1f 3e 10 0c f7 3d 86 7a 5b 3e
       0.13236932 0.15539484 0.120628476 0.21433458
0001d0 69 2e 50 bd 75 e9 00 3d fe 48 4d 3c e2 b0 5e 3e
       -0.05082551 0.031472642 0.01252961 0.21747163
0001e0 ae 8e a9 bd 2e 15 5e bd 25 61 39 be 3a 11 3d be
       -0.08279167 -0.054219417 -0.18103464 -0.18463603
0001f0 bd 66 c5 bd 4a 34 de bd 36 da 4d 3e 70 b3 8f bb
       -0.096387364 -0.10849817 0.20102772 -0.0043854043

output_layer.bias f4 [2]
000000 04 21 76 bc d8 ac 37 3d
       -0.01502252 0.04484257
