acrobot_ppo_logs/Acrobot-v1/policy_network.pth (torch, 40142 bytes, 6 tensors)

layers.0.weight f4 [128, 6]
0	0x3d6d39ba	0.05791638
1	0xbc6b7d60	-0.014373153
2	0xbdd2837e	-0.102789864
3	0xbe8f6b98	-0.28011775
4	0xbd347e41	-0.044065718
5	0x3ed61b54	0.41817725
6	0xbded3d7c	-0.11583993
7	0x3e027525	0.1274
8	0x3eb7aa92	0.35872322
9	0xbea1eb88	-0.3162501
10	0xbe2dc022	-0.16967824
11	0x3e2792ed	0.16364641
12	0xbe90504c	-0.28186262
13	0x3eeff840	0.46869087
14	0xbe85eb68	-0.26156163
15	0x3b1e0ef2	0.0024117795
16	0xbe7d9aae	-0.24766037
17	0xbe267bab	-0.16258113
18	0x3ecb40ca	0.39697868
19	0xbe1e636d	-0.15467615
20	0xbe4da7a1	-0.20083477
21	0x3e521be4	0.20518452
22	0xbe619100	-0.2202797
23	0xbee6c1a2	-0.45069605
24	0xbe402f43	-0.18768029
25	0xbe76cdb9	-0.24101914
26	0x3d057690	0.032583773
27	0x3dc69662	0.09696652
28	0x3d139505	0.036030788
29	0x3e1e148e	0.15437528
30	0xbe1bbc1d	-0.15208478
31	0xbeae27f5	-0.3401486
32	0x3f007b85	0.50188476
33	0xbced38a8	-0.02895768
34	0x3db56095	0.08856312
35	0xbe3b18e6	-0.18271217
36	0x3ec80496	0.39066
37	0xbf0c44f7	-0.5479273
38	0x3db01d07	0.085992865
39	0xbe61d6d6	-0.2205461
40	0x3e7f2f8d	0.24920483
41	0xbe13c744	-0.14431483
42	0xbf1a5a9d	-0.60294515
43	0xbc2e7407	-0.01064778
44	0x3e8b9b29	0.27266815
45	0x3ea8ad77	0.32944843
46	0xbe8df72b	-0.27727637
47	0x3dcbde49	0.09954507
48	0x3e4c7355	0.1996587
49	0xbee12aaf	-0.43977877
50	0x3e11e118	0.14246023
51	0x3e1814d3	0.14851694
52	0x3ec44d65	0.38340297
53	0x3c325c7c	0.010886308
54	0x3eef9b89	0.4679835
55	0xbe648a40	-0.22318363
56	0x3ebdc7e5	0.3706657
57	0xbd5e5c57	-0.05428728
58	0xbe9a5408	-0.30142236
59	0x3e293dc6	0.16527471
60	0xbe688cf0	-0.22710013
61	0xbe886bf2	-0.26644856
62	0x3e912a2b	0.28352484
63	0xbf019741	-0.5062142
64	0xbdfb21a1	-0.122622736
65	0x3e153dc4	0.14574343
66	0x3ec29987	0.38007757
67	0x3db52fca	0.08847006
68	0x3eee6d0a	0.46567565
69	0xbe1cc93f	-0.15311144
70	0xbec75816	-0.38934392
71	0x3d973d6d	0.07384763
72	0x3ed46bf3	0.4148861
73	0xbea2676a	-0.31719524
74	0x3e08d947	0.13364135
75	0x3b1e9c27	0.002420196
76	0xbce31a1a	-0.027722407
77	0xbeaed84c	-0.34149396
78	0x3e6f3f1d	0.2336392
79	0xbe10db3e	-0.14146134
80	0xbcc1caec	-0.023656331
81	0x3e187fa1	0.14892437
82	0xbd891280	-0.06692982
83	0x3e593dc2	0.21214965
84	0xbe3e00d6	-0.18555006
85	0xbe03dd05	-0.12877281
86	0x3d5e5dba	0.054288603
87	0x3e8d1bb5	0.275602
88	0xbd46ca85	-0.04853298
89	0x3eb42d07	0.35190603
90	0xbb31ebf3	-0.0027148693
91	0xbef08b87	-0.4698145
92	0xbe821c64	-0.25412285
93	0xbe1e2cb8	-0.15446746
94	0x3ee768ad	0.4519705
95	0x3e4011a6	0.18756732
96	0x3e4f2c53	0.20231752
97	0x3ec924e2	0.39285952
98	0xbea8cd26	-0.32969016
99	0x3eca7826	0.3954479
100	0xbe621b2b	-0.22080676
101	0xbebbaa11	-0.36653188
102	0xbe5feeba	-0.2186841
103	0x3efa61e4	0.4890281
104	0x3d033e42	0.032041796
105	0x3ea40876	0.32037705
106	0x3e3979e2	0.18112901
107	0x3dd14be9	0.10219557
108	0x3e93b727	0.28850672
109	0x3e49136c	0.19636315
110	0xbeb34ca5	-0.35019413
111	0xbd88dc6a	-0.06682666
112	0xbde3737e	-0.11106013
113	0xbe9985d3	-0.29984912
114	0x3e3760cc	0.17908019
115	0x3ea330b9	0.3187311
116	0x3eb16387	0.34646246
117	0xbe010717	-0.12600361
118	0xbec1ea88	-0.37874246
119	0x3e62deaa	0.22155252
120	0x3ee62bb1	0.4495521
121	0xbe42accd	-0.19011231
122	0xbe55bb05	-0.20872124
123	0x3e738f4c	0.23785132
124	0xbe862abe	-0.26204485
125	0x3db83ace	0.08995591
126	0x3ebd30b1	0.3695121
127	0x3ecdb727	0.40178797
128	0x3ec98a65	0.393634
129	0x3e0125ee	0.12612125
130	0x3e21f762	0.15817025
131	0x3e620c50	0.2207501
132	0xbe42496e	-0.18973324
133	0xbddec969	-0.1087826
134	0x3d4f1266	0.050554655
135	0xbbf5510b	-0.0074864677
136	0xbdecdaf0	-0.115651965
137	0x3de7c93e	0.11317681
138	0xbe6966c0	-0.22793102
139	0xbd571ff8	-0.052520722
140	0xbdfdb17e	-0.123873696
141	0x3e398b07	0.18119441
142	0x3eab8167	0.33497164
143	0x3ea7977b	0.32732758
144	0x3e7303c9	0.23731913
145	0xbcc72be7	-0.024312926
146	0x3b2ae660	0.0026077256
147	0x3dc690a4	0.09695557
148	0xbe8e3b1f	-0.2777948
149	0x3e6eb139	0.23309793
150	0x3e458ebf	0.19292735
151	0xbeda5c4d	-0.42648545
152	0x3eb5df31	0.35521844
153	0x3d59ac25	0.053142685
154	0x3ed271b7	0.41102383
155	0xbc72ff50	-0.014831379
156	0xbebbc37c	-0.3667258
157	0xbe99b5ea	-0.30021602
158	0xbd066868	-0.032814413
159	0xbe9f227a	-0.3108099
160	0x3dc517fc	0.09623715
161	0xbea941b8	-0.33057952
162	0xbd491dfe	-0.04910087
163	0xbe7c2dac	-0.24626797
164	0x3d976d33	0.07393875
165	0x3eb2f8cd	0.34955445
166	0x3e7ed285	0.24884994
167	0x3b0a06b6	0.002106113
168	0xbebed1b9	-0.3726938
169	0xbe293e1c	-0.16527599
170	0x3ebab4ae	0.36465973
171	0xbe89108c	-0.26770437
172	0x3e66e3e9	0.22547878
173	0xbeb4573c	-0.35222805
174	0x3e8dd87d	0.2770423
175	0x3d2659f0	0.040613115
176	0xbe10c76f	-0.14138578
177	0x3d65855d	0.05603539
178	0x3e38f079	0.18060483
179	0xbecc6d57	-0.3992717
180	0xbe92d08c	-0.28674734
181	0xbee88f5b	-0.45421872
182	0x3ecdb539	0.40177324
183	0x3e728662	0.23684075
184	0xbde539f0	-0.11192691
185	0xbe39cbc9	-0.18144144
186	0x3ec115d2	0.3771196
187	0xbef0b540	-0.47013283
188	0x3ea8cefa	0.3297041
189	0xbddef8da	-0.108873084
190	0xbd0cb332	-0.03435058
191	0xbef2819e	-0.47364515
192	0x3cd89f82	0.026443247
193	0xbe64fdec	-0.22362489
194	0x3e7e7dfe	0.2485275
195	0x3ea55914	0.32294524
196	0xbe505206	-0.2034379
197	0x3e939389	0.28823498
198	0xbdda6f60	-0.10665774
199	0x3e97b93d	0.29633513
200	0xbe9c6c62	-0.3055144
201	0xbea92f86	-0.3304407
202	0x3eb8e36d	0.36111012
203	0xbd908fd5	-0.07058684
204	0x3ddbc210	0.10730374
205	0xbd458cd3	-0.048230004
206	0x3e94965a	0.2902096
207	0xbdb1cce8	-0.08681661
208	0xbe9c9683	-0.3058358
209	0x3e5b9483	0.21443371
210	0xbe8b9421	-0.2726145
211	0xbcf0382d	-0.029323662
212	0xbda0b20e	-0.07846461
213	0xbedf09b6	-0.43562096
214	0x3e1bc43d	0.15211578
215	0x3de96fdd	0.11398289
216	0xbe3a6f42	-0.18206504
217	0x3ed9b3ec	0.42520082
218	0x3e8cdd45	0.27512565
219	0xbea82338	-0.3283937
220	0xbd68dd74	-0.05685182
221	0x3ea8cd05	0.32968917
222	0xbdea288d	-0.11433516
223	0xbe22b1fd	-0.1588821
224	0xbc82370d	-0.01589539
225	0x3d4b4fa4	0.049636498
226	0xbe2fd445	-0.17170818
227	0x3e83602a	0.25659305
228	0x3e2d4d39	0.1692399
229	0xbe48120a	-0.19538131
230	0x3ec411fe	0.38294977
231	0xbc98e91b	-0.01866584
232	0x3e200bf4	0.1562956
233	0x3e00be52	0.12572601
234	0x3eb003c1	0.34377864
235	0xbe39e4d5	-0.18153699
236	0x3d25f54c	0.040517136
237	0x3c625436	0.013814023
238	0xbeb57cd8	-0.3544681
239	0xbe0ffe34	-0.14061815
240	0x3ee676b2	0.45012432
241	0x3e83e0e8	0.25757527
242	0x3e37290f	0.17886756
243	0xbe21114d	-0.15729256
244	0xbf01e6b6	-0.5074266
245	0x3eadb302	0.33925635
246	0x3e1a53cc	0.15071028
247	0xbed61eb3	-0.41820297
248	0xbe8a1aa5	-0.26973453
249	0x3e79bc29	0.24388184
250	0x3ec6af0d	0.38805428
251	0xbd99a54b	-0.0750223
252	0x3e582a82	0.21109965
253	0x3d5821a8	0.052766472
254	0x3e558940	0.20853138
255	0x3ee21b02	0.4416123

layers.0.bias f4 [128]
0	0x3e5b6573	0.21425419
1	0x3ea5e26e	0.32399315
2	0xbcfb351a	-0.03066497
3	0x3ed0ffdf	0.40820214
4	0xbea90067	-0.3300812
5	0xbe4aa032	-0.19787672
6	0x3e932bff	0.28744504
7	0xbedb4eba	-0.428335
8	0xbd161a9c	-0.03664647
9	0xbe7e11f2	-0.24811533
10	0x3e441003	0.19146733
11	0x3d364e54	0.044508293
12	0xbdec0e07	-0.11526113
13	0x3c00663d	0.0078368755
14	0xbedb7b42	-0.42867476
15	0x3e99967d	0.29997626
16	0x3eca56e0	0.39519405
17	0xbe80727f	-0.25087354
18	0x3ebc6540	0.36795998
19	0xbe8f91d8	-0.28040957
20	0x3d74f7a0	0.059806466
21	0x3d889698	0.066693485
22	0xbe933033	-0.2874771
23	0x3e82d57c	0.255535
24	0x3ea9eaa5	0.33186832
25	0xbea30a6a	-0.31843883
26	0x3c9b863f	0.018984912
27	0xbdf3009d	-0.11865351
28	0x3eb82689	0.359669
29	0x3ce97cd5	0.028501907
30	0x3e2eb61b	0.17061655
31	0x3e27a736	0.1637238
32	0x3eaba7c8	0.33526444
33	0xbe03fdb9	-0.12889756
34	0xbea32fe1	-0.31872466
35	0xbe8dd87f	-0.27704236
36	0x3e1b81c3	0.15186219
37	0x3ebdc2e1	0.37062743
38	0xbeea46a8	-0.4575703
39	0x3ca4f6a1	0.020137133
40	0xbeb41458	-0.3517177
41	0xbe2b29ac	-0.16715115
42	0x3ebc06ef	0.3672404
43	0x3dc15bd4	0.09441343
44	0x3ec494b9	0.38394716
45	0x3e5d110a	0.21588531
46	0x3d3822b2	0.044954963
47	0xbe6aa562	-0.22914651
48	0x3cf9ed05	0.030508528
49	0x3eb9c414	0.36282408
50	0xbea8c08a	-0.32959396
51	0x3ea0412d	0.31299725
52	0x3e8ab44d	0.27090684
53	0x3cf01f01	0.029311659
54	0x3e83eedc	0.25768173
55	0xbed580dc	-0.41699874
56	0xbd6a190c	-0.057152793
57	0x3e8285b8	0.25492644
58	0xbe88e2f1	-0.26735643
59	0xbdf64185	-0.120242156
60	0x3e4989fc	0.19681543
61	0x3ea36bbd	0.31918135
62	0xbdbba68d	-0.091626264
63	0xbeaf4530	-0.34232473
64	0xbd8eeb82	-0.06978513
65	0x3e555262	0.20832208
66	0x3e05a4cb	0.13051145
67	0x3e07c0ce	0.13257143
68	0x3e9515ee	0.29118294
69	0x3dc6dacc	0.09709701
70	0xbd000c97	-0.031262007
71	0x3ededebc	0.43529308
72	0x3e2751b2	0.16339758
73	0x3ee428c2	0.44562346
74	0xbe2509d1	-0.16117026
75	0xbdb9805d	-0.090576865
76	0x3e387da3	0.18016677
77	0xbd7c7379	-0.06163356
78	0x3ede0697	0.43364403
79	0xbebe99e7	-0.37226793
80	0x3e3687a3	0.17825179
81	0x3e4ad8b7	0.19809233
82	0xbe9abfaa	-0.30224353
83	0x3e894c1c	0.2681588
84	0x3e8dd8b8	0.27704406
85	0x3e9304b7	0.28714535
86	0x3e30de34	0.17272264
87	0x3e88a930	0.2669158
88	0x3ebaa94c	0.36457288
89	0xbe94da14	-0.2907263
90	0xbec5e769	-0.38653114
91	0x3dd1f540	0.10251856
92	0x3e72ff28	0.23730147
93	0xbee96440	-0.45584297
94	0x3e87c65b	0.2651852
95	0xbe902232	-0.2815109
96	0xbea88892	-0.32916695
97	0xbd88a83e	-0.06672715
98	0x3eba379b	0.3637055
99	0x3ec8ba21	0.39204505
100	0xbe30b78e	-0.1725752
101	0x3e935d09	0.28781918
102	0x3cf68f2b	0.030097565
103	0x3e9cb498	0.30606532
104	0x3e6fce80	0.23418617
105	0x3e26e941	0.16299917
106	0x3e230d27	0.15922986
107	0xbe94da67	-0.29072878
108	0xbe87420a	-0.2641757
109	0x3e936811	0.28790334
110	0xbe4c7ce2	-0.19969514
111	0xbe3ac4a5	-0.18239076
112	0x3ea421c2	0.32057005
113	0xbe812398	-0.25222468
114	0x3d2b244d	0.041782666
115	0xbebc9df5	-0.36839262
116	0xbe3be7d2	-0.18350151
117	0xbed3af83	-0.41344842
118	0xbe4a930d	-0.19782658
119	0x3e702e7a	0.2345523
120	0x3e89fd5a	0.26951104
121	0x3d94bdfe	0.07262801
122	0x3d293621	0.041311387
123	0xbeb848df	-0.35993096
124	0x3e5e2973	0.21695499
125	0xbe3b84b8	-0.18312347
126	0xbc6b4d28	-0.014361657
127	0x3d8d36dd	0.0689523

layers.2.weight f4 [64, 128]
0	0x3d2a32c5	0.041552324
1	0x3d824b3a	0.063620046
2	0x3c35b027	0.011089361
3	0x3dbe1f53	0.09283318
4	0xbb08e3b9	-0.0020887686
5	0x3e0e85f7	0.13918291
6	0x3c9f9124	0.019478388
7	0x3c35ed55	0.011103948
8	0x3b99b221	0.004690424
9	0x3c572d8f	0.013133421
10	0x3cbe903b	0.023262134
11	0x3e0187e9	0.12649502
12	0xbdd616f5	-0.104535975
13	0x3b804266	0.0039141653
14	0xbcf6b197	-0.030113978
15	0xbd966ab2	-0.07344569
16	0x3cd03ecc	0.025420569
17	0xbccb7e84	-0.0248406
18	0xbd82fb23	-0.06395557
19	0x3d4f5d72	0.050626226
20	0x3d7c3e9a	0.06158314
21	0xbb640709	-0.0034794232
22	0xbd3aa2bc	-0.04556535
23	0xbd2a127f	-0.041521545
24	0xbd5fc96d	-0.054635454
25	0x3d49f258	0.049303383
26	0xbd99d4c2	-0.075112835
27	0xbc779f2d	-0.015113634
28	0xbdfb4b6c	-0.12270245
29	0xbde6700c	-0.1125184
30	0xbc5b4ea4	-0.013385449
31	0xbc852c41	-0.016256453
32	0x3c4e8d90	0.012606993
33	0xbd80142f	-0.0625385
34	0xbbfa7b7d	-0.0076441155
35	0xbcbb10c1	-0.022835137
36	0xbd4b5e5c	-0.049650535
37	0x3d893b7b	0.06700798
38	0x3d0d65ea	0.03452102
39	0x3da5250f	0.08063709
40	0x3df08fa2	0.11746146
41	0xbd208220	-0.039186597
42	0x3cb2df93	0.021835124
43	0xbdd76a6f	-0.105183475
44	0xbba9d588	-0.0051829256
45	0xbcfc1a41	-0.030774238
46	0xbe08f5e7	-0.13375054
47	0x3d3f5f2d	0.046721626
48	0xbd09271b	-0.03348456
49	0xbdb24a8c	-0.08705625
50	0x3d99445f	0.07483744
51	0xbc847392	-0.01616839
52	0x3ce7597b	0.02824091
53	0x3d10f280	0.035387516
54	0x3d9d56b1	0.07682551
55	0xbcc497a7	-0.023998095
56	0x3d20e0da	0.039276935
57	0xbcfa5a8f	-0.03056076
58	0x3d36c86c	0.04462473
59	0xbd1081bc	-0.035279974
60	0xbc1ee395	-0.0096978145
61	0x3d988057	0.07446354
62	0xbd817d71	-0.06322754
63	0x3d833429	0.06406433
64	0x3b7f6d21	0.0038974958
65	0xbd4c3914	-0.04985912
66	0xbde18eb8	-0.110135496
67	0x3d87bb3b	0.06627508
68	0x3e0d02a2	0.13770536
69	0x3db7ff45	0.08984236
70	0xbca8a140	-0.020584702
71	0x3d0133a5	0.031543393
72	0xbe572690	-0.21010804
73	0xbc9a2fd6	-0.018821638
74	0x3ca1f1cc	0.019768618
75	0x3dc69492	0.09696306
76	0x3d70fc66	0.058834456
77	0x3b93b898	0.0045080893
78	0x3ce0b2a5	0.027428934
79	0xbdaa73e3	-0.08322885
80	0xbc77bf36	-0.015121272
81	0xbcfcef2b	-0.030875763
82	0xbdf2bf7a	-0.118529275
83	0x3d29741d	0.0413705
84	0x3e01c6aa	0.1267344
85	0xbe0890c8	-0.1333648
86	0x3d0178d9	0.03160939
87	0x3d568863	0.052376162
88	0x3da3870f	0.07984745
89	0x3d656828	0.056007534
90	0x3c6c97e6	0.014440512
91	0xbc56dd1b	-0.013114239
92	0xbd8039d3	-0.06261029
93	0x3d2e6fbc	0.042587027
94	0x3d58cb5e	0.05292832
95	0x3d56ce5f	0.052442905
96	0xbd8cb8ea	-0.06871207
97	0x3cef93f8	0.029245362
98	0x3d3bc38a	0.045840777
99	0xbd882bed	-0.06649003
100	0x3c34ade8	0.011027791
101	0x3ce114ec	0.027475797
102	0x3ce80071	0.028320523
103	0x3dac221e	0.08404945
104	0xbd19846c	-0.037479803
105	0x3e4ea7dd	0.20181222
106	0x3c36b930	0.011152551
107	0x3c0809bf	0.008303105
108	0x3a0a057a	0.00052650983
109	0x3d370566	0.044682883
110	0xbd2a9245	-0.0416434
111	0xbdee1f87	-0.11627107
112	0xbd720eca	-0.059096135
113	0x3d579bf6	0.05263897
114	0xbc08ad2b	-0.008342068
115	0x3d17ce3b	0.03706191
116	0xbe0afe4b	-0.13573568
117	0xbdd13d3b	-0.10216757
118	0xbdbffd80	-0.09374523
119	0xbc7e205b	-0.015510644
120	0x3b95ae15	0.0045678713
121	0x3cecd81e	0.028911646
122	0xbd4e238c	-0.05032687
123	0xbcd634a6	-0.026148152
124	0x3cb80997	0.02246551
125	0x3c652562	0.013985964
126	0xbdef011d	-0.11670134
127	0xbcfcf890	-0.030880243
128	0x3d048b1c	0.032359228
129	0xbdaf750c	-0.08567247
130	0xbb9f1506	-0.004854801
131	0x3c6d9e19	0.014503025
132	0xbc0e5f03	-0.008689645
133	0xbd0150b2	-0.031571098
134	0x3d869ac3	0.06572487
135	0xbcf65943	-0.03007186
136	0x3d391f83	0.045196068
137	0xbd113bf8	-0.03545758
138	0xbd050125	-0.032471795
139	0x3d37a3c0	0.0448339
140	0xbcee2b49	-0.029073374
141	0xbd223735	-0.03960343
142	0xbda0a187	-0.07843309
143	0xbdb21ad4	-0.08696523
144	0xbca11938	-0.019665346
145	0xbda24cde	-0.079248175
146	0xbd0d84d0	-0.034550488
147	0xbdbaff13	-0.09130683
148	0x3c040f82	0.008060338
149	0xbc93b6c4	-0.018031485
150	0xbd603693	-0.054739546
151	0xbd32f6a0	-0.04369223
152	0xbd9f4bf0	-0.07778156
153	0x3c99ea25	0.018788407
154	0xbdd7c1c6	-0.10535006
155	0xbd2c0898	-0.042000383
156	0x3a8371f4	0.0010028468
157	0x3b343971	0.0027500058
158	0x3b5b2c34	0.0033443095
159	0x3c97e6cd	0.018542672
160	0xbda3a66d	-0.079907276
161	0xbcd70f4b	-0.02625241
162	0x3d4bcf2f	0.049758133
163	0x3e17f876	0.14840874
164	0xbd3db426	-0.04631438
165	0xbde29bad	-0.11064849
166	0x3ced453f	0.028963683
167	0xbd848bf4	-0.064720064
168	0xbd39fefc	-0.045409188
169	0x3d7e7fbb	0.062133532
170	0xbd13f4be	-0.036122076
171	0x3d247766	0.04015293
172	0xbbb38718	-0.005478751
173	0xba81cd7a	-0.0009903156
174	0xbc50a04f	-0.012733533
175	0x3c7ba7a7	0.015359796
176	0xbdb88a5f	-0.09010767
177	0x3d15a733	0.036536407
178	0x3c4059e9	0.011740186
179	0xbdd03570	-0.101664424
180	0xbce97688	-0.028498903
181	0xbc98c289	-0.01864745
182	0x3968c098	0.00022196991
183	0xbd383adb	-0.044978004
184	0x3d313d14	0.04327114
185	0xbd594fa9	-0.053054485
186	0xbcce8217	-0.025208516
187	0xbc7f6a4e	-0.01558931
188	0x3d894636	0.06702845
189	0xbcb8673f	-0.02251017
190	0xbd692477	-0.05691954
191	0xbd474243	-0.048647176
192	0xbd029400	-0.031879425
193	0xbc9f933f	-0.019479392
194	0x3d6dd7e9	0.058067236
195	0xbcd04171	-0.02542183
196	0x3cbf5fa0	0.023361027
197	0xbdabc33b	-0.08386847
198	0x3d2fab29	0.04288784
199	0x3d290cf1	0.041272108
200	0xbdff369e	-0.12461589
201	0xbd9f90b0	-0.07791269
202	0xbdb94788	-0.09046847
203	0x3c52b172	0.012859689
204	0xbddafca1	-0.106927164
205	0xbd5f6cb5	-0.05454703
206	0x3c0e1669	0.008672335
207	0x3d02f0bc	0.031967863
208	0xbd859196	-0.06521909
209	0xbd1a033d	-0.037600745
210	0xbe012478	-0.12611568
211	0xbd5864c3	-0.05283047
212	0x3bd4422f	0.0064776163
213	0xbd4d989c	-0.050194368
214	0x3d6123f0	0.054965913
215	0x3cb04076	0.021515112
216	0x3d0aed10	0.033917487
217	0xbdb153c5	-0.08658556
218	0x3cd33370	0.025781363
219	0xbcef6428	-0.029222563
220	0xbd5d57ff	-0.054038998
221	0x3d55e1b5	0.052217204
222	0xbc5a1d55	-0.013312657
223	0x3d2ae3f3	0.041721296
224	0xbd6a4d26	-0.05720248
225	0x3d1b65d7	0.03793892
226	0x3d4796d3	0.04872782
227	0xbd9dd772	-0.077071086
228	0xbbcd5b1f	-0.006266966
229	0x3d509838	0.050926417
230	0xbd94f03d	-0.07272384
231	0xbdc6ea27	-0.0971263
232	0xbd617d7d	-0.055051316
233	0xbd45a8eb	-0.048256796
234	0x3d414299	0.047182653
235	0xbdf4795e	-0.119372115
236	0x3d02e232	0.031953998
237	0xbd9661f9	-0.073429056
238	0xbdab51e9	-0.083652325
239	0xbd849f37	-0.0647568
240	0xbda6dff3	-0.08148184
241	0xbd79af6e	-0.06095832
242	0xbd6808db	-0.05664907
243	0xbd45e8ff	-0.048317906
244	0x3d422536	0.04739877
245	0xbdada1d8	-0.08478135
246	0x3d2ba0a5	0.04190125
247	0xbd8b8b5c	-0.0681369
248	0x3d731dd7	0.05935463
249	0xbd820553	-0.06348672
250	0xbdbe826a	-0.09302218
251	0x3ce46665	0.027880857
252	0x3adac5d8	0.0016691042
253	0xbcf8b5eb	-0.030360183
254	0x3d00fe36	0.031492434
255	0xbd98741d	-0.07444022

layers.2.bias f4 [64]
0	0xbb590776	-0.003311602
1	0x3d4dc5c8	0.050237447
2	0x3d7b047b	0.06128357
3	0xbb7b7987	-0.0038371996
4	0x3c9c3295	0.019067088
5	0xbd802252	-0.06256546
6	0xbd393ccb	-0.045223992
7	0xbcf010ad	-0.029304827
8	0x3b5d1975	0.0033737097
9	0x3dcfaf75	0.10140888
10	0xbc67b582	-0.014142396
11	0xbb8d4eae	-0.004312358
12	0x3d718d92	0.058972903
13	0x3dd71637	0.10502284
14	0xbdb9e487	-0.09076791
15	0xbc280bc9	-0.010256716
16	0x3c903678	0.017604098
17	0xbc6a0aad	-0.014284772
18	0xbd6d14ed	-0.057881285
19	0xbc85bab2	-0.016324375
20	0x3e29f0fa	0.16595832
21	0xbdbb9850	-0.09159911
22	0x3d966a59	0.07344503
23	0x3d416419	0.0472146
24	0x3da5a7d8	0.08088654
25	0xbd3cda69	-0.04610673
26	0x3dbb0dcf	0.09133493
27	0x3c731053	0.014835435
28	0xbcb22b41	-0.02174914
29	0x3d29862b	0.04138772
30	0x3cad1c6d	0.021131719
31	0x3dcb68a2	0.099320665
32	0xbd8d2f96	-0.06893842
33	0x3dea054d	0.11426792
34	0xbbab95e5	-0.0052363747
35	0xbd51c4ae	-0.05121296
36	0xbd899ca0	-0.06719327
37	0xbcee2718	-0.029071376
38	0xbd611009	-0.054946933
39	0xbdc7f9dd	-0.097644545
40	0x3dae9574	0.085246
41	0xbdb296ab	-0.08720144
42	0x3d670b78	0.05640742
43	0x3dc4999c	0.09599611
44	0xbc106993	-0.008814233
45	0xbcab316a	-0.020897586
46	0x3da9bea7	0.08288317
47	0xbd80ff12	-0.06298651
48	0x3d7a7e96	0.061155878
49	0xbd81770a	-0.06321533
50	0x3e07dc0c	0.13267535
51	0x3d614afe	0.05500316
52	0xbd2b8c05	-0.04188158
53	0x395fcca1	0.00021343167
54	0x3d47a0b7	0.048737254
55	0x3c707f44	0.01467878
56	0xbc1831bd	-0.009289202
57	0xbd1657bc	-0.036704764
58	0xbdbcb5cb	-0.09214362
59	0x3c33debe	0.010978399
60	0x3d0c54c6	0.034260534
61	0x3d6b0abf	0.057383295
62	0x3c08f20b	0.008358489
63	0x3c456a6e	0.012049301

layers.4.weight f4 [3, 64]
0	0x3cf0bf36	0.029388051
1	0xbd5487a6	-0.051887177
2	0xbdf43315	-0.119238056
3	0xbb90843e	-0.0044102957
4	0x3e39164c	0.18074912
5	0xbd2ef3ab	-0.04271285
6	0xbdb0757b	-0.086161576
7	0x3d859a08	0.0652352
8	0xbde19e23	-0.1101649
9	0x3e38829a	0.1801857
10	0x3d54f54f	0.051991757
11	0x3e00e1c3	0.12586121
12	0x3e35bb41	0.17747213
13	0x3e10f635	0.1415642
14	0xbd5cf20e	-0.05394178
15	0x3dbd4a6d	0.09242711
16	0x3d220177	0.03955218
17	0x3d8c4f0b	0.06851014
18	0xbdc9031b	-0.098150454
19	0x3e04df7a	0.12975875
20	0xbdb2dea9	-0.08733875
21	0xbd16fb80	-0.036860943
22	0xbe97b16d	-0.29627553
23	0x3e0be4be	0.13661477
24	0xbce08531	-0.02740726
25	0xbd01c737	-0.031684127
26	0xbdaf4244	-0.08557561
27	0x3d9d77d9	0.07688875
28	0x3daadd9d	0.08343051
29	0x3d7adc72	0.06124539
30	0x3de169f9	0.11006541
31	0x3df70c0d	0.120628454
32	0xbe4aa10c	-0.19787997
33	0x3e09d7ab	0.13461177
34	0x3e5f4757	0.21804558
35	0xbc9b352d	-0.018946255
36	0x3c048d4b	0.0080903275
37	0xbdb1238c	-0.08649358
38	0x3c923e96	0.017852109
39	0xbcda45a9	-0.026644545
40	0x3de0d36f	0.10977828
41	0xbde301e3	-0.11084344
42	0x3dddf2f3	0.108373545
43	0xbe3f9012	-0.18707302
44	0xbe670f98	-0.22564542
45	0x3c648131	0.013946817
46	0xbe123080	-0.14276314
47	0x3da88501	0.082284935
48	0xbdbe34fc	-0.0928745
49	0x3c07af91	0.008281604
50	0x3e48cc6b	0.1960923
51	0xbdf5c201	-0.11999894
52	0x3e2a1e0d	0.16613026
53	0xbd9d86ea	-0.076917484
54	0xbd4a19e8	-0.049341112
55	0x3e0237df	0.12716626
56	0xbdf4d1c7	-0.11954074
57	0xbdd3712c	-0.1032432
58	0xbc33204b	-0.010932992
59	0x3dd1a5bd	0.1023669
60	0xbdcc6b5e	-0.09981416
61	0x3d359bcf	0.044338044
62	0xbe0f6977	-0.14005075
63	0xbe258153	-0.16162615
64	0xbdcefb08	-0.10106474
65	0x3dd36534	0.10322037
66	0xbdf5b4f9	-0.119974084
67	0x3e16a4b7	0.14711271
68	0xbe3c1c81	-0.18370248
69	0xbe27df34	-0.16393739
70	0xbdc0e294	-0.09418216
71	0xbce36b74	-0.027761199
72	0x3d58c67a	0.052923657
73	0xbd188743	-0.03723837
74	0xbd81fb5d	-0.06346772
75	0xbdc5cd45	-0.09658293
76	0x3d69e6c6	0.05710485
77	0xbd473646	-0.048635744
78	0xbda23c1b	-0.079216205
79	0xbd6c3390	-0.05766636
80	0x3e0e98c1	0.13925458
81	0xbde4b1a7	-0.11166697
82	0xbe5b6e77	-0.21428858
83	0xbb5f7b52	-0.0034100604
84	0x3d9a83e4	0.075446874
85	0xbe29b5ce	-0.16573259
86	0x3c687961	0.014189095
87	0xbe094d05	-0.13408287
88	0x3e1d3758	0.15353143
89	0x3db28eab	0.08718618
90	0xbde877ed	-0.11350999
91	0xbe17911f	-0.14801453
92	0x3d59d1cc	0.053178594
93	0xbd965f0f	-0.0734235
94	0x3e0f26e5	0.13979681
95	0xbcab762b	-0.02093037
96	0xbdd4ce4c	-0.103909105
97	0xbd75914f	-0.05995303
98	0xbe3c253e	-0.18373582
99	0x3da05c2e	0.07830082
100	0x3db01191	0.085971005
101	0xbdd44333	-0.1036438
102	0xbda481e9	-0.08032591
103	0xbdde54da	-0.10856028
104	0x3deeb55d	0.11655686
105	0xbde7ea7b	-0.113240205
106	0xbde905d6	-0.11378066
107	0x3d56cfb6	0.052444182
108	0xbc6ac5fc	-0.01432943
109	0xbde19000	-0.11013794
110	0xbe1a33ec	-0.15058869
111	0x3d77eafd	0.060526837
112	0xbe1f3f48	-0.15551484
113	0xbe255fb5	-0.1614979
114	0x3d8ab251	0.067722924
115	0xbd031c7a	-0.03200958
116	0xbdfa41ad	-0.12219558
117	0xbc448d46	-0.011996573
118	0x3e05b761	0.13058235
119	0x3dd79d46	0.105280444
120	0x3dbbd36f	0.09171187
121	0x3e2d6f15	0.16936906
122	0xbde5cf93	-0.11221232
123	0x3d77d469	0.060505304
124	0x3da7110a	0.08157547
125	0x3d6c95bb	0.05775998
126	0x3d1e7a34	0.03869076
127	0xbe4b67cd	-0.19863816
128	0x3da25751	0.079268105
129	0x3ccfe915	0.025379697
130	0x3bda8078	0.0066681467
131	0x3d99c215	0.07507721
132	0x3de0bdb5	0.10973684
133	0x39664c27	0.00021962878
134	0xbd5620cf	-0.052277382
135	0xbdef6a85	-0.11690239
136	0xbbe3abc6	-0.006947967
137	0xbe4f93df	-0.20271252
138	0x3e0adaed	0.13560076
139	0x3dc3e09f	0.095643274
140	0xbdaece71	-0.08535469
141	0xbe42ad4a	-0.19011417
142	0x3e38fd73	0.18065433
143	0x3cebecd1	0.028799446
144	0x3bd6e4da	0.006558043
145	0xbdabb261	-0.083836325
146	0x3dad1f69	0.08453257
147	0xbe0dbc68	-0.13841403
148	0xbe5cc228	-0.2155844
149	0xbd994649	-0.07484109
150	0x3e789ff9	0.24279775
151	0x3d87b0f7	0.0662555
152	0x3c48ff6b	0.012267928
153	0x3dd0b14c	0.10190067
154	0x3e2038a6	0.1564661
155	0x3df2d363	0.11856725
156	0x3d3ed242	0.046587236
157	0x3e1d15ea	0.15340391
158	0xbe215e72	-0.15758684
159	0xbe070e67	-0.13189088
160	0x3e0ec880	0.13943672
161	0xbdeb8001	-0.11499024
162	0x3e2b905e	0.1675429
163	0x3dabcdb8	0.08388847
164	0x3df1dc7d	0.11809633
165	0xbd8275e5	-0.06370143
166	0xbd96381d	-0.073349215
167	0x3dad1e9d	0.08453105
168	0xbe7d27e3	-0.24722247
169	0x3c8f0a84	0.017461069
170	0xbe054824	-0.130158
171	0x3dac8cbd	0.08425281
172	0x3e6f86ed	0.23391314
173	0x3cc5b196	0.024132531
174	0x3d938a3a	0.07204099
175	0x3d74ebe7	0.059795287
176	0x3e22eff3	0.15911846
177	0x3dcd2024	0.10015896
178	0xbe35bc45	-0.177476
179	0x3e193e2a	0.1496512
180	0xbd345ea2	-0.04403556
181	0x3dc656e0	0.09684539
182	0xbde7320f	-0.11288845
183	0x3db1c1ac	0.08679518
184	0x3cf44905	0.029819975
185	0xbd54f7de	-0.051994197
186	0xbd729e63	-0.05923308
187	0xbde056ff	-0.10954093
188	0xbd288ae5	-0.041148085
189	0xbe170b48	-0.14750397
190	0x3e08fad2	0.1337693
191	0x3d16413e	0.036683314

layers.4.bias f4 [3]
0	0x3d7a0aec	0.061045572
1	0x3c536b46	0.012903994
2	0xbe10f734	-0.141568
