acrobot_ppo_logs/Acrobot-v1/value_network.pth (torch, 39620 bytes, 5 tensors)

layers.0.weight f4 [128, 6]
-0.6934171 0.08494594 -0.42658433 -0.42447147 0.13760915 0.19973487 -0.47187895 0.5301043
-0.3148459 0.16889207 0.33330518 0.38481686 -0.70124364 -0.28552637 0.48862037 -0.30446365
0.33292904 0.06813931 -0.47299075 0.071805894 -0.39109582 -0.019617591 1.3036036e-05 -0.055649634
-0.18800987 0.65726286 -0.9478867 0.24255882 0.25660703 -0.0795354 -0.7018921 -0.07413299
-0.6381782 0.25853118 0.14739221 -0.13202217 -0.27466765 0.62846094 -0.4274932 0.5798956
0.2930758 -0.06464813 -0.74173635 0.360746 -0.6386193 -0.25992694 -0.284387 0.0846152
-0.19325805 0.44575176 -0.3823221 0.48626843 -0.105028346 -0.08553299 -0.23991059 -0.36340636
0.32306185 -0.07624545 -0.24133532 -0.026556041 0.028751709 -0.522978 -0.67352957 -0.21464604
0.4773492 -0.06481026 -0.13643222 0.969705 -0.89187634 0.68773985 0.0041928063 -0.16529216
-0.7146721 -0.18830076 0.1151868 -0.10806456 0.12444986 -0.11011211 -0.84636205 -0.6655252
0.3079013 -0.2907831 -0.4010542 -0.15087613 -0.18551533 -0.36997035 0.48266122 0.017656382
0.18149064 0.011549424 -0.24686949 -0.18615207 0.19985545 0.44980416 0.5884627 0.07083147
-0.6295158 0.37620416 -0.6631207 -0.4315528 -0.026474098 0.3119636 -0.50100845 0.15672557
-0.49455258 0.115946874 0.05555737 0.034036 0.25987604 0.6956461 0.7201507 -0.66778
-0.18589461 -0.087325335 0.75657994 0.40966365 0.22491609 -0.47184056 0.18159671 -0.05179118
0.13979729 0.30364653 0.35385677 0.49086863 -0.613574 -0.11762043 -0.497353 0.44472528
0.22281803 -0.30123198 -0.26070857 -0.13256195 -0.43302456 -0.8673246 -0.078790426 -0.6917362
-0.07608065 -0.07763875 0.5904268 0.6497194 -0.015043975 -0.059453927 0.012394884 0.0697955
-0.4278085 0.20779991 -0.62022 -0.034128267 -0.087939754 -0.09279177 -0.3758672 -0.35129073
0.123840466 -0.22514382 0.33802116 0.009110322 -0.71761405 0.63607275 0.34201428 0.3081165
0.38273698 0.1348229 -0.38514555 -0.9572216 0.54892087 -0.35676345 0.37702405 0.18972638
-0.7944515 0.4457333 0.05189329 0.18716043 -0.13767283 0.15436804 0.23338991 -0.10836306
0.65512985 -0.036616527 -0.09195886 -8.369902e-05 -0.5251265 -0.012203299 -0.49765912 0.09735653
-0.09494406 0.081975356 -0.059675466 -0.29912537 0.14623074 -0.15482305 -0.08997585 -0.077859975
-0.49946782 -0.2323154 0.34078658 -0.44582796 0.64152116 0.08210181 -0.053632963 0.3065079
0.32845333 0.03871253 0.49212345 0.2789569 0.21510626 -0.3601584 -0.20819803 -0.13841736
-0.0021545333 0.090373196 -0.4300612 0.51711255 -0.027345039 -0.075135894 0.2897471 0.31549457
-0.45006967 0.55710936 0.6099446 0.20847106 -0.0075993855 -0.070827626 -0.55245167 -0.42972103
0.18574941 0.5699999 0.070171624 -0.19159041 -0.68624586 0.15289752 -0.123117484 -0.21053673
-0.06808311 0.24128345 -0.2201738 0.581712 0.519485 -0.2358046 -0.21983524 -0.08922383
-0.6374796 -0.59083915 0.037290838 -0.25175902 -0.3651196 -0.085423104 -0.73310053 0.30201507
-0.6007123 -0.00153478 -0.2764323 0.10561841 -0.8287604 -0.5230465 -0.117951274 -0.80004233
00000000: c883 31bf 23f8 ad3d 4369 dabe 5354 d9be
00000010: 6ae9 0c3e 4c87 4c3e 1e9a f1be eab4 073f
00000020: 7b33 a1be 0bf2 2c3e faa6 aa3e b706 c53e
00000030: b484 33bf 8330 92be 732c fa3e a9e2 9bbe
00000040: ad75 aa3e 9f8c 8b3d d82b f2be f80e 933d
00000050: b63d c8be 12b5 a0bc 59b5 5a37 dff0 63bd
00000060: a985 40be 6142 283f b4a8 72bf 5761 783e
00000070: ff61 833e 75e3 a2bd 33af 33bf 09d3 97bd
00000080: a65f 23bf 335e 843e fced 163e d230 07be
00000090: 3da1 8cbe d1e2 203f 64e0 dabe 0a74 143f
000000a0: 080e 963e 3d66 84bd 6fe2 3dbf b3b3 b83e
000000b0: 8e7c 23bf 2515 85be 2c9b 91be bc4a ad3d
000000c0: 70e5 45be 9339 e43e b9bf c3be 2df8 f83e
000000d0: 1a19 d7bd ec2b afbd 1fab 75be 6610 babe
000000e0: 5d68 a53e 9326 9cbd 9b20 77be 0e8c d9bc
000000f0: b488 eb3c e3e1 05bf 6f6c 2cbf 2ccc 5bbe
00000100: 1d67 f43e 3ebb 84bd e3b4 0bbe 963e 783f
00000110: 0252 64bf b80f 303f cf63 893b 5942 29be
00000120: c0f4 36bf ead1 40be 0fe7 eb3d f450 ddbd
00000130: 91df fe3d 7582 e1bd 2fab 58bf dc5f 2abf
00000140: 3da5 9d3e 86e1 94be fa56 cdbe 467f 1abe
00000150: bbf7 3dbe c16c bdbe 5f1f f73e 1ea4 903c
00000160: afd8 393e cc39 3d3c 5bcb 7cbe a69e 3ebe
00000170: e8a6 4c3e bb4c e63e 7ea5 163f 1710 913d
00000180: f327 21bf d59d c03e 47c2 29bf 7df4 dcbe
00000190: 35e0 d8bc b1b9 9f3e 1742 00bf ab7c 203e
000001a0: ff35 fdbe 8e75 ed3d 2090 633d 5569 0b3d
000001b0: 790e 853e dd15 323f cc5b 383f a1f3 2abf
000001c0: 285b 3ebe a0d7 b2bd 39af 413f 6fbf d13e
000001d0: 6750 663e 1695 f1be 7df4 393e fd22 54bd
000001e0: 0527 0f3e 8f77 9b3e b72c b53e 2253 fb3e
000001f0: 3013 1dbf fbe2 f0bd 0da5 febe 08b3 e33e
00000200: 692a 643e 143b 9abe 987b 85be 52be 07be
00000210: 65b5 ddbe fc08 5ebf e05c a1bd a015 31bf
00000220: 2cd0 9bbd 1101 9fbd 3626 173f 0354 263f
00000230: 017b 76bc f685 73bd e913 4b3c f1f0 8e3d
00000240: b709 dbbe 80c9 543e bdc6 1ebf 15ca 0bbd
00000250: c219 b4bd 9d09 bebd aa71 c0be 61dc b3be
00000260: 12a0 fd3d 1a8c 66be 1c11 ad3e 7643 153c
00000270: 8eb5 37bf aad5 223f 7f1c af3e 72c1 9d3e
00000280: 1af6 c33e 040f 0a3e cc31 c5be 7a0c 75bf
00000290: 1486 0c3f b3a9 b6be 4c09 c13e a247 423e
000002a0: 2c61 4bbf 2837 e43e 0f8e 543d fca6 3f3e
000002b0: 1bfa 0cbe a812 1e3e c4fd 6e3e 74ed ddbd
000002c0: 97b6 273f 36fb 15bd ed54 bcbd 9287 afb8
000002d0: b16e 06bf 59f0 47bc 2dcd febe dc62 c73d
000002e0: 0872 c2bd b2e2 a73d 436e 74bd f626 99be
000002f0: 83bd 153e ef89 1ebe 4245 b8bd 0d75 9fbd
00000300: 3fba ffbe 17e4 6dbe 947b ae3e 9043 e4be
00000310: bb3a 243f fe24 a83d 3dae 5bbd 9aee 9c3e
00000320: 092b a83e 0891 1e3d 9bf7 fb3e 70d3 8e3e
00000330: d144 5c3e af66 b8be dd31 55be 48bd 0dbe
00000340: 1233 0dbb 9515 b93d fb30 dcbe 7d61 043f
00000350: b402 e0bc d9e0 99bd bb59 943e 8188 a13e
00000360: 886f e6be b89e 0e3f 5425 1c3f 7079 553e
00000370: 4404 f9bb 130e 91bd 796d 0dbf 6504 dcbe
00000380: 1835 3e3e 83eb 113f 24b6 8f3d 4730 44be
00000390: cfad 2fbf 2b91 1c3e 0525 fcbd f196 57be
000003a0: 286f 8bbd 0213 773e 3e75 61be 14eb 143f
000003b0: f8fc 043f c376 71be 7d1c 61be fcba b6bd
000003c0: dd31 23bf 3c41 17bf 47be 183d 8fe6 80be
000003d0: f5f0 babe 4ff2 aebd 7aac 3bbf b8a1 9a3e
000003e0: 48c8 19bf ac2a c9ba 8988 8dbe 774e d83d
000003f0: a429 54bf 60e6 05bf 7090 f1bd 93cf 4cbf

layers.0.bias f4 [128]
-0.2217653 -0.2585889 -0.36965764 -0.87724423 -0.62688935 -0.75369185 -0.30883667 -0.22267781
-0.66059375 -0.5467207 -0.70530105 -0.38720095 0.47979116 -0.28926298 -0.4675693 -0.047826167
-0.13719246 -0.37401286 0.023828883 0.19599292 -0.60939395 -0.13075247 -0.3985812 -0.8853553
-0.8459514 -0.65197223 -0.021454133 -0.36890364 -0.34912568 -0.038955458 -0.21079625 -0.73218405
-0.009027466 -0.5429319 -0.36057857 0.093799606 -0.10767059 0.36349082 0.034326717 -0.33045042
-0.66994536 -0.2556438 -0.035743393 0.024241379 -0.73019004 0.048522893 -0.5336797 -0.43628836
-0.5609973 0.24268164 0.4205143 -0.94425464 -0.31783473 0.41678488 0.15180664 -0.3316077
-1.0200979 -0.35669723 -0.44081047 0.050968956 0.50780016 -0.47513747 -0.8992824 -0.7920401
-0.13860974 0.25319776 0.3364857 -0.28534234 0.13605337 -0.100418 -0.17444916 -0.51828015
-0.008339229 0.32674992 -0.6348575 -0.17337388 -0.6067093 -0.031095851 -0.8212293 -0.609841
-0.042148262 -0.6641644 0.17164563 0.03914891 -0.89120555 -0.0017520608 -0.13499616 0.2271348
0.010950925 -0.47830766 0.08666615 -0.50834525 -0.65578467 -0.2006336 -0.017325658 -0.3277036
-0.1214212 -0.04958991 -0.030464923 0.070459165 -0.40316564 -0.65576494 0.11306094 0.05753065
-0.62764513 -0.7017608 0.1001355 0.09669642 -0.1470307 -0.57848716 -0.065623306 -0.64244324
-0.4973406 0.45904538 -0.22793637 -0.74321854 -0.7892602 0.29634455 -0.64586896 0.6068357
-0.17853504 0.26476285 -0.9716109 -0.227472 -0.8639057 -0.6461002 0.08155891 0.30221775
00000000: 7116 63be c465 84be c443 bdbe 1493 60bf
00000010: d27b 20bf f3f1 40bf d71f 9ebe a705 64be
00000020: ac1c 29bf e3f5 0bbf 9c8e 34bf 343f c6be
00000030: 30a7 f53e 471a 94be 3e65 efbe 5fe5 43bd
00000040: 2e7c 0cbe 9d7e bfbe ca34 c33c 5eb2 483e
00000050: 3e01 1cbf fae3 05be d612 ccbe a5a6 62bf
00000060: 4590 58bf a7e7 26bf 94c0 afbc f0e0 bcbe
00000070: 9ac0 b2be c28f 1fbd f9da 57be 6a70 3bbf
00000080: f0e7 13bc 96fd 0abf c19d b8be 021a c03d
00000090: 6682 dcbd 781b ba3e 2c9a 0c3d cc30 a9be
000000a0: 8a81 2bbf bfe3 82be aa67 12bd db95 c63c
000000b0: bced 3abf f1bf 463d 3c9f 08bf 3061 dfbe
000000c0: 859d 0fbf 8981 783e a64d d73e acba 71bf
000000d0: 3cbb a2be d464 d53e 3373 1b3e 7cc8 a9be
000000e0: 9192 82bf 05a1 b6be e9b1 e1be d3c4 503d
000000f0: 31ff 013f 3845 f3be 5f37 66bf 24c3 4abf
00000100: b6ef 0dbe 23a3 813e db47 ac3e 6418 92be
00000110: 9351 0b3e f4a7 cdbd cda2 32be 02ae 04bf
00000120: 43a1 08bc c44b a73e 0586 22bf ec88 31be
00000130: 4d51 1bbf babc febc 153c 52bf 8a1e 1cbf
00000140: a8a3 2cbd ae06 2abf dfc3 2f3e 9c5a 203d
00000150: 0c26 64bf 68a5 e5ba 6f3c 0abe 0696 683e
00000160: 826b 333c bee4 f4be 067e b13d ea22 02bf
00000170: 81e1 27bf e572 4dbe 8aee 8dbc c4c8 a7be
00000180: aeab f8bd ca1e 4bbd 9391 f9bc e54c 903d
00000190: ba6b cebe 36e0 27bf 7e8c e73d 42a5 6b3d
000001a0: 5aad 20bf 99a6 33bf d713 cd3d c608 c63d
000001b0: 378f 16be bc17 14bf 8365 86bd 2977 24bf
000001c0: 6da3 febe ff07 eb3e 2768 69be 9243 3ebf
000001d0: f50c 4abf 79ba 973e ab57 25bf 9659 1b3f
000001e0: e4d1 36be ff8e 873e 7ebb 78bf 6cee 68be
000001f0: ed28 5dbf d366 25bf 5c08 a73d 49bc 9a3e

layers.2.weight f4 [64, 128]
0.0030628184 0.07102918 -0.09177464 0.19944021 0.043635484 -0.07349161 0.16175131 0.02443462
0.034867372 0.07297388 -0.22938491 -0.038487352 -0.16124608 -0.055424996 0.10028489 -0.031331174
-0.07655412 -0.15840591 -0.29263484 -0.3892055 0.2065563 -0.22398181 0.24970618 -0.2026131
0.082683206 -0.071609154 0.010720807 0.06761683 0.13556916 -0.07427922 0.19591704 -0.089823045
-0.0393379 -0.03324854 -0.17536335 0.18330008 0.020265631 -0.22016299 0.085575104 0.09565927
-0.06908123 0.15649526 -0.18764506 -0.24365006 0.07964841 0.07960132 0.06675668 0.029864926
0.055795405 -0.0913427 0.32894656 0.06545104 0.06436081 -0.09979276 0.23306997 0.28858143
-0.10885448 -0.20171648 -0.09667433 0.72881484 -0.18845282 -0.13517174 -0.2937333 -0.11758638
-0.20436749 -0.16359882 -0.25148985 -0.050489895 0.33282295 -0.21148463 -0.12783292 -0.007482466
-0.27367505 -0.14668365 -0.06720753 -0.04241846 0.034721803 -0.14150491 0.03821739 -0.057012398
-0.18645173 -0.29567444 -0.13263483 -0.13225581 -0.11708671 -0.26524088 0.10465138 0.22417445
-0.26231384 -0.0024614518 -0.22656372 0.0797528 -0.003926766 -0.24386133 0.06611034 -0.046587788
-0.28521132 -0.0420816 -0.08050899 -0.34029415 0.09195784 -0.060773987 -0.28794888 0.07126665
0.12532057 -0.039800417 -0.21035244 0.068929024 0.028673835 0.0005638993 -0.26871824 -0.14450747
-0.16286716 -0.29394913 0.26053756 -0.03796993 0.042511296 -0.13371328 0.021816157 -0.23276167
-0.21672717 -0.023797983 -0.019392548 -0.024919946 -0.15398331 -0.23951896 0.11551775 -0.25759777
0.17588915 0.3862102 0.0032235077 0.030740142 -0.13688293 0.00422989 -0.07670822 0.08752977
-0.011560906 0.117989495 -0.17889822 -0.19793238 -0.05925742 -0.020290265 -0.49597472 -0.21151033
0.29751617 0.106955536 -0.04184219 -0.6056103 0.2321101 -0.14450723 0.12428326 0.02293594
-0.08485276 -0.38718566 0.1644837 -0.15154465 0.03176138 -0.08025123 0.028006734 -0.013586586
0.05509888 0.18473725 0.039157737 0.23172255 0.015163912 -0.3632973 0.21424164 0.00014254655
-0.14338304 0.12479992 0.26022163 -0.1506016 0.23916426 0.004244595 -0.03492459 0.12082454
0.035853557 -0.23241554 0.1408132 0.1309243 0.10120608 -0.30496672 0.106398 0.088425584
0.35525236 -0.1998085 -0.032055724 0.0961833 -0.41493678 0.29252213 -0.014630762 -0.0737437
0.25955963 -0.30583563 0.09560787 0.132683 0.34551942 0.1678628 -0.1931847 0.21381234
-0.2797541 -0.13712543 -0.39864224 -0.09688941 0.44809705 -0.021232923 -0.16698594 0.18307911
0.20881782 0.101137 -0.060223844 -0.07914041 -0.06284317 -0.3287446 -0.1914669 0.22626089
-0.2279822 -0.12530605 -0.06716314 0.06899008 -0.09555313 -0.34668228 0.07301492 -0.13065365
-0.10852646 -0.044149514 -0.1538909 -0.035094008 0.1767939 -0.0908948 -0.24055035 0.096498445
0.07981361 0.047301117 0.107203774 0.16842338 0.07266501 0.20836987 -0.47760588 -0.026074808
0.23279305 -0.54193383 0.41695553 -0.016534984 0.23093183 0.109448835 0.28221256 -0.548556
-0.19683804 0.12037999 -0.15454122 -0.10191361 -0.054730814 -0.14488928 0.060839374 -0.3335828
00000000: 91b9 483b bf77 913d 58f4 bbbd 0e3a 4c3e
00000010: 1fbb 323d c582 96bd 23a2 253e 1d2b c83c
00000020: 17d1 0e3d 5473 953d e1e3 6abe eaa4 1dbd
00000030: b11d 25be 5205 63bd 2a62 cd3d 1e55 00bd
00000040: 68c8 9cbd 2935 22be 3cd4 95be f145 c7be
00000050: 7f83 533e 7d5b 65be fab2 7f3e cf79 4fbe
00000060: d055 a93d d2a7 92bd 53a6 2f3c b17a 8a3d
00000070: a4d2 0a3e b41f 98bd 7a9e 483e 25f5 b7bd
00000080: c720 21bd 9f2f 08bd 7392 33be 04b3 3b3e
00000090: 1c04 a63c 6872 61be 0042 af3d 02e9 c33d
000000a0: 767a 8dbd 4b40 203e 0726 40be 677f 79be
000000b0: b51e a33d 0406 a33d bab7 883d 4aa7 f43c
000000c0: b989 643d e211 bbbd af6b a83e 320b 863d
000000d0: 9acf 833d 2660 ccbd e5a9 6e3e f2c0 933e
000000e0: 19ef debd c48e 4ebe 31fd c5bd 9c93 3a3f
000000f0: c7f9 40be 766a 0abe 3664 96be 21d1 f0bd
00000100: b645 51be 7386 27be 47c3 80be 7ece 4ebd
00000110: c567 aa3e 6d8f 58be a2e6 02be 792f f5bb
00000120: 231f 8cbe 3d34 16be 1aa4 89bd fbbe 2dbd
00000130: 7338 0e3d aae6 10be d789 1c3d d585 69bd
00000140: 34ed 3ebe a462 97be 6dd1 07be 116e 07be
00000150: 28cb efbd a7cd 87be 7653 d63d fd8d 653e
00000160: 004e 86be 4f50 21bb 5200 68be 7055 a33d
00000170: 1aac 80bb c9b6 79be dc64 873d d6d2 3ebd
00000180: 3807 92be c15d 2cbd e6e1 a4bd 093b aebe
00000190: 6454 bc3d 25ee 78bd 096e 93be 40f4 913d
000001a0: 0954 003e c305 23bd a166 57be a92a 8d3d
000001b0: 64e5 ea3c a4d2 133a 7095 89be c4f9 13be
000001c0: a6c6 26be 8080 96be 2e65 853e 5b86 1bbd
000001d0: 5320 2e3d 22ec 08be ccb7 b23c 1359 6ebe
000001e0: baed 5dbe fdf3 c2bc 1fdd 9ebc ea24 ccbc
000001f0: cdad 1dbe 7544 75be 9294 ec3d dbe3 83be
00000200: 491c 343e 58bd c53e 7c41 533b c0d2 fb3c
00000210: 0a2b 0cbe e49a 8a3b 3319 9dbd cf42 b33d
00000220: f469 3dbc 7aa4 f13d 1831 37be c9ae 4abe
00000230: e9b7 72bd c537 a6bc 66f0 fdbe 2a96 58be
00000240: 0a54 983e 810b db3d b762 2bbd 4709 1bbf
00000250: 45ae 6d3e b4f9 13be 3988 fe3d 27e4 bb3c
00000260: 49c7 adbd 333d c6be 6a6e 283e 852e 1bbe
00000270: 3918 023d c25a a4bd 616e e53c 469a 5ebc
00000280: 5daf 613d c32b 3d3e dd63 203d ad48 6d3e
00000290: 0f72 783c 1b02 babe 2962 5b3e 8c78 1539
000002a0: 01d3 12be 1a97 ff3d c53b 853e 4e37 1abe
000002b0: 7ae7 743e 3e16 8b3b 160d 0fbd db72 f73d
000002c0: 2edb 123d 57fe 6dbe 5631 103e 0511 063e
000002d0: 2245 cf3d 9924 9cbe 32e7 d93d 7918 b53d
000002e0: a3e3 b53e 999a 4cbe dd4c 03bd c0fb c43d
000002f0: 9872 d4be 76c5 953e ddb5 6fbc f006 97bd
00000300: 00e5 843e 7d96 9cbe 0fce c33d 0dde 073e
00000310: ece7 b03e 3ae4 2b3e 36d2 45be 9ff1 5a3e
00000320: ee3b 8fbe 9c6a 0cbe d61a ccbe f46d c6bd
00000330: fa6c e53e abf0 adbc 5dfe 2abe 1779 3b3e
00000340: 57d4 553e ea20 cf3d 47ad 76bd 5e14 a2bd
00000350: ebb3 80bd 3651 a8be e60f 44be efb0 673e
00000360: 2a74 69be 3b50 00be d48c 89bd ac4a 8d3d
00000370: 5cb1 c3bd 5780 b1be d988 953d 12ca 05be
00000380: 1f43 debd 1fd6 34bd 9395 1dbe bcbe 0fbd
00000390: 7609 353e 0e27 babd d552 76be faa0 c53d
000003a0: 5175 a33d d1be 413d a78d db3d 2e77 2c3e
000003b0: 65d1 943d e95e 553e c288 f4be d69a d5bc
000003c0: 4d61 6e3e 2dbc 0abf 327b d53e 6074 87bc
000003d0: 6579 6c3e b626 e03d 2a7e 903e 2b6e 0cbf
000003e0: e98f 49be c989 f63d 0e40 1ebe 15b8 d0bd
000003f0: 6b2d 60bd db5d 14be b532 793d 5dcb aabe

layers.2.bias f4 [64]
-0.22314921 -0.014692538 -0.2596454 -0.32475105 0.07589953 0.14153036 -0.26933205 -0.02110535
0.31433412 0.042897075 0.44106987 -0.17921253 -0.10648741 0.22785741 0.59673893 -0.08369149
0.6026486 0.23271915 0.3068753 -0.17714053 0.21696125 -0.11280668 -0.13119932 0.06114003
-0.14234287 -0.2187841 -0.17923532 -0.23310259 -0.1224129 -0.19760801 -0.03321026 -0.10335529
-0.12651564 0.059505492 -0.2689971 -0.07261095 -0.2307321 -0.07626223 -0.09244305 -0.2590422
-0.13698088 -0.08411368 0.009623826 0.35851267 -0.24512665 -0.25091958 -0.10036863 -0.15173456
-0.11241319 -0.2964645 -0.24207179 0.011371065 -0.18300205 0.013391697 -0.12805724 0.14145324
-0.001663529 -0.14107478 0.30257857 -0.0989517 -0.0683122 -0.060720574 -0.18629156 -0.26655546
00000000: 3a81 64be f9b8 70bc 3ef0 84be c545 a6be
00000010: 3671 9b3d 56ed 103e e4e5 89be 21e5 acbc
00000020: 67f0 a03e d8b4 2f3d e9d3 e13e 7d83 37be
00000030: 1216 dabd 7453 693e e2c3 183f 7266 abbd
00000040: 2e47 1a3f ee4d 6e3e c21e 9d3e 5464 35be
00000050: 172b 5e3e 3007 e7bd 1d59 06be f86d 7a3d
00000060: 54c2 11be f008 60be 7789 37be 72b2 6ebe
00000070: 9db3 fabd c159 4abe 7b07 08bd f0ab d3bd
00000080: 518d 01be 08bc 733d fdb9 89be 0db5 94bd
00000090: 0945 6cbe 5f2f 9cbd c852 bdbd 2ea1 84be
000000a0: b744 0cbe cb43 acbd 40ad 1d3c f98e b73e
000000b0: 7b02 7bbe 8878 80be 118e cdbd 4e60 1bbe
000000c0: e338 e6bd 32ca 97be abe1 77be b44d 3a3c
000000d0: e464 3bbe d968 5b3c 7021 03be 1ed9 103e
000000e0: c50a daba e875 10be 94eb 9a3e 30a7 cabd
000000f0: 44e7 8bbd 23b6 78bd 37c3 3ebe f579 88be

layers.4.weight f4 [1, 64]
-0.03940968 0.15935867 -0.028808037 -0.03878476 -0.08995587 0.040567253 0.11289878 0.026165716
-0.18882479 0.010826035 -0.27016455 0.22470571 0.02157154 0.059642978 0.17797431 -0.022349635
0.42279986 0.052012265 -0.21698476 0.047221918 0.11958327 -0.088001944 -0.025584305 -0.028040363
-0.09072911 0.08533128 0.16300105 0.11517033 0.18891177 -0.011949576 -0.052462112 0.1400741
-0.082782134 0.21979149 0.19216973 -0.056343097 0.08755097 -0.004587937 0.07136065 -0.038799968
-0.039058372 -0.03390566 -0.026252635 -0.12612283 0.12890913 0.15100326 0.055503305 0.14811197
-0.042461928 0.143076 0.13794868 -0.09076639 0.24362467 -0.02693307 0.010033796 -0.087118745
-0.041731127 0.15454496 -0.12740651 0.07260813 -0.06237796 -0.06996302 0.09284327 0.0078050434
00000000: 0b6c 21bd eb2e 233e d5fe ebbc c5dc 1ebd
00000010: c83a b8bd d929 263d 7a37 e73d 7c59 d63c
00000020: 495b 41be af5f 313c 0253 8abe 4119 663e
00000030: ccb6 b03c 324c 743d e63e 363e 9516 b7bc
00000040: 3979 d83e d00a 553d 4131 5ebe c56b 413d
00000050: 13e8 f43d 5d3a b4bd 2d96 d1bc e7b4 e5bc
00000060: 2fd0 b9bd 2bc2 ae3d bfe9 263e 6cde eb3d
00000070: 1672 413e 28c8 43bc 83e2 56bd 966f 0f3e
00000080: ae89 a9bd 0511 613e 24c8 443e 05c8 66bd
00000090: ec4d b33d 6856 96bb 8825 923d b7ec 1ebd
000000a0: acfb 1fbd a9e0 0abd c40f d7bc 5826 01be
000000b0: c100 043e 99a0 1a3e 6f57 633d aaaa 173e
000000c0: 8fec 2dbd 8482 123e 6b42 0d3e bbe3 b9bd
000000d0: bf78 793e bea2 dcbc ca64 243c 506b b2bd
000000e0: 42ee 2abd 0941 1e3e da76 02be 92b3 943d
000000f0: 0880 7fbd c648 8fbd 9d24 be3d 73c1 ff3b
