cartpole_rf_results/num_episodes=3000_alpha_policy=0.01_alpha_value=0.005_gamma=0.99_reward_scale=0.005/policy_net.pth (torch, 38822 bytes, 6 tensors)

hidden_layer1.weight f4 [128, 4]
0	0x3e16fbad	0.14744444
1	0x3e9f2b27	0.3108761
2	0x3e355507	0.17708217
3	0x3f26e87d	0.651985
4	0xbeaed1a4	-0.34144318
5	0x3e759c0e	0.23985311
6	0xbe49ce6b	-0.19707648
7	0xbe641a0b	-0.2227556
8	0xbe7456f0	-0.23861289
9	0xbe3117e2	-0.17294267
10	0x3d90e8d1	0.07075656
11	0x3e506fa9	0.20355095
12	0xbeea20ee	-0.45728248
13	0x3e07769c	0.1322884
14	0xbf00dcc7	-0.5033688
15	0x3d9e8da6	0.07741861
16	0x3ebccfd0	0.36877298
17	0xbe51486c	-0.20437783
18	0xbea8a7a7	-0.3294041
19	0x3e269485	0.16267593
20	0x3e208438	0.15675437
21	0xbe829520	-0.25504398
22	0xbf21414f	-0.6299028
23	0xbf20a442	-0.6275064
24	0xbdb076cb	-0.08616408
25	0x3e96ac5e	0.2942838
26	0xbf042993	-0.5162594
27	0xbe929e71	-0.28636506
28	0xbdbf6928	-0.09346229
29	0x3e88afb6	0.26696557
30	0xbe32e4fc	-0.17470163
31	0xbe0402e2	-0.12891725
32	0x3d6f21a4	0.05838169
33	0x3e2c213b	0.16809551
34	0x3eb7cfad	0.35900632
35	0x3e7a3676	0.24434838
36	0xbeb7ce56	-0.3589961
37	0x3dc16250	0.0944258
38	0x3ef24a98	0.47322536
39	0xbc21ea40	-0.00988251
40	0x3dd44411	0.10364545
41	0xbedbe04f	-0.4294457
42	0x3ee70014	0.45117247
43	0xbe5b4ec8	-0.21416771
44	0x3d89542a	0.06705506
45	0x3f29b6e2	0.6629468
46	0x3e748c97	0.23881756
47	0x3ef9f586	0.48820132
48	0xbf086a90	-0.532876
49	0xbf10a3a2	-0.56499684
50	0xbed435fa	-0.4144743
51	0x3ec91932	0.39277035
52	0x3ea37e77	0.31932423
53	0xbe3b6a8f	-0.18302368
54	0xbdb6eab3	-0.08931484
55	0x3de525c0	0.11188841
56	0xbe876602	-0.26445013
57	0x3d4c9594	0.049947336
58	0xbdf57c41	-0.1198659
59	0x3b18cf44	0.00233169
60	0xbdbbd0d8	-0.09170693
61	0xbe98eace	-0.29866642
62	0xbc966284	-0.018357523
63	0xbe99b5f6	-0.30021638
64	0xbe1d97be	-0.15389916
65	0x3d2e902b	0.042617958
66	0x3ece053b	0.40238366
67	0xbcad8cfd	-0.021185393
68	0xbe4eb44e	-0.20185968
69	0xbe6a3173	-0.22870426
70	0x3e8e77a7	0.27825662
71	0xbe946da5	-0.28989902
72	0x3e3d43bf	0.18482874
73	0x3eb6c595	0.35697618
74	0xbf46d937	-0.77675194
75	0xbed143f9	-0.40872172
76	0xbeb23d74	-0.3481251
77	0x3e44f8ff	0.1923561
78	0x3ed110ad	0.40833035
79	0xbd2444a5	-0.040104527
80	0x3ec9aa2d	0.39387646
81	0x3d999c4e	0.07500516
82	0xbf0ab347	-0.54179806
83	0xbe63ea68	-0.22257388
84	0xbe15a572	-0.14613894
85	0xbec93cf5	-0.3930432
86	0x3e777468	0.24165499
87	0x3f262ad9	0.6490913
88	0xbe51d2d7	-0.20490585
89	0x3c301bca	0.010748813
90	0xbe82161a	-0.25407487
91	0xbf0654a8	-0.52472925
92	0xbe36b276	-0.17841515
93	0x3e9fff7e	0.31249613
94	0xbee57f96	-0.44823903
95	0xbe995ac8	-0.29952073
96	0xbe88ca90	-0.26717043
97	0xbebbf656	-0.36711377
98	0x3e9aa313	0.3020254
99	0x3f06b38f	0.52617735
100	0x3ea857f2	0.32879597
101	0xbe277406	-0.16352853
102	0xbe154019	-0.14575233
103	0x3eb6bbdf	0.3569021
104	0x3eac42c5	0.3364469
105	0xbe013235	-0.12616809
106	0xbeae3bf7	-0.34030125
107	0xbf042687	-0.5162129
108	0x3e902842	0.28155714
109	0xbea6a828	-0.32550168
110	0xbefc8203	-0.4931794
111	0xbeaf7cd4	-0.34274924
112	0xbd358455	-0.044315655
113	0x3e9b3a72	0.30318028
114	0xbed36116	-0.41285008
115	0xbe6b6d01	-0.229908
116	0x3ef028a7	0.46906015
117	0x3b87fdec	0.004150143
118	0x3f0fe966	0.5621551
119	0x3ef231fe	0.47303766
120	0xbe18c0fa	-0.14917365
121	0xbecab421	-0.39590552
122	0xbe878883	-0.26471338
123	0x3ef22259	0.4729183
124	0xbd8aaeaf	-0.067715995
125	0xbe8ad036	-0.27111977
126	0x3e7b1b29	0.2452208
127	0x3e880271	0.26564363
128	0xbe9f3d6a	-0.31101543
129	0xbf24f0b1	-0.64429766
130	0x3eed9f7a	0.46410733
131	0x3e3ade21	0.18248798
132	0x3dddb5ed	0.10825715
133	0xbdae18ee	-0.08500849
134	0x3c2942fa	0.01033091
135	0x3da62cc6	0.081140086
136	0x3e63e693	0.22255926
137	0xbe23581c	-0.1595158
138	0xbefaa26d	-0.48952046
139	0xbf0be717	-0.5464949
140	0xbe5d7d46	-0.2162982
141	0xbe83ea1c	-0.2576455
142	0x3ee8d545	0.45475212
143	0x3ea97f50	0.33104944
144	0x3db7243a	0.089424565
145	0xbef31113	-0.47473964
146	0xbe1cae46	-0.15300855
147	0xbed179b2	-0.4091316
148	0x3d4dee38	0.05027601
149	0x3c236bdb	0.009974445
150	0xbe80b040	-0.25134468
151	0x3e1631e0	0.14667463
152	0xbe0075a1	-0.12544872
153	0x3ea20d71	0.3165088
154	0x3de08067	0.10961991
155	0xbebdb8f6	-0.37055176
156	0xbdd95faa	-0.106139496
157	0xbdd31980	-0.10307598
158	0xbca7750d	-0.020441556
159	0xbd1f7568	-0.038930327
160	0xbda132a7	-0.07870989
161	0x3ee752ba	0.45180303
162	0x3f4a08e1	0.789198
163	0x3eef5bd1	0.46749738
164	0x3e88ead7	0.2674167
165	0xbf1aaff3	-0.6042473
166	0x3cafa3e5	0.021440456
167	0x3ee385fe	0.44438165
168	0x3e1245fe	0.14284512
169	0x3dfce1c1	0.12347747
170	0x3e2a2b19	0.16618003
171	0x3ed2d800	0.4118042
172	0xbe2b6b33	-0.16740112
173	0xbebad21f	-0.36488435
174	0xbec3b46b	-0.38223585
175	0xbefaf3d1	-0.49014142
176	0xbed412af	-0.41420504
177	0xbe2de05b	-0.16980116
178	0x3c7495bf	0.01492828
179	0xbe69d29e	-0.2283425
180	0x3e5322d6	0.20618758
181	0x3e7ce7c5	0.24697788
182	0xbecd5cb8	-0.401098
183	0x3e9b8a1c	0.30378807
184	0x3e7576bb	0.23971073
185	0x3dffb2c2	0.12485267
186	0x3e01fb17	0.1269344
187	0xbe905862	-0.2819243
188	0xbe66a003	-0.22521977
189	0x3e697dbb	0.22801869
190	0x3e67b4bb	0.22627537
191	0x3e62a57a	0.22133437
192	0x3e52fe65	0.20604856
193	0xbe6facb4	-0.23405725
194	0x3dbbb868	0.09166032
195	0xbf11c65a	-0.56943285
196	0xbd6f77c5	-0.05846383
197	0xbec12864	-0.37726128
198	0xbee1bea3	-0.44090757
199	0x3e7edc35	0.2488869
200	0xbdf2a0e0	-0.11847091
201	0xbec31d6c	-0.38108385
202	0x3f0cca90	0.54996586
203	0x3eab65cc	0.33476102
204	0xbe71180e	-0.23544332
205	0x3ef4e9f1	0.47834733
206	0x3f55dfbb	0.8354451
207	0x3ef152c2	0.47133452
208	0x3ba5898f	0.0050517987
209	0x3e7a66c6	0.24453267
210	0x3ef9c671	0.4878421
211	0x3f2084ac	0.6270244
212	0x3e86f2c2	0.26357085
213	0xbe50f5f4	-0.20406324
214	0xbe409f72	-0.18810824
215	0x3f0dcd59	0.5539146
216	0xbeada5b1	-0.33915475
217	0xbec36fb4	-0.3817116
218	0xbded6c97	-0.115929775
219	0x3f0f7e86	0.56052434
220	0x3e704cc1	0.2346678
221	0xbd5b8178	-0.053590268
222	0xbecafc6d	-0.3964571
223	0xbeda8279	-0.42677668
224	0xbdef2010	-0.11676037
225	0x3e17fb7d	0.14842029
226	0x3d9974d1	0.07492984
227	0x3f286a31	0.65787035
228	0xbe71a12a	-0.23596635
229	0xbf08bc6b	-0.53412503
230	0x3efbef47	0.49205992
231	0x3eac76b4	0.33684313
232	0x3ee39301	0.44448093
233	0x3f0d9979	0.55312306
234	0x3df7bc14	0.1209642
235	0x3f019c6d	0.5062931
236	0x3e2abf8b	0.1667463
237	0x3d944a53	0.07240739
238	0x3e822ea3	0.25426206
239	0xbeb63b87	-0.3559229
240	0x3e99d502	0.30045325
241	0x3f12f8a6	0.5741066
242	0x3e8e70ca	0.27820426
243	0x3e84c711	0.25933126
244	0xbef401a3	-0.476575
245	0xbd08e403	-0.033420574
246	0x3e30a286	0.17249498
247	0x3ef4c93c	0.4780978
248	0xbd162275	-0.036653955
249	0xbb364c00	-0.0027816296
250	0xbd051463	-0.032490145
251	0xbf263aa6	-0.6493324
252	0x3dc84386	0.09778504
253	0x3e7e396e	0.24826595
254	0x3de4aed3	0.111661576
255	0x3f3c8fe2	0.7365705

hidden_layer1.bias f4 [128]
0	0x3dfdc2be	0.1239066
1	0xbed40b62	-0.41414934
2	0xbdc92b4c	-0.09822711
3	0xbe742845	-0.23843487
4	0xbeec9e26	-0.46214408
5	0x3ece1b5a	0.40255243
6	0x3e6d1b42	0.2315493
7	0x3d95c010	0.07312024
8	0x3dbcdb26	0.09221487
9	0xbec2f1a4	-0.38074982
10	0xbf03a8f1	-0.5142966
11	0x3d8c9523	0.06864383
12	0xbebaf237	-0.3651292
13	0xbeb71283	-0.3575631
14	0xbe04ccee	-0.129688
15	0xbf063e74	-0.52439046
16	0xbe174cd7	-0.14775406
17	0xbee1c39c	-0.4409455
18	0x3ec40f6b	0.38293013
19	0xbe49f6ef	-0.19723104
20	0x3edd84cb	0.43265375
21	0x3e0bcf41	0.1365328
22	0x3e9e8223	0.3095866
23	0x3e250a8b	0.16117303
24	0x3e4d0735	0.2002228
25	0xbf0cd4b2	-0.5501205
26	0x3ec02a99	0.375325
27	0x3e695284	0.22785383
28	0xbeb1c32f	-0.34719226
29	0x3dd7f5eb	0.10544952
30	0xbe039ac3	-0.12852006
31	0xbdbccb8f	-0.09218513
32	0xbea19997	-0.31562492
33	0xbe69d568	-0.22835314
34	0x3d312a41	0.043253187
35	0x3d4faf11	0.050704066
36	0x3ee9f601	0.456955
37	0xbe5f1556	-0.21785483
38	0x3e346f89	0.17620672
39	0xbeb11e51	-0.34593442
40	0x3e153913	0.14572553
41	0x3eade8fb	0.33966812
42	0x3e60ce55	0.2195371
43	0x3ed62e8c	0.41832387
44	0x3e8e4ce8	0.2779305
45	0xbf0e7482	-0.55646527
46	0xbf1368d8	-0.57581854
47	0x3e439dbc	0.1910314
48	0x3e982ffc	0.2972411
49	0xbe9e0791	-0.30865148
50	0xbdf62929	-0.120195694
51	0x3e24d08e	0.16095182
52	0x3eb1502c	0.3463148
53	0xbde36b5a	-0.1110446
54	0xbe0072bd	-0.12543769
55	0xbc60ffc7	-0.013732857
56	0x3e95cf3d	0.29259673
57	0x3e7bee9d	0.24602742
58	0xbe3fe565	-0.18739851
59	0xbe4e58d1	-0.20151068
60	0xbe8b46bf	-0.27202412
61	0x3e92338e	0.28554958
62	0x3edcf173	0.4315296
63	0x3e3e31d4	0.18573695
64	0xbe3042fd	-0.17213054
65	0x3e3a7344	0.18208033
66	0xbdc31d48	-0.09527069
67	0xbe3391fd	-0.17536159
68	0xbf0e0727	-0.55479664
69	0x3e5bf704	0.21480948
70	0xbf07e509	-0.53083855
71	0xbebe7954	-0.3720194
72	0xbea750ae	-0.3267874
73	0x3e22a782	0.15884212
74	0xbdbc78d6	-0.09202735
75	0x3e4845bc	0.19557852
76	0x3e4eb74c	0.2018711
77	0xbe92b012	-0.28649956
78	0x3d4ea4c8	0.050450116
79	0xbea07e23	-0.31346235
80	0xbefd004f	-0.49414298
81	0x3db8078a	0.08985813
82	0x3cd87da1	0.026427092
83	0x3d420ed5	0.047377426
84	0x3e8578c0	0.26068687
85	0xbf0de0b7	-0.5542101
86	0xbea7f826	-0.3280651
87	0x3e48d553	0.19612627
88	0x3ea70077	0.32617542
89	0xbea3d125	-0.31995502
90	0x3e46b331	0.19404294
91	0x3ddb95ab	0.10721906
92	0xbe76a7f8	-0.24087512
93	0x3e384093	0.17993383
94	0x3ebafff1	0.36523393
95	0xbec51bd2	-0.38497788
96	0xbefc52b8	-0.4928186
97	0xbef2b38c	-0.47402608
98	0xbeaff510	-0.34366655
99	0x3e2f92c1	0.17145826
100	0x3df16471	0.11786736
101	0x3eb1b155	0.34705606
102	0xbe2d4907	-0.16922389
103	0xbea111ce	-0.31458896
104	0xbf0adfad	-0.5424755
105	0x3ed7dc56	0.4216029
106	0x3eca274a	0.394831
107	0xbed9f83a	-0.42572194
108	0x3e0b6c60	0.1361556
109	0xbe702a02	-0.23453525
110	0xbd8d9b57	-0.06914394
111	0x3dac9ed3	0.08428731
112	0xbe8b489b	-0.2720383
113	0x3e65d151	0.22443129
114	0xbec664c8	-0.38748765
115	0xbf0a0030	-0.53906536
116	0xbe263043	-0.16229348
117	0x3e51d0be	0.20489785
118	0x3ea2c904	0.31793988
119	0x3d0f2276	0.034944974
120	0xbe7031a5	-0.23456438
121	0x3d6d14a6	0.05788102
122	0x3e026863	0.12735133
123	0x3e122041	0.14270116
124	0x3e3ac3c1	0.18238737
125	0x3dca416e	0.09875761
126	0xbde93726	-0.11387472
127	0xbe02bffc	-0.12768549

hidden_layer2.weight f4 [64, 128]
0	0x3e764ddd	0.2405314
1	0xbe171d2d	-0.14757223
2	0x3dc2b9f1	0.09508122
3	0x3dabcb4f	0.083883874
4	0x3da5f3b6	0.08103125
5	0xbddda81e	-0.108230814
6	0xbd26a752	-0.040686913
7	0x3d983a7e	0.074330315
8	0x3e1c68d7	0.15274368
9	0x3ccc68ee	0.024952378
10	0x3da9ef56	0.08297603
11	0x3e3d1499	0.18464889
12	0x3e668ab6	0.22513852
13	0x3c705c5e	0.01467046
14	0xbc3b88df	-0.011446207
15	0xbd6963e1	-0.056980018
16	0xbd9ce83b	-0.07661482
17	0xbca1b3e0	-0.019739091
18	0xbd0bfd4e	-0.034177117
19	0x3e064528	0.13112319
20	0xbc96c9bc	-0.018406741
21	0x3e116021	0.14196827
22	0xbe21fef5	-0.15819915
23	0x3cc475cd	0.023981953
24	0x3c93900e	0.018013027
25	0xbccb7f86	-0.024841081
26	0xbd642267	-0.05569687
27	0x3d166337	0.036715712
28	0xbe02ea2d	-0.12784643
29	0x3e8aa97b	0.27082428
30	0x3e02bf4f	0.12768291
31	0x3d24cff1	0.04023737
32	0x3e611fa7	0.2198473
33	0x3b849f6b	0.0040473244
34	0xbd9f239b	-0.07770463
35	0xbc9aad9c	-0.018881612
36	0xbd1dc928	-0.038521916
37	0x3e1d3f20	0.15356112
38	0x3cb941ac	0.022614323
39	0xbdcf3a0d	-0.10118494
40	0x3ec22b57	0.3792369
41	0x3d32069c	0.043463334
42	0x3e01b7ee	0.1266782
43	0xbd35cd1e	-0.044385068
44	0xbd0cbfa4	-0.03436245
45	0xbc0579f2	-0.00814675
46	0x3d438399	0.047732923
47	0x3dc52dd0	0.09627879
48	0xbc35c2f4	-0.011093844
49	0x3c74a4ea	0.014931897
50	0x3dfeef3c	0.12447974
51	0x3e9fd8e9	0.31220177
52	0x3def07fb	0.11671444
53	0x3e3ea3e0	0.18617201
54	0x3ddf6711	0.1090833
55	0xbcf24887	-0.0295756
56	0x3df4f32f	0.11960446
57	0xbcb3a0f9	-0.021927344
58	0x3de6be91	0.112668164
59	0x3c8648e5	0.01639218
60	0x3b3afe0f	0.0028532778
61	0x3d9b6460	0.075875044
62	0xbe14b62b	-0.14522617
63	0x3e59c193	0.21265249
64	0xbd879ec1	-0.06622077
65	0x3e8d1163	0.27552328
66	0x3ddb73c7	0.10715442
67	0x3e1b419a	0.15161744
68	0xbc50e402	-0.012749674
69	0x3de9680b	0.11396798
70	0xbb854614	-0.004067192
71	0x3d9283d7	0.07154053
72	0xbd9b3461	-0.0757835
73	0x3ec2f60e	0.3807835
74	0x3e468f7d	0.19390674
75	0xbe3c5a49	-0.18393816
76	0xbd030493	-0.031986784
77	0x3e5d40a1	0.21606685
78	0x3e134073	0.14380054
79	0xbd1c719c	-0.038194284
80	0x3d1760a3	0.036957394
81	0x3d8cde98	0.06878394
82	0x3dc5e42a	0.096626595
83	0x3e8b369e	0.27190107
84	0x3dad9635	0.08475915
85	0xbd62829a	-0.055300333
86	0xbdf4cfc2	-0.11953689
87	0x3b9eb993	0.0048438995
88	0xbd1f6793	-0.038917135
89	0xbbc6764a	-0.0060565816
90	0xbdcd4064	-0.10022047
91	0x3ddd1030	0.10794103
92	0xbd73e3da	-0.059543468
93	0x3e36c66a	0.17849126
94	0x3ba01a26	0.0048859296
95	0x3d8fbe1d	0.07018683
96	0xbdf6a8aa	-0.12043889
97	0xbb5fe0f3	-0.003416118
98	0x3cd54f01	0.026038649
99	0x3e86862a	0.26274234
100	0x3dec263f	0.11530732
101	0x3dde35e1	0.1085012
102	0x3dd42aae	0.10359703
103	0xbd718dde	-0.058973186
104	0xbd705b10	-0.058680594
105	0xbd2fcd8d	-0.042920638
106	0xbd8b7806	-0.06810002
107	0x3c4152e9	0.0117995525
108	0x3de8274e	0.11335622
109	0x3d4540f5	0.04815765
110	0xbdbf12d3	-0.09329762
111	0xbcc7d499	-0.024393367
112	0x3e50cb00	0.20389938
113	0xbd88fc26	-0.066887185
114	0x3d811f6d	0.06304822
115	0x3dc44894	0.09584156
116	0x3d8f6b1f	0.070028536
117	0xbd1d0970	-0.03833908
118	0xbd095057	-0.033523884
119	0x3e0b3d04	0.13597494
120	0x3e4535fd	0.19258876
121	0x3dc978bc	0.098374814
122	0x3e2c29f3	0.16812877
123	0x3e89b983	0.26899347
124	0x3d7d96fe	0.061911575
125	0xbe44be39	-0.19213189
126	0xbe2c8aab	-0.16849773
127	0xbdb5d2fb	-0.08878132
128	0xbd825ea1	-0.06365705
129	0xbd5e6b6c	-0.054301664
130	0xbdd2e85f	-0.102982275
131	0xbd4314da	-0.047627307
132	0xbc9d6155	-0.01921145
133	0xbe0a734c	-0.13520545
134	0x3cc3145f	0.023813425
135	0xbd8efe45	-0.06982092
136	0xbab356b1	-0.0013682452
137	0x3d309c8d	0.04311805
138	0x3c8a8d84	0.016913183
139	0xbbef842d	-0.0073094578
140	0xbb850b0b	-0.0040601543
141	0xbd957e43	-0.07299473
142	0xbd745eba	-0.05966065
143	0xbd9fa489	-0.077950545
144	0x3c306c4a	0.010768006
145	0xbd924d89	-0.07143695
146	0xbdae6986	-0.08516221
147	0x3ca45e00	0.020064354
148	0xbe02d379	-0.12775983
149	0xbd59084c	-0.05298643
150	0xbe0759a1	-0.13217784
151	0xbd249be1	-0.04018772
152	0xbdddf9c3	-0.10838654
153	0xbdacd4dd	-0.08439038
154	0xbe0ef4d1	-0.13960578
155	0xbcf91a00	-0.030407906
156	0xbd0d3870	-0.03447765
157	0xbdb03754	-0.08604303
158	0xbdb07b3b	-0.08617254
159	0xbcb3e831	-0.021961303
160	0xbdd4c519	-0.10389156
161	0xbd903b4e	-0.070425615
162	0xbbe7163e	-0.007052212
163	0xbdd424f1	-0.103586085
164	0xbdd8ae62	-0.10580136
165	0xbdc1573f	-0.09440469
166	0xbd40dd82	-0.047086246
167	0x3b46b981	0.0030322971
168	0xbd814ada	-0.06313105
169	0xbdd8016f	-0.105471484
170	0xbcb53b7c	-0.02212309
171	0xbce1c13f	-0.027557967
172	0xbd8edbc1	-0.069755085
173	0x3db37ef1	0.087644465
174	0xbde5eb89	-0.112265654
175	0xbdabbe62	-0.08385922
176	0xbc7ca910	-0.015421167
177	0xbd96828b	-0.07349118
178	0x3babb138	0.005239632
179	0xbde0e676	-0.10981457
180	0x3cde7416	0.027154963
181	0xbda59fe3	-0.080871366
182	0xbde88ba6	-0.11354761
183	0xbe03b16e	-0.12860653
184	0xbe00116d	-0.12506647
185	0xbdd69a27	-0.10478621
186	0xbd910041	-0.070801266
187	0x3c071906	0.008245712
188	0xbbfe22af	-0.0077555995
189	0xbdeb15a4	-0.11478737
190	0xbd41501d	-0.047195543
191	0xbdfdcaec	-0.1239222
192	0xbde5188d	-0.11186323
193	0xbd958c1f	-0.073021166
194	0x3cc1586d	0.023601735
195	0x3a668336	0.00087933557
196	0xbd0f6a6e	-0.03501361
197	0xbe103ed0	-0.14086461
198	0x3d918535	0.07105485
199	0x3db3820c	0.08765039
200	0x3d71027b	0.058840256
201	0xbd1dc9d9	-0.038522575
202	0xbd0985c5	-0.03357484
203	0xbd8f8626	-0.07008009
204	0xbd460049	-0.048340116
205	0xbe04a496	-0.1295341
206	0xbd1350ac	-0.035965607
207	0x3cc82193	0.024430072
208	0xbd73f69f	-0.059561368
209	0x3cce001e	0.02514654
210	0xbd3fa026	-0.04678359
211	0xbdfd80a4	-0.12378052
212	0xbd2a16b7	-0.04152557
213	0xbda0f660	-0.07859492
214	0x3cc86199	0.0244606
215	0xbe0049cb	-0.1252815
216	0xbe245854	-0.1604932
217	0xbd0655eb	-0.03279678
218	0xbdb62517	-0.08893793
219	0xbd022575	-0.031774003
220	0x3d365b8b	0.044520896
221	0xbdc4d5a0	-0.09611058
222	0xbd98e72e	-0.07465969
223	0xbd04a016	-0.032379232
224	0xbdda1629	-0.10648758
225	0xbd2e56ef	-0.042563375
226	0xbcf036b8	-0.029322967
227	0xbd591694	-0.053000048
228	0xbd456869	-0.048195276
229	0xbe00d0e7	-0.1257969
230	0xbc98e50c	-0.018663906
231	0x3da369eb	0.079791866
232	0x3d51b904	0.051201835
233	0xbc2d99f7	-0.01059579
234	0xbd5786ca	-0.05261878
235	0xbdb114f4	-0.086465746
236	0xbdd20460	-0.10254741
237	0x3da0c069	0.07849199
238	0xbc91a1a2	-0.017777268
239	0x3c20cc07	0.009814269
240	0x3bc79b22	0.0060914913
241	0xbe1dd3c8	-0.1541282
242	0xbd1d149e	-0.03834974
243	0xbd8244fa	-0.063608125
244	0xbe0475d4	-0.12935573
245	0xbdadbe25	-0.08483533
246	0x3c0d4c95	0.008624216
247	0xbd8b648b	-0.068062864
248	0x3b2b743c	0.002616181
249	0xba644d18	-0.00087089976
250	0xbdd40f25	-0.10354451
251	0xbcf23e9d	-0.029570872
252	0xbbe9a9a8	-0.0071308203
253	0xbca5438d	-0.020173812
254	0x3a70e120	0.00091888197
255	0xbdba5e89	-0.091000624

hidden_layer2.bias f4 [64]
0	0x3d2e6113	0.042573046
1	0xbb846dec	-0.004041424
2	0xbc82c46d	-0.015962804
3	0x3d638bfc	0.05555342
4	0x3d19238e	0.037387423
5	0xbdc2fe8f	-0.095212094
6	0xbe16172c	-0.14657277
7	0xbd9c6e85	-0.076382674
8	0xbd83732a	-0.0641845
9	0xbe1264fd	-0.14296336
10	0xbdb6e983	-0.089312576
11	0xbd6acc47	-0.05732372
12	0x3cc802bb	0.024415364
13	0xbdd19532	-0.10233535
14	0xbceee7ab	-0.029163202
15	0x3d56a5d3	0.052404236
16	0x3d8b6730	0.06806791
17	0xbded8e6b	-0.1159943
18	0x3d0b5a1a	0.034021474
19	0xbdb8fc29	-0.09032471
20	0xbe033c51	-0.12815978
21	0xbdbe21db	-0.09283801
22	0x3e0e305f	0.1388564
23	0xbdb3b394	-0.08774486
24	0x3c3e6386	0.011620408
25	0xbd4a03a5	-0.049319882
26	0xbdfef473	-0.12448969
27	0xbcdeec63	-0.027212327
28	0xbcd3afac	-0.025840603
29	0x3d09bc41	0.0336268
30	0x3e34d84c	0.17660636
31	0x3d659a07	0.056055095
32	0xbe0a8fc1	-0.135314
33	0xbde185d5	-0.110118546
34	0xbd08f327	-0.033435013
35	0x3d0d0e98	0.034437746
36	0xbe21a7dd	-0.15786691
37	0x3daef2ec	0.085424274
38	0xbd9c9c40	-0.0764699
39	0xbdae59e8	-0.08513242
40	0xbe0a7b40	-0.13523579
41	0xbd02d3b3	-0.031940173
42	0xbccbcdb5	-0.024878362
43	0xbd7da2ff	-0.061923023
44	0x3e12f52a	0.14351335
45	0x3d3e00a2	0.046387322
46	0xbcf1ab79	-0.02950071
47	0xbdac8150	-0.08423102
48	0xbc5c696a	-0.013452867
49	0xbd8cb083	-0.068696044
50	0x3b122e07	0.0022305266
51	0xbddbe2f8	-0.1073665
52	0xbdb26737	-0.08711093
53	0xbd7fcdf6	-0.06245228
54	0xbb3481f4	-0.0027543278
55	0x3dac00fa	0.08398624
56	0xbcd1cd9c	-0.025610738
57	0x3d7451a9	0.05964819
58	0xbcb5acf1	-0.022177191
59	0xbd9d1d51	-0.07671607
60	0xbd83d016	-0.064361736
61	0xbdfba3b1	-0.12287081
62	0xbd59fc8a	-0.053219356
63	0x3d23cd2c	0.03999059

output_layer.weight f4 [2, 64]
0	0xbe9c63a2	-0.30544764
1	0x3c9068e9	0.01762815
2	0x3de658cd	0.11247406
3	0x3e569188	0.20953953
4	0xbe4e1ba9	-0.20127739
5	0x3d0a3c4c	0.03374891
6	0x3d00c974	0.03144212
7	0xbe473318	-0.19453084
8	0xbe68adf5	-0.2272261
9	0x3d8205cf	0.06348764
10	0x3e21e543	0.15810113
11	0xbd7ec06a	-0.06219522
12	0xbea315c3	-0.3185254
13	0xbe018b4c	-0.12650794
14	0xbe188017	-0.14892612
15	0x3c99790e	0.018734481
16	0xbe5d210d	-0.21594639
17	0xbde23187	-0.11044603
18	0x3c1bc3e0	0.009507149
19	0xba272fa8	-0.0006377646
20	0xbcc12d9c	-0.023581319
21	0x3d23c7b6	0.03998538
22	0x3e62d62a	0.2215201
23	0xbe78427e	-0.24244115
24	0xbe19ee6e	-0.1503236
25	0x3d43e253	0.04782326
26	0x3d2d34c5	0.042286653
27	0x3d6027db	0.05472551
28	0xbd671fe3	-0.056426894
29	0x3e8a5b19	0.27022627
30	0x3e65b57d	0.22432514
31	0x3df2b93e	0.118517384
32	0x3d2e1a15	0.042505343
33	0xbd089775	-0.033347566
34	0xbcbe139c	-0.02320271
35	0xbe53ce6c	-0.20684212
36	0x3ca7a4ec	0.020464383
37	0xbe46ed25	-0.19426401
38	0x3d38f065	0.045151133
39	0xbdb37c92	-0.08763994
40	0xbdcb1b8b	-0.09917363
41	0xbe72305a	-0.23651257
42	0xbd1cf9a7	-0.038324025
43	0xbd4c2e02	-0.049848564
44	0x3e6ec3f5	0.23316939
45	0xbdd0fdcf	-0.1020466
46	0x3cb048ef	0.021519152
47	0xbd9b8a1f	-0.07594704
48	0x3c661bee	0.014044745
49	0xbd8634e4	-0.06553057
50	0xbdefa717	-0.11701792
51	0x3d0fa444	0.035068765
52	0xbe14d862	-0.14535668
53	0xbe16894b	-0.1470081
54	0x3cabb14a	0.020958561
55	0xbe1609ab	-0.14652126
56	0xbd37c97e	-0.044869892
57	0xbe4a6b43	-0.1976748
58	0x3da8a895	0.082352795
59	0x3d8c61b8	0.06854576
60	0xbdd773a2	-0.10520102
61	0x3c4ec299	0.012619638
62	0xbd8f945c	-0.07010719
63	0xbe80e12c	-0.25171793
64	0x3dffab94	0.12483898
65	0xbc96d41f	-0.018411694
66	0x3d819139	0.06326527
67	0xbe5bf013	-0.214783
68	0x3e695728	0.22787154
69	0xbd461a14	-0.048364714
70	0x3d8e38ee	0.06944452
71	0x3e483650	0.19551969
72	0x3e5a41df	0.2131419
73	0x3bcbf144	0.0062238295
74	0x3d57ebcf	0.05271512
75	0x3d0afebb	0.033934336
76	0x3ebc8bd0	0.36825418
77	0x3e824eb1	0.25450662
78	0x3dcc3d76	0.0997266
79	0x3c8535a2	0.016260926
80	0x3e4576fd	0.19283672
81	0xbd6e5d23	-0.05819429
82	0x3d312e04	0.043256775
83	0x3dbeafe1	0.0931089
84	0xbd56bb20	-0.05242455
85	0xbd9a0d36	-0.07522051
86	0xbe967472	-0.29385716
87	0x3e4e8975	0.20169623
88	0xbd6e008a	-0.058105983
89	0x3df70b58	0.120627105
90	0x3b8a8017	0.0042266953
91	0xbc4dbfc4	-0.0125579275
92	0xbcdc73e0	-0.026910722
93	0xbe3852cc	-0.18000335
94	0xbe358310	-0.17725778
95	0x3de8f34e	0.11374532
96	0x3dbc3d1f	0.091913454
97	0x3ca81b40	0.020520806
98	0xbd86559d	-0.06559298
99	0x3d2c8a88	0.0421243
100	0x3da97cec	0.0827578
101	0x3d9445d4	0.07239881
102	0xbd1d3c9e	-0.038387887
103	0x3d8d6ed4	0.069059044
104	0x3dba9acf	0.09111559
105	0x3e0ac503	0.13551717
106	0xbd35d350	-0.044390976
107	0xbd8aa694	-0.067700535
108	0xbe4aa0ce	-0.19787905
109	0x3adc87ad	0.0016825103
110	0x3bd6138a	0.006533091
111	0xbd639021	-0.055557374
112	0x3d780df4	0.06056018
113	0x3cfcaf9d	0.030845458
114	0x3e5782f0	0.21046042
115	0x3d03efd3	0.032211136
116	0xbd172ef0	-0.036909997
117	0x3e4293b0	0.19001651
118	0x3e18659e	0.14882514
119	0x3e318562	0.17336038
120	0xbd8005b8	-0.06251091
121	0x3d5a3416	0.05327233
122	0x3e04185f	0.12899922
123	0x3cb2ed18	0.02184157
124	0x3d399e6c	0.0453171
125	0x3db505b1	0.08838976
126	0x3e437812	0.19088772
127	0x3e49197d	0.1963863

output_layer.bias f4 [2]
0	0x3e088f02	0.13335803
1	0xbe155f5f	-0.14587162
