cartpole_rf_results/num_episodes=3000_alpha_policy=0.005_alpha_value=0.005_gamma=0.99_reward_scale=0.01/policy_net.pth (torch, 38822 bytes, 6 tensors)

hidden_layer1.weight f4 [128, 4]
0	0x3ec61443	0.38687333
1	0x3e95256c	0.29130113
2	0x3ebcfa6e	0.36909813
3	0x3ed1133c	0.40834987
4	0xbea45fba	-0.32104284
5	0x3df552c8	0.1197868
6	0x3e99f490	0.300694
7	0xbe039609	-0.12850203
8	0xbdeb0cef	-0.11477076
9	0x3ef853d2	0.4850145
10	0x3e2f5b59	0.1712469
11	0x3e9387fa	0.2881468
12	0x3e9cbf45	0.30614677
13	0x3e348769	0.1762978
14	0xbf186d5f	-0.5954189
15	0xbe935173	-0.28773078
16	0x3e13ba7f	0.14426611
17	0xbea69e88	-0.32542825
18	0xbdc70a0c	-0.09718713
19	0x3e432433	0.19056778
20	0xbdd30b3b	-0.103048764
21	0xbefe1a49	-0.4962943
22	0x3eaaf7b5	0.3339211
23	0x3b3074f8	0.0026925188
24	0xbe8f5e87	-0.28001806
25	0x3e65f117	0.2245525
26	0x3d97b06f	0.07406699
27	0x3e47e20f	0.19519828
28	0xbe0be507	-0.13661586
29	0xbeb122f9	-0.34596995
30	0x3f3378f6	0.70106447
31	0x3ed836f3	0.42229423
32	0x3ef20801	0.47271731
33	0xbe84f068	-0.25964665
34	0xbe0d0d3e	-0.13774583
35	0x3eb4be27	0.35301325
36	0xbe65b242	-0.22431281
37	0x3d8c0a26	0.06837873
38	0xbe0c0d33	-0.1367691
39	0x3ef77045	0.48327842
40	0xbd12fb7b	-0.03588436
41	0xbcaea1ab	-0.021317324
42	0xbdd7930f	-0.10526096
43	0xbe98bfb7	-0.29833767
44	0x3ea257b2	0.3170753
45	0xbeaa2def	-0.3323817
46	0xbebe5420	-0.37173557
47	0x3eb9700a	0.36218292
48	0x3ec10b90	0.37704134
49	0x3e1eac81	0.15495493
50	0x3e96c1eb	0.29444823
51	0x3ea872fb	0.32900223
52	0x3e9e4b5d	0.30916873
53	0xbf01c0ac	-0.5068462
54	0x3f066d70	0.5251074
55	0x3e05def6	0.13073334
56	0x3e43c77d	0.19119067
57	0x3e78c0e7	0.24292336
58	0x3f29f5d3	0.66390723
59	0x3eeb16cb	0.45915827
60	0xbe8e2d29	-0.2776883
61	0xbeb6ef32	-0.35729367
62	0x3eff223e	0.49830812
63	0x3ebab278	0.36464286
64	0xbed7f46a	-0.4217866
65	0x3ed6bbaa	0.4194005
66	0xbefe33e8	-0.49648976
67	0x3c3506d9	0.011048996
68	0x3e94f5db	0.29093823
69	0x3d0f4c5b	0.034984928
70	0xbece1b0b	-0.40255007
71	0xbf1d0e7b	-0.6135022
72	0x3ed37182	0.41297537
73	0x3e993493	0.29922923
74	0x3efc76a8	0.49309278
75	0x3dbce0fd	0.092226006
76	0x3ea870f2	0.3289867
77	0xbd377752	-0.044791527
78	0x3f27678f	0.6539239
79	0x3f0247c5	0.5089076
80	0x3ea697db	0.32537732
81	0xbeb8ca34	-0.3609177
82	0xbeea4392	-0.45754677
83	0xbeb8e26c	-0.36110246
84	0x3d833552	0.064066544
85	0x3d28a18e	0.041169696
86	0x3e82012c	0.2539152
87	0xbe013c89	-0.12620749
88	0xbe96acac	-0.29428613
89	0x3eee05a8	0.4648869
90	0xbef4e6d1	-0.4783235
91	0xbdddab60	-0.10823703
92	0xbe91a9f6	-0.28449982
93	0xbe634a53	-0.22196321
94	0xbde6db29	-0.1127227
95	0xbda0fa38	-0.078602254
96	0xbe2ea0b5	-0.17053492
97	0xbedadbb2	-0.4274574
98	0x3d28f748	0.04125145
99	0x3ea0f687	0.31438085
100	0x3e879f77	0.2648885
101	0xbe557382	-0.20844844
102	0x3ea21785	0.3165857
103	0x3e358b4d	0.1772892
104	0xbf0b4ae4	-0.5441115
105	0xbed9ea30	-0.42561483
106	0x3e783514	0.24238998
107	0x3f1480d5	0.5800908
108	0x3ebe8af6	0.37215394
109	0x3ebe13e7	0.3712456
110	0x3ef6dac0	0.48213768
111	0x3f0e0fea	0.5549303
112	0xbc7cd180	-0.015430808
113	0x3ed061eb	0.40699705
114	0x3f3301f2	0.69924843
115	0x3e8707c3	0.2637311
116	0x3e818eab	0.2530416
117	0x3eb240a2	0.34814936
118	0x3f3c306b	0.7351138
119	0x3e96b95c	0.29438293
120	0x3eb2c234	0.3491379
121	0xbe829800	-0.25506592
122	0xbd8166d0	-0.06318438
123	0xbee93a10	-0.4555211
124	0x3d4ce2a2	0.05002082
125	0xbded1a8c	-0.11577329
126	0xbeff66d5	-0.49883142
127	0xbd413816	-0.04717263
128	0xbef15b30	-0.47139883
129	0x3c57b8d5	0.013166626
130	0x3d2b5580	0.041829586
131	0xbf0fe92d	-0.56215173
132	0xbe0a44f6	-0.13502869
133	0xbed27c46	-0.41110438
134	0xbe33ddc7	-0.1756507
135	0xbd91d350	-0.07120383
136	0x3e41e19c	0.1893372
137	0xbee9e178	-0.45679832
138	0xbe8b92a6	-0.2726032
139	0xbed046c3	-0.40678987
140	0x3eaac20c	0.3335117
141	0x3e85c88b	0.26129565
142	0x3f18b4ae	0.59650695
143	0x3e817b93	0.25289592
144	0x3ea1705a	0.3153103
145	0x3ee7b345	0.4525396
146	0x3f43668f	0.76328367
147	0x3f132379	0.57476
148	0x3e743a65	0.23850401
149	0x3d9a6913	0.075395726
150	0x3efe9c81	0.49728778
151	0x3f1374f3	0.57600325
152	0x3e7ed705	0.24886711
153	0x3ead1647	0.3380606
154	0xbf11ca76	-0.56949556
155	0x3d297d6b	0.041379374
156	0xbda9de80	-0.08294392
157	0x3e05157d	0.12996478
158	0xbe46ec2c	-0.1942603
159	0x3f166629	0.58749634
160	0x3f02b4a4	0.51056886
161	0x3ec35897	0.38153526
162	0x3f26b5f2	0.65121377
163	0x3ecea916	0.40363377
164	0x3f1743fa	0.590881
165	0xbd92b0ef	-0.07162654
166	0x3e446803	0.19180302
167	0x3df4506d	0.119294025
168	0x3e48df77	0.19616495
169	0xbe804b6c	-0.25057542
170	0x3e97d92e	0.29657882
171	0xbe18e3d2	-0.14930657
172	0x3e8c542d	0.2740797
173	0xbd919e9d	-0.07110331
174	0x3dbe7ea9	0.09301502
175	0xbe39fd4f	-0.18163036
176	0x3e900896	0.2813155
177	0xbec61ba4	-0.38692963
178	0x3e8560dc	0.2605046
179	0x3e8b1319	0.27163008
180	0x3b9e9c67	0.004840422
181	0xbeeefdcb	-0.46678004
182	0x3ed7d944	0.42157948
183	0x3dbc9963	0.09208944
184	0xbd925fd8	-0.07147187
185	0x3d867292	0.06564821
186	0x3e051406	0.1299592
187	0xbe485d5d	-0.19566865
188	0xbd9073cf	-0.07053339
189	0xbea918cb	-0.33026728
190	0x3ed80d8b	0.42197832
191	0xbed1cebc	-0.40978038
192	0x3f18bbb1	0.59661394
193	0x3c8d47de	0.017246183
194	0xbe920d5c	-0.28525817
195	0x3e988485	0.29788604
196	0xbe59ebce	-0.21281359
197	0x3ec85e51	0.39134458
198	0xbeecaca0	-0.46225452
199	0x3e2a07c0	0.16604519
200	0x3ee2eb30	0.4432006
201	0xbd7f4348	-0.062320024
202	0x3f0ddf51	0.5541888
203	0x3e99bf3b	0.3002871
204	0xbe59da69	-0.21274723
205	0xbd9fae0a	-0.07796867
206	0x3eb19449	0.34683445
207	0x3e57f9d0	0.2109139
208	0xbe206b32	-0.15665892
209	0x3e9ec366	0.31008452
210	0xbed8d3ec	-0.42349184
211	0xbe139243	-0.14411263
212	0xbe82af32	-0.25524288
213	0xbd274d19	-0.04084501
214	0x3ec5173e	0.38494295
215	0x3eb2074d	0.34771195
216	0xbd89dc28	-0.067314446
217	0x3f026c74	0.50946736
218	0x3f1d25ee	0.61386
219	0x3eff3bf2	0.49850422
220	0x3e23f041	0.16009618
221	0x3ec7958c	0.38981283
222	0x3f1ca969	0.61196
223	0x3ead916a	0.33900005
224	0x3ea145d2	0.3149858
225	0x3f1194de	0.5686778
226	0x3de15f6a	0.11004527
227	0x3ea05e6b	0.31322035
228	0xbeeef522	-0.46671396
229	0xbeb83773	-0.35979804
230	0xbeca38d7	-0.3949649
231	0x3c460adc	0.01208755
232	0x3e79cc88	0.24394429
233	0xbe0ec162	-0.13940957
234	0xbef8d643	-0.4860097
235	0xbed6a5cc	-0.41923368
236	0x3d337e21	0.043821458
237	0x3dc21b3d	0.094778515
238	0x3e344edd	0.17608209
239	0x3f090d77	0.5353617
240	0x3d059251	0.03261024
241	0xbea32e29	-0.31871155
242	0xbeadaf84	-0.3392297
243	0xbf002014	-0.5004895
244	0xbeac3e71	-0.3364139
245	0x3e28adaf	0.16472505
246	0xbf056a93	-0.52115744
247	0xbe917591	-0.2841001
248	0x3e9abe39	0.30223253
249	0xbedca9c9	-0.43098286
250	0xbe7903f5	-0.24317916
251	0xbe598b01	-0.21244432
252	0xbe950d1c	-0.29111564
253	0xbe664e4d	-0.22490807
254	0x3e03d2c0	0.12873363
255	0xbe5bafc8	-0.21453774

hidden_layer1.bias f4 [128]
0	0x3e36facc	0.17869109
1	0xbe6c87c1	-0.23098661
2	0x3ed0d385	0.40786377
3	0x3e75f996	0.2402099
4	0xbe3a308c	-0.18182582
5	0x3e63f7c3	0.22262482
6	0x3ec05f0f	0.37572524
7	0x3eb6d01a	0.35705644
8	0x3e185bf9	0.14878835
9	0xbe4636d0	-0.19356847
10	0xbdd3402e	-0.10314976
11	0xbeddf832	-0.4335342
12	0x3ea16089	0.31518963
13	0xbe4d83f5	-0.20069869
14	0x3e05579c	0.13021702
15	0x3eef5432	0.46743923
16	0xbd9d226e	-0.076725826
17	0x3efbb9f2	0.49165303
18	0x3ea8fed6	0.33006924
19	0x3e9db5f2	0.30802876
20	0x3e65aaa7	0.2242838
21	0xbecc786d	-0.39935628
22	0xbeee67ec	-0.4656366
23	0x3eee5871	0.4655185
24	0x3ecdb825	0.40179554
25	0x3d4a6c81	0.049419884
26	0xbe925e06	-0.2858736
27	0x3ed779fb	0.4208525
28	0x3e1dac3f	0.15397738
29	0x3dd48f04	0.103788406
30	0xbd847bf8	-0.06468958
31	0x3ec927d6	0.39288205
32	0x3e9d0b5f	0.30672738
33	0xbebc6382	-0.36794668
34	0xbeeb3f02	-0.4594651
35	0x3e78182f	0.24227975
36	0x3e5def58	0.21673334
37	0x3e5bdbcf	0.21470569
38	0xbe09c5d6	-0.13454375
39	0x3da291f6	0.07937996
40	0x3e1889f1	0.1489637
41	0xbe800055	-0.25000253
42	0x3e5e3140	0.21698475
43	0x3db3eb79	0.08785147
44	0xbe85fb38	-0.26168227
45	0x3ea943e7	0.33059618
46	0x3e8ffa32	0.2812057
47	0xbec9adcc	-0.3939041
48	0xbe21ec7c	-0.15812868
49	0x3eafb35a	0.34316522
50	0x3d83c07b	0.06433197
51	0xbc8f29b9	-0.01747595
52	0xbea2f59d	-0.31828013
53	0x3e91fc8f	0.28513
54	0x3e366e7e	0.17815587
55	0xbe853cde	-0.26023
56	0x3ed12ef8	0.40856147
57	0x3e8dcca5	0.27695194
58	0x3ebd1f94	0.36938155
59	0x3ea9dbb0	0.3317542
60	0x3eea7c21	0.45797828
61	0x3dbadb1b	0.09123822
62	0x3d9f4a9d	0.07777903
63	0xbec73d46	-0.38913935
64	0x3ee81af9	0.45333079
65	0xbe81789f	-0.2528734
66	0xbdcb3a22	-0.09923197
67	0xbec85d9a	-0.39133912
68	0x3d98d012	0.07461561
69	0x3e9ca9b9	0.30598238
70	0x3d4eb308	0.050463706
71	0xbd6dd9d4	-0.058069065
72	0x3e93d88b	0.28876147
73	0x3e37be23	0.17943625
74	0x3edc5457	0.43033096
75	0x3ec516a7	0.38493845
76	0x3d70403b	0.058655005
77	0xbddde004	-0.10833743
78	0xbee54102	-0.4477616
79	0x3e825960	0.25458813
80	0x3e4b5125	0.19855173
81	0xbf156f8f	-0.5837335
82	0xbeeefbe1	-0.46676543
83	0xbdcf447b	-0.101204835
84	0xbe972fb3	-0.2952858
85	0x3eb0b86c	0.34515703
86	0xbeca8cce	-0.3956055
87	0x3e11f8be	0.14255044
88	0xbd9b0a7f	-0.07570361
89	0x3eceabef	0.4036555
90	0xbea2f412	-0.31826836
91	0xbeec9fe3	-0.46215734
92	0x3f0c0dd6	0.5470861
93	0x3e88fb15	0.2675406
94	0x3ea0f510	0.31436968
95	0xbe31598c	-0.17319316
96	0x3e45ae36	0.19304737
97	0x3e91ea41	0.28499034
98	0x3e350543	0.17677788
99	0x3cda3c28	0.026640013
100	0xbbd9e48c	-0.0066495594
101	0x3ecee832	0.40411526
102	0xbec3b98f	-0.38227507
103	0xbef3f79c	-0.47649848
104	0xbf04db42	-0.5189706
105	0xbef0ce3a	-0.47032338
106	0x3e3a13a3	0.18171553
107	0x3e303e3c	0.1721124
108	0xbee12afd	-0.4397811
109	0xbe9977bf	-0.29974172
110	0x3de323d1	0.11090816
111	0xbec15496	-0.37759846
112	0xbef430a7	-0.4769337
113	0x3e2044e6	0.15651283
114	0x3d5094a7	0.050923016
115	0x3e6d5c90	0.23179841
116	0xbee47498	-0.44620204
117	0xbee64507	-0.4497454
118	0xbc5e1f46	-0.013557261
119	0xbe98acad	-0.2981924
120	0xbec955c5	-0.3932325
121	0xbd85ecaa	-0.06539281
122	0xbe58ab3b	-0.21159069
123	0x3e7dd8aa	0.24789682
124	0x3e0914ce	0.13386843
125	0xbea5168a	-0.32243758
126	0xbd1fbed5	-0.03900035
127	0x3edc1e3a	0.4299181

hidden_layer2.weight f4 [64, 128]
0	0xbda98937	-0.08278125
1	0xbd93e6fb	-0.072217904
2	0x3ba46376	0.0050167395
3	0x3bde3fc1	0.0067825024
4	0xbd773b51	-0.060359303
5	0x3cd74716	0.026279014
6	0xbd4adc43	-0.049526464
7	0x3d4a1afe	0.049342148
8	0xbd866ee2	-0.06564118
9	0xbd02e9c4	-0.031961218
10	0x3c18df93	0.009330648
11	0x3d58be5f	0.052915927
12	0x3d131eac	0.035917923
13	0xbc4980b8	-0.012298755
14	0xbbec5041	-0.0072117154
15	0xbdaa0825	-0.08302335
16	0x3d0f81b3	0.0350358
17	0xbd1badf1	-0.03800768
18	0xbb8a2f94	-0.0042170975
19	0xbd987faf	-0.07446229
20	0xbca1b175	-0.019737938
21	0xbda24601	-0.079235084
22	0x3d41e4d1	0.047337357
23	0xbd3fb45f	-0.046802875
24	0x3d42534e	0.047442727
25	0x3d12fae0	0.035883784
26	0x3c46d1a2	0.012134941
27	0x3cf1744a	0.029474396
28	0x3d16e4e6	0.03683939
29	0xbc6fa1c1	-0.0146259675
30	0xbd9a97ba	-0.07548471
31	0xbd977e5c	-0.07397148
32	0x3c830c37	0.015997035
33	0xbd47d576	-0.048787557
34	0xbd2b0f36	-0.041762553
35	0xbda6fdde	-0.0815389
36	0xbdaff68f	-0.08591949
37	0xbd9efbbc	-0.07762858
38	0xbcce0cb5	-0.025152544
39	0xbc6a0785	-0.014284019
40	0xbd8a0a31	-0.06740225
41	0x3d15bb82	0.036555775
42	0xbd775758	-0.060386032
43	0xbd50ed7d	-0.051007736
44	0xbdad1e5d	-0.08453057
45	0xbda4abba	-0.08040567
46	0xbda037b8	-0.078231275
47	0xbc766422	-0.015038522
48	0xbda24b28	-0.07924491
49	0xbd7b078b	-0.06128649
50	0xbce4b3d2	-0.027917776
51	0xbc7b8880	-0.015352368
52	0xbb0965ca	-0.0020965212
53	0x3c77300c	0.015087139
54	0x3c73de6a	0.014884571
55	0xbd3c2cd8	-0.045941204
56	0xbdb420eb	-0.08795341
57	0x3d338b11	0.043833796
58	0xbd949803	-0.072555564
59	0xbc2ae112	-0.0104296375
60	0xbdb24cea	-0.087060764
61	0x3ce2b030	0.027671903
62	0xbd23e8b0	-0.04001683
63	0xbd9c97fa	-0.07646175
64	0x3d321343	0.0434754
65	0xbdad3b3d	-0.084585644
66	0xbd11e2e5	-0.035616774
67	0xbc29a071	-0.010353194
68	0x3d0a22ad	0.033724476
69	0xbb3b80b5	-0.002861065
70	0xbd584fdd	-0.05281054
71	0xbd42be27	-0.047544625
72	0x3d9287f5	0.07154838
73	0xbd98d3b8	-0.07462257
74	0x3c254430	0.010087058
75	0xbd78d0a7	-0.06074586
76	0x3bf229d1	0.007390239
77	0x3db502d8	0.08838433
78	0xbda69374	-0.08133593
79	0xbb657f07	-0.003501834
80	0xbd959f8e	-0.07305823
81	0xbd4de75d	-0.050269473
82	0xbd305a20	-0.0430547
83	0x3d57bd59	0.05267081
84	0xbd94d47a	-0.07267089
85	0x3d956d70	0.07296264
86	0xbc05bac0	-0.0081622
87	0x3d65e060	0.056122184
88	0xbc0ba97c	-0.008524295
89	0x3a655eda	0.0008749791
90	0x3cfbbe2d	0.030730331
91	0x3d061e25	0.03274359
92	0xbd7ab812	-0.0612107
93	0xbbdf41d9	-0.0068132696
94	0xbdadaddb	-0.08480426
95	0x3b814b7e	0.003945767
96	0xbd5f0eed	-0.054457594
97	0xbcb0aa10	-0.021565467
98	0x3c9b98b7	0.018993719
99	0xbdb37e5c	-0.087643355
100	0x3d92488c	0.071427435
101	0x3bf5bd42	0.007499368
102	0x3d07e0cd	0.03317337
103	0xbccb407f	-0.024811028
104	0xbcdf4aff	-0.02725744
105	0xbd975122	-0.07388522
106	0xbafbc030	-0.0019207057
107	0x3cbf19cd	0.023327732
108	0x3b0a40d1	0.0021095762
109	0xbb1de1b1	-0.0024090821
110	0x3d9b33f7	0.07578271
111	0xbd1d966e	-0.03847354
112	0x3d34cd03	0.044140827
113	0xbcae1eaf	-0.021254865
114	0x3d9387f7	0.072036676
115	0xbb8f2629	-0.0043685627
116	0x3caaf8f0	0.020870656
117	0x3d9b9033	0.07595863
118	0xbd4992f9	-0.04921243
119	0xbd97dd65	-0.074152745
120	0xbce4fa8e	-0.027951505
121	0xbcba31c2	-0.022728804
122	0x3d7d439a	0.061832048
123	0x3daa439d	0.083136775
124	0x3d6421dc	0.055696353
125	0x3d65e589	0.056127105
126	0xbd88072d	-0.06641994
127	0xbd9670ec	-0.07345757
128	0x3d43826c	0.047731802
129	0x3c7fcca1	0.015612752
130	0xbd83e15e	-0.0643947
131	0xbd52b22f	-0.05143946
132	0xbce8d5a6	-0.028422188
133	0xbba82607	-0.0051314863
134	0xbdcff7e0	-0.101547
135	0xbdb2535b	-0.08707305
136	0x3cfb4e12	0.030676875
137	0xbd1b728b	-0.037951034
138	0x3dc7cefd	0.09756277
139	0x3d02b8de	0.031914584
140	0x3cf679aa	0.03008731
141	0xbcd1e1c4	-0.025620349
142	0x3ca3dab5	0.020001749
143	0xbd7068a8	-0.058693558
144	0xbdcef462	-0.10105206
145	0x3da4016f	0.08008086
146	0xbddc15a1	-0.10746313
147	0xbc1b8a79	-0.009493464
148	0x3d28ef55	0.04124387
149	0xbcee84e1	-0.029116096
150	0xbd849f57	-0.06475704
151	0xbde79367	-0.11307412
152	0x3d0872c0	0.03331256
153	0xbde73c67	-0.11290818
154	0xbdd8b213	-0.1058084
155	0xbd69a426	-0.05704131
156	0x3d4e9298	0.05043277
157	0xbcc885f8	-0.024477944
158	0x3b87fdc2	0.0041501233
159	0xbb54962b	-0.003243814
160	0xbd95626f	-0.07294165
161	0xbcbdb54e	-0.023157742
162	0x3d98e5bf	0.074656956
163	0xbc81e560	-0.015856445
164	0xbce47d26	-0.027891707
165	0xbdb83235	-0.08993951
166	0xbc89613d	-0.01677
167	0xbe092733	-0.1339386
168	0xbc7f0b12	-0.015566604
169	0xbcbc8502	-0.023012642
170	0xbdcbc8ab	-0.09950384
171	0xbdb9d261	-0.0907333
172	0xbc31367e	-0.010816215
173	0xbd2c2663	-0.042028796
174	0xbb6e9669	-0.003640557
175	0x3d4d81dd	0.050172675
176	0xbd997f6d	-0.07495008
177	0xbc328dfd	-0.01089811
178	0xbcd29d6a	-0.025709826
179	0xbdcb5b6d	-0.099295475
180	0x3dffa07f	0.12481784
181	0xbbec7464	-0.0072160233
182	0x3dcdefe9	0.10055525
183	0xbc8d6871	-0.017261716
184	0xbc4f8f82	-0.012668492
185	0xbc85f5ca	-0.016352553
186	0x3ada2004	0.0016641621
187	0x3cb0d197	0.021584315
188	0xbddec7f9	-0.108779855
189	0x3cd08479	0.025453793
190	0x3d0c28c4	0.034218565
191	0x3c713759	0.014722669
192	0xbcc2588f	-0.023723869
193	0x3d872618	0.06599063
194	0xbd310ede	-0.04322707
195	0xbcc6b6d0	-0.024257094
196	0xbd66ba47	-0.05632999
197	0x3d64369f	0.055716153
198	0xbcaac530	-0.02084598
199	0xbdb76def	-0.08956515
200	0xbd9d7d4a	-0.076899126
201	0xbd3bfc4d	-0.04589491
202	0xbca74767	-0.02041979
203	0xbde4db5e	-0.111746535
204	0x3cb1f2a4	0.021722145
205	0xbd493df6	-0.049131356
206	0x3cdc7a25	0.026913712
207	0xbb00edca	-0.0019672983
208	0xbde768f4	-0.11299315
209	0xbbd073ef	-0.0063614766
210	0x3b743ad2	0.0037266505
211	0x3c325102	0.010883572
212	0x3c51fb73	0.012816298
213	0xbd76a587	-0.060216453
214	0xbd254552	-0.040349312
215	0xbd925be6	-0.071464345
216	0xbd9eefb5	-0.07760564
217	0x3cf55c86	0.029951345
218	0x3db42c04	0.08797458
219	0x3d9e92fc	0.07742879
220	0xbdaa64bd	-0.083199956
221	0x3db50513	0.088388585
222	0xbe064250	-0.13111234
223	0x3ce262ef	0.027635066
224	0xbd388b41	-0.045054678
225	0xbabf3c7c	-0.0014590169
226	0xbdc78e31	-0.09743918
227	0xbb5ee2be	-0.003400966
228	0x3bbea183	0.0058175935
229	0x3d82236b	0.06354412
230	0xbde3eb3a	-0.1112885
231	0xbc67c7b6	-0.014146736
232	0xbcfed022	-0.031105105
233	0x3c6b7d9a	0.014373207
234	0xbdcf2f69	-0.10116465
235	0xbdc5ff7f	-0.09667873
236	0xbcc13d25	-0.023588726
237	0x3d4c0404	0.049808517
238	0x3d6ed20f	0.058305796
239	0xbc35a5af	-0.011086865
240	0xbd26b8d8	-0.040703624
241	0xbdcfc530	-0.101450324
242	0xbc5251b8	-0.012836866
243	0xbd4863a5	-0.048923153
244	0xbdbcc9c8	-0.09218174
245	0x3de2aed4	0.11068502
246	0xbd563e0a	-0.05230526
247	0xbcf045bc	-0.029330127
248	0xbb78a65c	-0.0037940955
249	0xbd9a7d9f	-0.075434916
250	0xbdfa579f	-0.12223744
251	0xb83f3c00	-4.5593828e-05
252	0x3bcf7d5d	0.006332083
253	0x3cba04d0	0.022707373
254	0x3d536e27	0.05161872
255	0x3bd0bb9e	0.006370022

hidden_layer2.bias f4 [64]
0	0xbc4b0c0a	-0.012393007
1	0xbdf30d87	-0.118678145
2	0xbc58e822	-0.0132389385
3	0xbd75d8ae	-0.060021095
4	0xbd5633d4	-0.05229552
5	0xbd35f20f	-0.0444203
6	0x3e08826a	0.13330999
7	0xbdbfa581	-0.09357739
8	0xbd5284bc	-0.051396117
9	0xbd0f9bb7	-0.03506061
10	0x3d038a14	0.032114103
11	0x3d95d979	0.0731687
12	0xbdbfc0bf	-0.09362935
13	0xbd102bef	-0.03519815
14	0x3d54d264	0.051958457
15	0x3d6b25e2	0.057409175
16	0xbcf4b731	-0.029872509
17	0x3ddfce26	0.109279916
18	0xbcfdb84a	-0.030971665
19	0xbca1a05e	-0.01972979
20	0xbccf4b51	-0.025304468
21	0xbdf5a2b5	-0.119939245
22	0x3d4af2c9	0.049547944
23	0x3d4239d2	0.047418423
24	0xbd52142d	-0.051288772
25	0xbdeaa8ab	-0.11457952
26	0xbdd0fcc0	-0.10204458
27	0x3b9f442f	0.004860423
28	0xbd6fafed	-0.058517385
29	0xbbd591fd	-0.0065176473
30	0x3d0f781b	0.03502665
31	0xbcb5d151	-0.022194536
32	0xbdabe125	-0.08392552
33	0x3ce66d02	0.02812815
34	0xbd8cbd37	-0.06872027
35	0xbd84ef03	-0.064909
36	0xbdd338e0	-0.103135824
37	0x3d9e3ea5	0.07726792
38	0xbd2bb85e	-0.041923873
39	0x3dc48f6b	0.09597667
40	0x3d82cafa	0.06386371
41	0xbd81a1ee	-0.06329714
42	0x3db00924	0.085954934
43	0x3d017d21	0.031613473
44	0x3c95b358	0.018273994
45	0x3bf339bf	0.0074226554
46	0xbcdd5ef7	-0.027022822
47	0xbc9729aa	-0.018452484
48	0x3d1b3733	0.03789444
49	0xbd077bd2	-0.03307707
50	0xbd0bbb98	-0.03411445
51	0xbbd778ee	-0.0065756952
52	0x3dd29454	0.102821976
53	0x3d91a5a9	0.07111675
54	0xbdea7a46	-0.11449103
55	0xbd6122c0	-0.05496478
56	0xbb85a502	-0.0040785084
57	0xbdac122e	-0.08401905
58	0xbd302175	-0.043000657
59	0xbcf794d4	-0.030222334
60	0xbdf4c389	-0.11951358
61	0xbd1e8b92	-0.038707323
62	0xbde995ef	-0.11405551
63	0x3dc0c874	0.094132334

output_layer.weight f4 [2, 64]
0	0x3dd24672	0.102673426
1	0x3da6f132	0.08151473
2	0x3e062288	0.1309911
3	0xbd02ffd6	-0.031982265
4	0x3c917649	0.017756598
5	0x3dc14bf3	0.09438314
6	0x3ded69e0	0.1159246
7	0x3d9fca69	0.078022785
8	0xbcebfab8	-0.028806075
9	0x3dbed04a	0.09317072
10	0x3df8f1dc	0.12155506
11	0xbe5a9508	-0.21345913
12	0x3d8b4c6f	0.06801688
13	0xbbec8b77	-0.007218774
14	0x3dc0d78e	0.09416114
15	0xbd412016	-0.04714974
16	0x3d01d96f	0.0317015
17	0x3dc1409d	0.09436152
18	0xbd940734	-0.072279364
19	0xbc64386b	-0.013929467
20	0xbdb99828	-0.090622246
21	0xbdef6f07	-0.11691099
22	0x3e0867bc	0.13320822
23	0xbd4d2b9b	-0.050090414
24	0xbd1ca34d	-0.038241673
25	0x3ce381a4	0.027771778
26	0x3d2bfb12	0.041987486
27	0x3dda8586	0.10669999
28	0xbda6bddc	-0.081416816
29	0x3d45d124	0.048295155
30	0x3e1dd988	0.15415013
31	0x3d736911	0.05942637
32	0xbdd487a5	-0.10377435
33	0x3dad667c	0.08466813
34	0xbcfc9648	-0.030833378
35	0x3dbe6550	0.092966676
36	0x3c9b1259	0.018929647
37	0x3d9457d4	0.072433144
38	0x3e20f4cb	0.15718381
39	0x3e332de3	0.17497973
40	0x3e0c7a0e	0.13718435
41	0xbd9663ee	-0.07343279
42	0x3d30173c	0.042990908
43	0x3daf9486	0.085732505
44	0x3d9e892a	0.07741006
45	0xbd1fda27	-0.039026406
46	0x3c8fc0c5	0.017547974
47	0xbd3d7764	-0.046256438
48	0x3d8a83f5	0.0676345
49	0xbd94d0ea	-0.0726641
50	0x3d92f4f1	0.07175625
51	0x3e0feffd	0.14056392
52	0xbe40ea3b	-0.18839352
53	0xbe6f7562	-0.23384622
54	0xbd132ef1	-0.03593344
55	0x3d220c60	0.039562583
56	0xbda67425	-0.081276216
57	0x3cedb0f1	0.029015036
58	0x3d1cc528	0.03827396
59	0xbdb5dc23	-0.08879878
60	0x3ce8de55	0.028426329
61	0xbc42af5e	-0.011882631
62	0x3d64c193	0.05584867
63	0x3c1be657	0.0095153665
64	0x3cd85140	0.02640593
65	0x3d09dc97	0.033657636
66	0xbe3c29b1	-0.18375279
67	0xbdb01cc5	-0.08599237
68	0x3d8657b9	0.065597005
69	0x3dd47d8f	0.10375511
70	0xbe333833	-0.17501907
71	0xbc2fa03b	-0.010719354
72	0xbd608feb	-0.05482475
73	0x3d8ef30c	0.06979951
74	0xbda781f6	-0.08179085
75	0x3e00e45e	0.12587115
76	0xbd0ad2bd	-0.033892382
77	0xbd93ba47	-0.07213264
78	0xbdffdadd	-0.12492917
79	0xbd23f721	-0.040030602
80	0xbb81d351	-0.0039619585
81	0xbe008631	-0.1255119
82	0xbd86fc29	-0.065910645
83	0xbd478ae7	-0.048716452
84	0xbddebe66	-0.10876159
85	0xbda8466b	-0.08216556
86	0xbd95d426	-0.07315855
87	0xbdab85e7	-0.08375149
88	0xbdb936dd	-0.090436675
89	0x3ca6f31d	0.020379597
90	0x3d62bada	0.055353977
91	0xbdee074e	-0.11622487
92	0x3d80ec6a	0.062950924
93	0x3d57dfae	0.052703552
94	0xbe2ddedb	-0.16979544
95	0x3de49868	0.11161882
96	0xbd9fa386	-0.077948615
97	0xbded649e	-0.11591457
98	0xbd1878e8	-0.03722468
99	0xbd7b6295	-0.061373312
100	0x3d848c6c	0.06472096
101	0xbdd8cc8a	-0.10585888
102	0xbe30b12f	-0.1725509
103	0xbcecbaf5	-0.028897742
104	0xbe062209	-0.13098921
105	0x3d573611	0.052541796
106	0xbde97010	-0.11398327
107	0xbd2c56ac	-0.042074844
108	0x3c00277c	0.007821914
109	0x3d9e3414	0.07724777
110	0x3d0873d7	0.0333136
111	0x3d9db5e5	0.07700709
112	0x3dbb569d	0.091473795
113	0xbca7d1f8	-0.020485863
114	0xbd7ee82e	-0.062233143
115	0xbd9eb738	-0.0774979
116	0x3e38c626	0.18044338
117	0x3d6a5b7d	0.057216156
118	0xbd850d75	-0.06496707
119	0x3cec1b58	0.028821632
120	0x3e479e7f	0.19494055
121	0xbd492c1c	-0.04911433
122	0x3daaa092	0.083314076
123	0x3e1f7669	0.15572514
124	0x3d8ffc9a	0.07030602
125	0x3ccc4cfb	0.02493905
126	0xbde405ad	-0.11133895
127	0xbe4fffc9	-0.20312418

output_layer.bias f4 [2]
0	0xbdc832e1	-0.097753294
1	0xbd070c17	-0.032970514
