cartpole_rf_results/best_hyperparameters/policy_net.pth (torch, 38822 bytes, 6 tensors)

hidden_layer1.weight f4 [128, 4]
0	0x3e9e105b	0.30871853
1	0xbda65cf8	-0.08123201
2	0x3f6fd357	0.93681854
3	0x3edb7453	0.42862186
4	0x3e322f87	0.17400943
5	0x3d8250d9	0.06363077
6	0xbf331c9f	-0.6996555
7	0xbf3106ab	-0.691508
8	0xbd800430	-0.06250799
9	0xbcedec48	-0.029043332
10	0xbee06a2d	-0.43831006
11	0x3ec515a3	0.3849307
12	0x3e28c26a	0.16480413
13	0xbe8b392c	-0.27192056
14	0x3f073ab9	0.5282398
15	0xbea50d71	-0.32236817
16	0xbe48f926	-0.19626293
17	0x3ec77b76	0.3896138
18	0xbed658ee	-0.41864723
19	0xbf32d53c	-0.6985662
20	0x3d9d05a8	0.076670945
21	0x3c8e0818	0.017337844
22	0x3efb9b43	0.49141893
23	0x3f08b796	0.5340513
24	0xbdcf9e1a	-0.10137577
25	0xbed876ab	-0.42278036
26	0x3e5c86c7	0.21535788
27	0xbee76364	-0.45193017
28	0xbe37461f	-0.17897843
29	0x3e8ade77	0.27122852
30	0xbe40561f	-0.18782853
31	0xbf2e0206	-0.6797184
32	0x3c2dbf99	0.0106047625
33	0xbec344cd	-0.38138428
34	0xbf004954	-0.5011189
35	0xbeb55db2	-0.35423046
36	0x3e02d5e1	0.12776901
37	0x3d81c62e	0.06336628
38	0x3e892084	0.2678262
39	0x3e0e5231	0.13898541
40	0xbe5e8a6d	-0.21732493
41	0x3eec81d8	0.46192813
42	0x3eeef06a	0.46667796
43	0xbe7c13b1	-0.24616887
44	0x3d84da2c	0.064869255
45	0x3e925639	0.28581408
46	0x3dd0ab18	0.101888835
47	0xbdeb18e3	-0.11479356
48	0x3d5c0a0f	0.05372053
49	0xbee78133	-0.4521576
50	0x3d933f0a	0.07189758
51	0x3d368977	0.04456469
52	0x3da45291	0.08023561
53	0x3e4e3dfa	0.2014083
54	0x3dd58354	0.104254395
55	0x3e3d8023	0.18505912
56	0x3db22daf	0.0870012
57	0xbe463e5e	-0.19359729
58	0x3d011d7b	0.031522255
59	0xbda4dd56	-0.08050029
60	0x3eabbd3e	0.33542818
61	0x3e321cc3	0.17393784
62	0xbec7e499	-0.39041594
63	0xbebd0e5d	-0.3692502
64	0xbe5258ae	-0.20541641
65	0x3d541e69	0.051786814
66	0x3dfe2fe2	0.12411477
67	0xbe0f2a19	-0.13980903
68	0xbe8bb877	-0.27289173
69	0xbe8f665a	-0.28007776
70	0x3e3f95b1	0.18709446
71	0x3f2796ec	0.65464664
72	0x3f0f24ce	0.55915534
73	0x3e9d7d79	0.3075979
74	0xbf325d84	-0.69673944
75	0xbecb9941	-0.3976536
76	0x3cd9f1bb	0.026604524
77	0x3e7c7103	0.24652486
78	0xbf04cdc6	-0.51876485
79	0xbf1ea0c4	-0.6196406
80	0xbe02a9c4	-0.12760073
81	0xbe8b2b3d	-0.27181426
82	0x3c219eb8	0.009864502
83	0xbeb1de2d	-0.3473982
84	0xbd910ea3	-0.0708287
85	0x3eae1fa9	0.3400853
86	0xbf39d91d	-0.72596914
87	0xbf13b034	-0.5769074
88	0xbee267e1	-0.44219878
89	0x3dcd7677	0.10032361
90	0xbeb9a8b7	-0.36261532
91	0x3ea42636	0.32060403
92	0xbd283bf9	-0.04107282
93	0x3eb4b922	0.35297495
94	0xbee3f670	-0.44523954
95	0xbe73f472	-0.23823717
96	0x3f10c32d	0.56547815
97	0xbec25235	-0.37953344
98	0xbef405ed	-0.4766077
99	0xbe9f4d4f	-0.3111367
100	0x3e976003	0.2956544
101	0x3ebc6512	0.3679586
102	0xbe8fab70	-0.28060484
103	0xbf1bf163	-0.609152
104	0x3bbe1a80	0.005801499
105	0x3cf8a880	0.030353785
106	0xbe469320	-0.19392061
107	0xbe215dd8	-0.15758455
108	0xbef501df	-0.4785299
109	0xbe7a3e70	-0.2443788
110	0x3f5d5574	0.86458516
111	0x3dc8adb4	0.09798756
112	0xbedc12b8	-0.4298303
113	0xbf1e9661	-0.6194821
114	0xbf0c70c6	-0.5485958
115	0xbeffd1d2	-0.49964768
116	0x3eec74ca	0.46182853
117	0xbebce8cb	-0.36896357
118	0x3ed0c0d9	0.4077213
119	0x3e646f6f	0.22308134
120	0x3e53ae60	0.20671988
121	0xbe42fafc	-0.19041055
122	0x3ee1e57f	0.44120404
123	0x3e8964af	0.26834628
124	0x3e2edcec	0.17076463
125	0x3f0dd203	0.5539858
126	0x3e445ef7	0.19176851
127	0x3e985402	0.29751593
128	0xbefa6e16	-0.48912114
129	0x3f0ade62	0.5424558
130	0xbe3257b5	-0.1741627
131	0x3e14e617	0.14540897
132	0x3ed7fee2	0.42186648
133	0x3ec1ed42	0.37876326
134	0x3e8f2240	0.27955818
135	0x3ee2241d	0.44168177
136	0x3daa9a77	0.08330243
137	0xbed2640c	-0.41091955
138	0xbe97c397	-0.2964141
139	0x3caa6a1d	0.020802552
140	0x3c671edf	0.014106481
141	0xbf01ad25	-0.5065482
142	0xbe9ef7b9	-0.31048372
143	0xbe3d763e	-0.18502137
144	0x3eb2b305	0.34902206
145	0xbdabd159	-0.08389539
146	0xbeb468c9	-0.35236195
147	0xbeffb8b4	-0.49945605
148	0x3eac047c	0.3359717
149	0x3ea3b842	0.31976515
150	0x3dd8f3bf	0.10593366
151	0xbec0b7fb	-0.37640366
152	0x3e8e2e1b	0.2776955
153	0x3ea6aa2a	0.325517
154	0x3ed4c0f8	0.41553473
155	0xbe33bd02	-0.1755257
156	0xbe3a8e5e	-0.18218371
157	0xbe708095	-0.2348655
158	0x3dd3dffc	0.10345456
159	0x3ee866d6	0.45390958
160	0x3e12b6fe	0.14327618
161	0xbe5da3e9	-0.21644558
162	0xbf4bf507	-0.7967076
163	0xbe827210	-0.25477648
164	0xbd83139a	-0.06400223
165	0xbd4fb552	-0.05071003
166	0x3d9363fb	0.07196804
167	0x3ef3226e	0.47487205
168	0x3db7163e	0.08939789
169	0xbddf840a	-0.10913856
170	0x3e8a7f55	0.27050272
171	0x3e95d735	0.29265752
172	0x3dd30783	0.10304167
173	0x3d9d0a56	0.07667987
174	0x3ed05209	0.40687588
175	0x3b274664	0.0025524134
176	0xba598778	-0.00082980795
177	0xbe2326eb	-0.15932815
178	0xbee639dd	-0.4496602
179	0xbe0401f6	-0.12891373
180	0x3ede8df7	0.43467686
181	0x3e9bae38	0.30406356
182	0xbec3ef79	-0.3826864
183	0x3ea4969c	0.32146156
184	0xbda4758d	-0.080302335
185	0x3d986ea1	0.07442976
186	0xbe82d53a	-0.25553304
187	0xbebeadb5	-0.37241903
188	0xbdd59687	-0.104291014
189	0xbc8bc18c	-0.017060064
190	0x3e9f6af0	0.31136274
191	0x3ec53bab	0.38522086
192	0xbe78750b	-0.24263398
193	0x3d87de11	0.06634153
194	0xbcadcdab	-0.021216234
195	0x3ae9a01c	0.0017824206
196	0x3b0bc62c	0.0021327836
197	0x3e8876da	0.26653177
198	0xbe5d02b8	-0.21583068
199	0xbd5bd6d2	-0.053671665
200	0xbeea092d	-0.45710126
201	0x3eb2dd0f	0.3493428
202	0xbd70e9d6	-0.058816753
203	0xbf204dd8	-0.6261878
204	0x3d747338	0.059680194
205	0x3cece64b	0.028918406
206	0x3edb9ea9	0.42894486
207	0xbe98286e	-0.29718345
208	0x3ee30032	0.44336087
209	0xbc1b3277	-0.009472481
210	0x3f39ef34	0.7263062
211	0x3eeff257	0.46864578
212	0xbec7b5b3	-0.39005813
213	0x3eae2500	0.34012604
214	0xbeb034c0	-0.34415245
215	0xbdbf95da	-0.09354754
216	0xbe7e5512	-0.24837139
217	0x3da071b7	0.078341894
218	0x3ed124c0	0.4084835
219	0x3d192111	0.03738505
220	0x3ea3af66	0.31969756
221	0xbea256c9	-0.31706837
222	0x3e279895	0.16366799
223	0x3d6e25a8	0.05814138
224	0xbce3d2bf	-0.027810453
225	0x3e71b239	0.23603143
226	0x3f3a5604	0.727875
227	0x3ea7eeaf	0.3279929
228	0x3f06e232	0.52688897
229	0xbf08cb9d	-0.5343569
230	0x3d66e0eb	0.056366842
231	0xbe9819e1	-0.29707244
232	0x3e692956	0.22769675
233	0x3dfbd411	0.12296308
234	0x3f362b3b	0.71159714
235	0x3f0e71ac	0.556422
236	0x3ec1653b	0.37772545
237	0x3ecef057	0.4041774
238	0x3eb7dfc1	0.35912898
239	0x3ec55fd3	0.3854967
240	0x3e988820	0.29791355
241	0xbe487ff5	-0.19580062
242	0x3e56d5a8	0.20979941
243	0x3e880514	0.26566374
244	0x3e4209cd	0.18949051
245	0x3ed2ff17	0.41210243
246	0x3e0cd280	0.13752174
247	0x3f1bfeea	0.60935843
248	0xbd7b79d0	-0.061395466
249	0xbe044026	-0.12915096
250	0xbf39e5c9	-0.7261625
251	0xbf20f598	-0.62874746
252	0x3f0f83cf	0.560605
253	0xbf11f5fa	-0.57015955
254	0xbedb35be	-0.4281444
255	0xbdc4985d	-0.095993735

hidden_layer1.bias f4 [128]
0	0x3ed81b7e	0.42208475
1	0x3e14b048	0.14520371
2	0xbef00ba8	-0.46883893
3	0xbe8345fb	-0.25639328
4	0x3ca3b2ad	0.01998266
5	0x3e7d14ba	0.24714938
6	0x3e5a6e86	0.21331224
7	0x3e537615	0.20650513
8	0x3e9772e4	0.29579842
9	0xbea76032	-0.3269058
10	0xbec133f9	-0.37734964
11	0xbebe2c20	-0.3714304
12	0xbebd6d6d	-0.36997548
13	0x3eb055df	0.34440514
14	0xbde2c09a	-0.11071892
15	0x3c2a9112	0.010410564
16	0xbed18e51	-0.4092889
17	0x3e8bf32f	0.27333972
18	0x3d9e5e91	0.07732881
19	0x3d9eb139	0.07748646
20	0x3d1bee0c	0.038068816
21	0xbd9d4f09	-0.076810904
22	0xbee44e4d	-0.4459099
23	0xbd670fe2	-0.05641163
24	0x3ec3c410	0.3823552
25	0x3c642d41	0.013926805
26	0xbeb1b2ea	-0.34706813
27	0x3d7b5092	0.061356135
28	0xbe932aa9	-0.28743485
29	0xbe00d24e	-0.12580225
30	0x3e7db1e3	0.2477489
31	0x3e60040d	0.21876545
32	0xbe9974cf	-0.2997193
33	0x3df519b7	0.11967795
34	0xbe28633b	-0.16444103
35	0x3e24cbcb	0.16093366
36	0xbd2f3f57	-0.042785015
37	0xbe18a48d	-0.14906521
38	0x3da12631	0.078686126
39	0xbf00d4c6	-0.50324667
40	0x3dd492cd	0.103795625
41	0x3e8c86ee	0.27446693
42	0xbed2b19d	-0.41151133
43	0x3e950e68	0.29112554
44	0x3e22988c	0.15878505
45	0xbe6967e9	-0.22793545
46	0x3e5b0b9d	0.21391149
47	0x3dc30edc	0.095243186
48	0x3e6accf9	0.22929753
49	0xbceba406	-0.028764736
50	0x3eb43c70	0.3520236
51	0xbe9f9637	-0.31169292
52	0x3e5fd35e	0.21857974
53	0x3e86b9f3	0.26313743
54	0xbe883c9c	-0.2660874
55	0xbe5d3716	-0.21603045
56	0x3e4dc8f8	0.20096195
57	0x3e24f073	0.16107349
58	0x3e88ebb4	0.26742327
59	0xbe9157e9	-0.28387383
60	0xbf03ea80	-0.51529694
61	0x3e5dec78	0.21672237
62	0x3ddd43b5	0.1080393
63	0xbea58426	-0.32327384
64	0xbe0eb47c	-0.13936037
65	0xbb63e752	-0.0034775329
66	0x3e8d8fa8	0.27648664
67	0x3d91bd37	0.07116168
68	0x3e022cad	0.12712355
69	0x3ddb1861	0.10698009
70	0x3d814cf2	0.06313504
71	0x3d2c2f3c	0.042037234
72	0x3d9a0641	0.07520724
73	0x3d4895e5	0.048971076
74	0xbed5f8aa	-0.41791278
75	0x3cff0bb9	0.03113352
76	0x3d17f107	0.037095096
77	0xbe2988ee	-0.16556141
78	0x3e914249	0.28370884
79	0x3e4b9688	0.19881642
80	0xbeda3a4f	-0.4262261
81	0xbeff471f	-0.4985895
82	0x3e457fc2	0.19287017
83	0x3ec1bae5	0.37837902
84	0xbe730558	-0.23732507
85	0x3e77ac29	0.24186768
86	0xbc8803ce	-0.016603377
87	0x3de320b4	0.11090222
88	0x3e1522e0	0.14564085
89	0xbe1b18e4	-0.15146214
90	0xbec6f054	-0.3885523
91	0xbf0488d5	-0.5177129
92	0xbd00344b	-0.03129987
93	0xbdf8cf88	-0.121489584
94	0x3ecb54bf	0.39713094
95	0x3e87a5f0	0.26493788
96	0xbd13bc78	-0.03606841
97	0x3eeb398e	0.45942348
98	0xbf137c0d	-0.5761116
99	0xbc6990ca	-0.014255712
100	0x3ebc9e44	0.36839497
101	0x3bcd91c0	0.0062734783
102	0x3e7bedb6	0.24602398
103	0x3ed1bd48	0.40964723
104	0x3e597e42	0.2123957
105	0x3ebb6a4e	0.36604542
106	0x3e5ddcc2	0.21666244
107	0xbe44211b	-0.19153254
108	0x3e71cdb2	0.23613623
109	0xbd1a721e	-0.037706487
110	0x3d9d3a6e	0.0767716
111	0x3d83228e	0.06403075
112	0x3ea8617f	0.32886884
113	0xbeed6cc3	-0.4637204
114	0xbef48d88	-0.4776423
115	0xbe2f0120	-0.17090273
116	0x3e313fca	0.1730949
117	0x3e8520c4	0.2600156
118	0x3e37beb4	0.17943841
119	0x3eaf95e2	0.3429404
120	0x3e43d742	0.19125083
121	0xbe7f2b08	-0.24918759
122	0xbe762c1c	-0.24040264
123	0xbdd67d19	-0.10473079
124	0x3e65a721	0.22427036
125	0x3d0ed9e6	0.034875773
126	0xbed97353	-0.42470798
127	0x3e22d897	0.15902935

hidden_layer2.weight f4 [64, 128]
0	0xbd74c13d	-0.0597546
1	0x3a17cdf1	0.00057908805
2	0xbd2f17ff	-0.042747494
3	0xbc1ba0f5	-0.009498824
4	0x3cb7882c	0.022403799
5	0xbdc52cff	-0.09627723
6	0xbdc0f3ea	-0.09421523
7	0x3a56305c	0.0008170658
8	0xbd126154	-0.03573735
9	0xbd083926	-0.033257626
10	0xbd262f03	-0.040572178
11	0x3d8dac56	0.06917636
12	0xbd946e8a	-0.07247646
13	0xbc9c95f8	-0.01911448
14	0xbdafe82c	-0.08589205
15	0x3c62acd3	0.01383515
16	0xbd1a3108	-0.037644416
17	0xbcf40032	-0.02978525
18	0xbdc86927	-0.09785681
19	0xbc824c41	-0.015905501
20	0xbd0ccf20	-0.034377217
21	0xbc77e9b5	-0.015131404
22	0xbdbd9bec	-0.09258255
23	0xbdade72d	-0.08491359
24	0xbda5a82c	-0.08088717
25	0xbd576f8b	-0.05259661
26	0x3d6baa7e	0.05753564
27	0xbd267cd1	-0.040646378
28	0xbc124329	-0.008927145
29	0x3cc109ad	0.023564184
30	0xbe057e05	-0.13036354
31	0xbc6705e5	-0.014100526
32	0x3d497f98	0.04919395
33	0xbc1bd7b2	-0.009511875
34	0xbceef2d9	-0.029168533
35	0xbe0973a7	-0.13423024
36	0xbd9ab0a6	-0.07553224
37	0x3d88bc4b	0.06676539
38	0xbdc5accf	-0.09652101
39	0xbdf00d4e	-0.11721288
40	0xbd871efe	-0.06597708
41	0xbddf9322	-0.10916735
42	0x3bc5323a	0.0060179504
43	0xbc1e8893	-0.0096761165
44	0xbe035af7	-0.12827669
45	0x3c338e35	0.010959198
46	0x3bbf6051	0.005840339
47	0xbd5a89a0	-0.053353906
48	0xbd8163b8	-0.06317848
49	0xbdb7371c	-0.08946058
50	0xbc700a7b	-0.014650936
51	0xbd10dc8f	-0.03536659
52	0xbdbae93f	-0.091265194
53	0xbe2b96ce	-0.16756746
54	0x3ccf5b25	0.025312016
55	0x3cb7cca5	0.02243645
56	0xbd7d07ee	-0.06177514
57	0xbe02b92d	-0.12765951
58	0xbd3ecc53	-0.046581578
59	0x3c524b4f	0.012835338
60	0xbb1eeb44	-0.0024249116
61	0x3c79a0e2	0.015236111
62	0xbd9c2d52	-0.07625832
63	0x3d51faa5	0.051264424
64	0xbd57c945	-0.05268218
65	0xbbe48584	-0.006973924
66	0xbdfa61e3	-0.12225702
67	0xbcee5d6e	-0.029097285
68	0xbdcb9adc	-0.099416465
69	0xbe043ee2	-0.12914613
70	0x3bd8f350	0.006620802
71	0xbd218f4b	-0.039443295
72	0x3c509558	0.012730919
73	0xbd5699fc	-0.052392945
74	0xbd641e42	-0.05569292
75	0x3c5d81da	0.013519729
76	0x3da93ac9	0.082631655
77	0xbd8bf2dd	-0.06833432
78	0xbdb508c7	-0.08839565
79	0xbc358371	-0.011078701
80	0xbda965bb	-0.08271357
81	0x3d4cb650	0.049978554
82	0xbe1e7a8d	-0.15476437
83	0xbc19cb7b	-0.009386892
84	0xbd9eaeb7	-0.07748168
85	0xbe113817	-0.14181553
86	0xbddfdd1c	-0.10930845
87	0xbcf34d41	-0.029699923
88	0xbd7ca9d7	-0.06168541
89	0xbc838b90	-0.01605776
90	0xbda78a6c	-0.08180699
91	0x3cacaacb	0.021077534
92	0xbcbf86df	-0.023379741
93	0xbddc01cd	-0.10742531
94	0xbc49c96a	-0.012316087
95	0xbdec58f3	-0.11540403
96	0x3c30e94e	0.010797812
97	0xbbd1921c	-0.0063955914
98	0x3c297905	0.010343795
99	0xbcb1249e	-0.021623906
100	0xbe012819	-0.12612952
101	0xbc722982	-0.014780404
102	0xbd3e1ab0	-0.04641217
103	0xbc6ce9c2	-0.014460029
104	0xbc86bddf	-0.01644796
105	0xbd3149dd	-0.043283332
106	0xbd9f9a19	-0.07793064
107	0xbc8f8a3d	-0.017521972
108	0xbd984092	-0.07434191
109	0xbcdd4fc2	-0.02701557
110	0x3cafb907	0.021450533
111	0xbe1197b6	-0.1421803
112	0xbe0761f2	-0.13220957
113	0x3d56eac9	0.052470002
114	0x3c0f7f91	0.008758442
115	0xbd44bcc6	-0.04803159
116	0xbdeda0d2	-0.1160294
117	0xbb9014cf	-0.004397012
118	0xbda5ce5b	-0.08096
119	0xbccddc21	-0.02512938
120	0xbdd345c7	-0.10316043
121	0x3d1f69af	0.038919147
122	0xbca50717	-0.020144982
123	0xbc1a27e5	-0.009408926
124	0xbd9ae302	-0.075628296
125	0xbdb0d2bf	-0.086339466
126	0xbd7e0a66	-0.062021635
127	0xbd91d82e	-0.07121311
128	0xbddddd16	-0.108331844
129	0x3d155801	0.03646088
130	0x3c4c123d	0.01245552
131	0xbd9cf5a6	-0.07664041
132	0x3b480515	0.0030520607
133	0xbdb3061f	-0.08741402
134	0xbdd8eca5	-0.10592011
135	0xbcdbf367	-0.026849462
136	0xbd1df727	-0.03856578
137	0xbd0d4b2a	-0.03449551
138	0xbd002453	-0.03128464
139	0xbdde8b4e	-0.10866414
140	0xbe034a50	-0.12821317
141	0x3b7657d3	0.0037588968
142	0xbdd1269e	-0.10212444
143	0xbc98d9d4	-0.018658556
144	0xbdc7fab8	-0.09764618
145	0xbcac5152	-0.02103487
146	0xbcf2ac68	-0.029623225
147	0xbc985dd6	-0.018599432
148	0xbc51064e	-0.012757851
149	0xbd369c06	-0.04458239
150	0xbd851c4c	-0.06499538
151	0xbc44862e	-0.011994882
152	0xbc5f8b07	-0.013643987
153	0xbd82b1f4	-0.06381598
154	0xbd8e02c7	-0.069341235
155	0xbd4ea6ae	-0.050451927
156	0x3b752772	0.0037407544
157	0xbd9a0b18	-0.07521647
158	0x3b745acb	0.0037285562
159	0xbd7351f9	-0.059404347
160	0x3bd9b6ec	0.0066441204
161	0xbde0589d	-0.10954402
162	0xbd7e8543	-0.062138807
163	0xbcaaf04a	-0.020866532
164	0x3d186019	0.03720102
165	0xbd22d611	-0.03975493
166	0x3d0dd522	0.034627087
167	0xbdc4b07a	-0.09603973
168	0xbc9334ca	-0.017969508
169	0xbcb26ec2	-0.021781329
170	0xbdd720d5	-0.10504309
171	0xbc696303	-0.014244798
172	0xbcf21d23	-0.02955491
173	0x3bad6c68	0.005292464
174	0xbd53dbd2	-0.05172331
175	0xbd8d1b5a	-0.068899825
176	0xbd26bb0b	-0.04070572
177	0xbd88e7ff	-0.06684875
178	0xbdb935d6	-0.090434715
179	0xbd0433dd	-0.032276023
180	0xbd314167	-0.043275263
181	0xbd045ca3	-0.032314908
182	0xbbe42b9e	-0.0069632074
183	0xbd74b4cb	-0.05974273
184	0xbc97bc6e	-0.018522467
185	0xbb6a3a9b	-0.0035740498
186	0xbdbf5abe	-0.093434796
187	0x3c39414c	0.011307072
188	0xbd9f8932	-0.0778984
189	0xbd9e876a	-0.07740672
190	0x3d4d429e	0.05011236
191	0xbd613689	-0.05498365
192	0x3d08eb87	0.03342774
193	0xbdce4727	-0.10072165
194	0xbd378a25	-0.04480948
195	0xbdeacf01	-0.11465264
196	0xbdbf9d14	-0.09356132
197	0xbde8d02d	-0.113678314
198	0xbb44227f	-0.0029927788
199	0xbd313272	-0.043261
200	0xbdf09e86	-0.11748986
201	0xbdfc829a	-0.12329598
202	0xbd5fc004	-0.05462648
203	0xbd2b81cd	-0.041871835
204	0xbc8d3195	-0.017235557
205	0xbbe31076	-0.0069294525
206	0xbddf58ae	-0.10905586
207	0x3d50d991	0.050988737
208	0xbc416289	-0.011803278
209	0xbd923105	-0.07138256
210	0x3d046958	0.032327026
211	0xbc8a0591	-0.016848357
212	0xbc91d05f	-0.017799554
213	0xbd76ab89	-0.060222182
214	0xbc743f89	-0.014907726
215	0x3b502930	0.003176283
216	0xbd36e116	-0.044648252
217	0x3d1e4706	0.038641952
218	0x3b84c1aa	0.004051407
219	0xbda5cf4c	-0.08096179
220	0xbb4563d5	-0.003011932
221	0xbdcda626	-0.10041456
222	0xbca8118e	-0.020516183
223	0xbb8a06b8	-0.0042122267
224	0xbdec20f9	-0.115297265
225	0xbd730137	-0.05932733
226	0xbcb7550e	-0.022379424
227	0xbe08e179	-0.13367261
228	0xbd83d1e7	-0.0643652
229	0x39a85c1c	0.00032112084
230	0xbdca9d75	-0.09893314
231	0xbd73c35e	-0.05951249
232	0x3d08fa62	0.03344191
233	0xbdb6e1c7	-0.08929782
234	0xbe058869	-0.13040318
235	0x3c940639	0.018069373
236	0x3b35db1a	0.0027749003
237	0xbc480736	-0.0122087505
238	0xb9237448	-0.0001558821
239	0x3d363d86	0.044492267
240	0xbdaa7fe4	-0.083251745
241	0xbd2669af	-0.04062813
242	0xbd3fc89a	-0.046822168
243	0x3d845d0a	0.06463058
244	0xbdb7cfb4	-0.08975163
245	0x3c1a04c4	0.00940055
246	0xbd7112f0	-0.05885595
247	0xbd3bd9dd	-0.045862067
248	0xbcf2f873	-0.029659485
249	0xbd29fcd7	-0.041500892
250	0xbd826fe0	-0.06368995
251	0xbda6505b	-0.08120795
252	0x3c78cd09	0.015185603
253	0x3dc9b02e	0.09848057
254	0x3d9390f8	0.07205385
255	0x3c945452	0.018106613

hidden_layer2.bias f4 [64]
0	0xbd620e7b	-0.05518959
1	0xbbdcf158	-0.0067426376
2	0xbde6ce72	-0.11269845
3	0xbe1efc60	-0.15525961
4	0xbd068984	-0.03284599
5	0xbdc4d060	-0.09610057
6	0xbdafea89	-0.08589656
7	0xbdf256ff	-0.118329994
8	0x3d4bce8d	0.04975753
9	0xbd86df2c	-0.065855354
10	0xbdd40aea	-0.10353644
11	0xbd526d2d	-0.05137365
12	0xbd2f760c	-0.042837188
13	0xbc830842	-0.015995149
14	0xbe04688d	-0.12930508
15	0xbdf102cc	-0.117681116
16	0xbdb901f7	-0.09033578
17	0xbcfd3028	-0.030906752
18	0xbd21eb52	-0.03953106
19	0xbd434ae0	-0.04767883
20	0x3cd07896	0.025448125
21	0x3cf4b276	0.029870253
22	0xbdada8e6	-0.084794804
23	0x3c641c83	0.013922813
24	0x3e285fea	0.16442838
25	0x3c990184	0.01867748
26	0xbc41e333	-0.011833954
27	0xbd9ef6f5	-0.07761947
28	0xbc91b6c4	-0.017787345
29	0x3d313c7a	0.043270566
30	0xbd016172	-0.03158707
31	0x3c898a52	0.01678959
32	0xbe2aad43	-0.16667657
33	0xbcbb3e9f	-0.022857009
34	0x3b0702c2	0.002060101
35	0x3c615094	0.0137521215
36	0xbe15c51e	-0.14625975
37	0xbd0019dd	-0.031274665
38	0xbd62f669	-0.055410776
39	0x3cfa451c	0.030550532
40	0xbcc1ab85	-0.023641357
41	0xbe02110f	-0.1270182
42	0xbd9bc1d4	-0.07605329
43	0x3e23a8d4	0.15982372
44	0xbda9db1b	-0.08293744
45	0xbcfceb56	-0.030873936
46	0x3e1156ee	0.14193317
47	0x3c4331a0	0.011913687
48	0xbd15bc89	-0.036556754
49	0xbe191353	-0.14948778
50	0xbcdf2302	-0.027238373
51	0x3ae70a96	0.0017627056
52	0xbddd122a	-0.1079448
53	0xbe0c21e2	-0.136848
54	0xbdb81a8e	-0.0898944
55	0xbd19a777	-0.037513223
56	0xbdadf6c8	-0.084943354
57	0xbd9187a3	-0.07105949
58	0xbdf55bec	-0.11980423
59	0xbe03dd35	-0.12877353
60	0xbd112a64	-0.035440817
61	0x3d03392f	0.032036956
62	0xbdf0860e	-0.11744319
63	0xbd44126a	-0.047869124

output_layer.weight f4 [2, 64]
0	0x3b842822	0.0040331045
1	0xbd046f2b	-0.03233258
2	0xbd837dca	-0.06420477
3	0xbb8d02f5	-0.004303331
4	0xbd657661	-0.056021098
5	0x3d1132b7	0.035448756
6	0xbd493b6e	-0.049128942
7	0x3c9e19f2	0.019299481
8	0x3db2ba2c	0.08726916
9	0xbe215c6e	-0.15757915
10	0x3c04659e	0.008080868
11	0x3ddc79b9	0.10765404
12	0xbd27195f	-0.04079568
13	0x3e5eee8a	0.21770683
14	0x3cc9af01	0.024619581
15	0x3cd1d97c	0.0256164
16	0xbda37954	-0.07982126
17	0x3cbe01f6	0.023194294
18	0x3df4b1f0	0.119480014
19	0x3baa61ae	0.0051996326
20	0x3df54fca	0.11978109
21	0x3e0c8033	0.13720779
22	0x3b09e697	0.0021041983
23	0x3d4410d0	0.047867596
24	0xbe32f987	-0.17478
25	0x3d140d58	0.036145538
26	0xbda16be3	-0.07881906
27	0xbb3a90a1	-0.0028467553
28	0xbd042a25	-0.032266755
29	0x3da27802	0.07933046
30	0x3dc40d50	0.09572852
31	0x3c70fb8e	0.014708413
32	0x3da0aa11	0.078449376
33	0xbdc449da	-0.095843986
34	0xbd516e33	-0.051130485
35	0x3dc22eb5	0.09481565
36	0xbc3a414b	-0.011368106
37	0x3d9bdb65	0.076102056
38	0xbda81bcd	-0.082084276
39	0xbdebda73	-0.11516275
40	0xbd5dccf9	-0.054150555
41	0x391ea934	0.00015131087
42	0xbd64b5dc	-0.055837497
43	0xbe2def2f	-0.16985773
44	0xbdcf8344	-0.10132459
45	0x3dbaf270	0.091282725
46	0xbe3f8817	-0.18704258
47	0xbd701cdf	-0.058621284
48	0xbd4eb738	-0.0504677
49	0x3c6401a4	0.013916407
50	0x3c32d9c3	0.010916176
51	0x38062b6d	3.1988533e-05
52	0x3d7f35a0	0.062307
53	0x3cb8e5ba	0.02257048
54	0x3deda18f	0.116030805
55	0x3d3304b7	0.04370567
56	0x3d103d36	0.035214625
57	0xbda14ae6	-0.07875614
58	0xbdf298ef	-0.11845576
59	0xbcae3283	-0.02126432
60	0x3d0b69ab	0.03403632
61	0x3e643014	0.22283965
62	0x3c6a1c60	0.014288992
63	0xbccb90e2	-0.024849359
64	0x3b128041	0.0022354277
65	0x3d0dab5e	0.034587257
66	0x3cfd6083	0.03092981
67	0xbda43819	-0.08018512
68	0xbdfe7727	-0.1242507
69	0x3ce0e967	0.027455045
70	0xbda64efa	-0.08120532
71	0x3c4dc1fd	0.012558457
72	0xbe38d4b8	-0.18049896
73	0xbd36245d	-0.044468272
74	0xbd533932	-0.051568218
75	0xbda24159	-0.0792262
76	0xbe000a46	-0.12503919
77	0xbe7124fd	-0.23549266
78	0xbcf0a8b8	-0.029377326
79	0x3d7b05d2	0.061284848
80	0x3d4330de	0.047654025
81	0xbb5356cd	-0.0032247782
82	0xbcb05a97	-0.021527572
83	0x3bfc7478	0.007704314
84	0xbe742961	-0.2384391
85	0xbe09dcff	-0.1346321
86	0x3d05a47a	0.03262756
87	0x3ce44825	0.027866432
88	0x3e8c804b	0.2744163
89	0xbd5c0c95	-0.053722937
90	0xbda08a08	-0.07838827
91	0xbdccf41f	-0.100075
92	0xbce6bc06	-0.028165828
93	0xbdb5f9ae	-0.08885513
94	0x3d3839c8	0.04497698
95	0x3d0470ce	0.03233414
96	0x3d353698	0.044241518
97	0x3df89b52	0.12139
98	0xbe0c812d	-0.13721152
99	0xbad0a76a	-0.0015919034
100	0x3dcc8767	0.099867634
101	0xbca81886	-0.020519506
102	0xbd204b1b	-0.039134126
103	0xbcefa44c	-0.029253148
104	0x3d009080	0.031387806
105	0x3d80a468	0.06281358
106	0x3d64aa03	0.0558262
107	0x3e8961af	0.2683234
108	0x3de183c6	0.11011462
109	0xbbe6fbb9	-0.0070490506
110	0x3e444c9a	0.19169846
111	0xbcf2203a	-0.029556382
112	0xbd50dbb7	-0.050990786
113	0xbc9d0d09	-0.019171255
114	0xbd8ab183	-0.06772139
115	0x3c7f452b	0.015580456
116	0xbc3ed966	-0.0116485115
117	0x3d6198fb	0.055077534
118	0x3cc3a479	0.023882138
119	0x3e0799d2	0.13242272
120	0xbc8e51b0	-0.017372936
121	0xbb8888e0	-0.0041667074
122	0xbb1ec59c	-0.002422667
123	0x3d3a8e13	0.04554565
124	0x3c307eba	0.0107724015
125	0xbe9cf22e	-0.30653518
126	0x3b0f0fe9	0.0021829552
127	0x3d4a5f96	0.049407564

output_layer.bias f4 [2]
0	0xbdd2aaf3	-0.10286512
1	0x3d50b24e	0.050951295
