cartpole_rf_results/num_episodes=3000_alpha_policy=0.01_alpha_value=0.01_gamma=0.99_reward_scale=0.01/policy_net.pth (torch, 38822 bytes, 6 tensors)

hidden_layer1.weight f4 [128, 4]
00000000: b7ea 203e 7a7c aabe e35c 1bbe b621 c9bd
00000010: b6b2 213d 8358 c6be f2ae ae3e 58a2 c63e
00000020: 152f 04bf 3c68 17be b689 f6bc 94ad 1f3f
00000030: 56eb 5e3c 3d10 5b3e 9e0f 3c3f 8196 c53e
00000040: 615d 7f3e cd56 9dbe 4be1 88be a5b7 87be
00000050: 1606 653d b4b3 5cbe be24 b4be fdc9 a2be
00000060: b87d e5be ad92 8f3d 1a90 19be d09c 09be
00000070: 0e9f e13d f798 20bd d769 1c3e a90c abbd
00000080: abc4 babc 235c f6bd 6c77 14bc ef79 b33d
00000090: cea4 0abe 2e26 80be 1b17 e63d cb8e 6dbe
000000a0: c92c dabe b090 7abd 86ac c03e 2c3e d5ba
000000b0: 5bec cd3e f4fb 0a3f ee52 4f3f 8db3 123f
000000c0: 98ca adbd d64f 403f c06d a63f 481f 233f
000000d0: 77a2 1bbf ede8 f2be 5a1e 093e 202f 4f3e
000000e0: 0184 d4be c49a 363e a852 273f 3756 843e
000000f0: 852f 6c3e bc3c e8bb be8c 563d 37be 553e
00000100: f659 34bf 9af9 f9bd 6902 46bd d350 43be
00000110: 248c edbe 5cb2 193d 6af3 1dbd 83b4 fbbe
00000120: 018c 0dbf 5061 00be 0945 293f 9de7 053e
00000130: 86b0 f4be eaa4 3c3f f47b 8f3f 1c9d 313f
00000140: 45c5 0abe d972 423e 0ee7 b4bd bc1e 33bf
00000150: 2d92 abbe 4375 86be d2fb a1be ab2a 403d
00000160: 6310 173f 3a8f 6d3e 2604 c1be 67cc 29bf
00000170: d2e7 a53b 6b27 cb3e 05f7 513f a517 383f
00000180: c718 543e f7da f9be bc44 3d3d 19cc aa3e
00000190: ce64 9fbe f683 a5be 3163 7ebf 3901 18bf
000001a0: b1eb f03e a152 c83e 2415 28bf db0a dabe
000001b0: 29c1 12bd 041b 233f 73cb f93e 1252 2e3f
000001c0: cfbf bd3d 69b6 e0be 37ab 09bf b47c 3dbf
000001d0: acdc bf3b 3ad4 cf3e a10a 973f 7982 fd3e
000001e0: 5b90 21be 7bd5 f63e 5e6d 103e f0c4 ee3e
000001f0: eaf4 0bbe 13ce e4be 8210 49bf 56e9 0abf
00000200: 9a11 8f3e 5012 093f 3f01 1cbd 58d9 7c3e
00000210: 6915 433d ec09 013d e29a df3d 5295 29be
00000220: 4004 06bc c00a 243d 00a7 e1bc 841f 0e3e
00000230: 0f88 bdbe 4be1 4fbe 935c b43e 1a17 633d
00000240: 37f9 9d3d 53ab b8be 82de 143f e259 5e3d
00000250: 27f2 3ebd 6ba4 9a3d 0f98 a3bc a5c7 02bf
00000260: 3c9c 99be 9368 b93e e8a8 b8be 0fae 8b3e
00000270: 6e43 4c3e 47bb 3bbe 2caf ffbe dba8 9abe
00000280: ed9b 1a3e 7f66 b2be 3b06 333c 37dd 54bd
00000290: d2d6 933d 9d67 aabe e7af 403e e754 2abe
000002a0: 337b fc3e f037 593e 851f 23bf 3a45 1fbf
000002b0: 2038 d23e 95fa d2bd fd31 6bbe 9c44 3e3e
000002c0: b507 c83e 9280 b73e 77f5 42bf 36da 9dbe
000002d0: 4b8d f53e de9e 1ebf 777c 82be cdba 27bf
000002e0: f821 78bd 60d1 f2be 874a 373e d4e5 69be
000002f0: 089d f43e 7c10 8a3e ffec 26bf cc9d 1dbf
00000300: 29be 853d 2cbf 46be 3082 d73e 9a96 81be
00000310: ab94 7dbe 70ff 9abe e45f 17bf 5b2c 2dbf
00000320: 61f2 f93e d829 03bf cea3 31bf 2be5 31bf
00000330: 584f 3abe 9d9c 1b3f 065a 0f3f 0eb3 1b3f
00000340: fd42 b03e e702 903d c86a 06be f95d 58bf
00000350: 9787 a5be fc03 1a3e f751 05bf c338 14bf
00000360: 7223 5a3e b23b 07bf f272 cb3d 2b2b d63e
00000370: fa38 c63e 214a b03e ac1d 80be cfbc 25be
00000380: f1a9 0d3e 385d 23be 38f7 28be 3f04 febe
00000390: 3ed8 1fbf a355 12bf d24f a8be 5f91 433e
000003a0: 178f aa3d f119 14bf 6872 9abe 5fac d1be
000003b0: a672 333e 7758 88be 8fef 4abf f73f e0be
000003c0: 40d7 7e3e 825d 73be f7a9 c13e 31be c13e
000003d0: 76d6 f93c dc35 e4bd 9020 dcbe 79a1 18bf
000003e0: 4606 34bf aef2 80bd 8803 783d dcea 253d
000003f0: c262 4cbe 9e29 b9be 3234 453f 9e87 043f
0.15714537 -0.33298093 -0.15172152 -0.09820883 0.039477073 -0.38739404 0.34117848 0.38795733
-0.5163434 -0.14785856 -0.030094963 0.62374234 0.013605913 0.21392913 0.7346133 0.38591388
0.24937965 -0.30730286 -0.26734385 -0.26507297 0.055914007 -0.21552926 -0.35184282 -0.3179473
-0.44822478 0.07010398 -0.14996377 -0.13438725 0.110166654 -0.03920838 0.1527475 -0.08352024
-0.022798857 -0.120292924 -0.0090616755 0.08763491 -0.1353943 -0.2502913 0.11234876 -0.23199002
-0.42612293 -0.06117314 0.37631625 -0.0016269139 0.40219387 0.542907 0.80985916 0.5730522
-0.08485907 0.7512182 1.3002243 0.63719606 -0.60794777 -0.47443333 0.13390484 0.2023282
-0.4150696 0.17832476 0.653605 0.25847027 0.23065002 -0.007087318 0.052380316 0.20873342
-0.7044977 -0.12205811 -0.048342142 -0.190738 -0.4639598 0.037523612 -0.038562216 -0.49161157
-0.55291754 -0.12537122 0.66120964 0.13076635 -0.47790927 0.7368914 1.1209702 0.69380355
-0.13551815 0.18989123 -0.08833133 -0.6996877 -0.3350996 -0.2626134 -0.31637436 0.04691569
0.5900938 0.23199168 -0.37698478 -0.6632752 0.0050630355 0.3967851 0.82017547 0.7191108
0.20712577 -0.4879987 0.04620813 0.3335884 -0.31131595 -0.3232724 -0.99370104 -0.59376866
0.47054818 0.3912554 -0.6565726 -0.42586407 -0.035828743 0.637131 0.48788032 0.6809398
0.092651 -0.43889168 -0.5377688 -0.74018407 0.0058551636 0.40591604 1.1800119 0.49513605
-0.15777723 0.48209748 0.1410422 0.46634626 -0.13667646 -0.44688472 -0.78540814 -0.5426229
0.27943116 0.5354357 -0.038087126 0.24692285 0.04762784 0.031503603 0.109182134 -0.16560867
-0.008179724 0.040049314 -0.027545452 0.1387921 -0.37017867 -0.20300786 0.3522688 0.055441953
0.077135496 -0.3606821 0.5815202 0.054284938 -0.046617653 0.075508915 -0.019969968 -0.51085883
-0.3000201 0.36212596 -0.36066365 0.27281234 0.19947597 -0.1833316 -0.49938333 -0.30206951
0.15098543 -0.34843823 0.010926778 -0.05196878 0.07218708 -0.33282176 0.18817101 -0.1663395
0.49312744 0.21212745 -0.6371997 -0.62215006 0.41058445 -0.10301701 -0.22968288 0.1858086
0.3906838 0.3584028 -0.761558 -0.30830544 0.4795936 -0.6196116 -0.25485584 -0.6551941
-0.06057927 -0.47425365 0.17899524 -0.22841579 0.47776055 0.26965702 -0.6520538 -0.61568904
0.06530411 -0.19408864 0.42091513 -0.25310212 -0.24763744 -0.30273008 -0.5913069 -0.67645806
0.48817733 -0.51235723 -0.6939057 -0.6949031 -0.1819433 0.6078585 0.5599674 0.6082009
0.34426108 0.070318036 -0.13126671 -0.8451839 -0.3233001 0.15040582 -0.52078193 -0.5789911
0.21302584 -0.5282546 0.099340335 0.4182981 0.38715345 0.34431556 -0.25022638 -0.16185306
0.13834359 -0.15953529 -0.16500556 -0.49612615 -0.62439334 -0.5716192 -0.32873398 0.19098423
0.083280735 -0.57852083 -0.3016541 -0.4095182 0.17524204 -0.26629993 -0.7927179 -0.437988
0.24886799 -0.23766139 0.37824985 0.37840417 0.03049777 -0.11143085 -0.42993593 -0.5962139
-0.7032207 -0.062962875 0.060550243 0.040507182 -0.19959548 -0.36164564 0.7703277 0.51769435

hidden_layer1.bias f4 [128]
00000000: f4e3 f4bd a296 90be 8f4d 54be 9a43 503d
00000010: 8b42 d3be e4e1 e8be 06d8 293d 44f8 c8be
00000020: 5a47 08bf e103 a4be 6fa8 ce3c d739 233e
00000030: 9666 153e 9d3c 98be 44a4 ba3d 6632 30bf
00000040: bc56 873e 2020 a53d eb0f cc3c 2c5e 0a3e
00000050: 96c6 20be c1d9 0fbf f31d 573d 4a42 2c3e
00000060: 1d60 e0bd 7e06 d83e eefc c23e e2f5 033e
00000070: 4dbc cc3e ecaa 083e fe1c 9f3d 1afc 943e
00000080: fd85 d63d ef8a ffbe dc71 aebe 8f57 09bd
00000090: ced1 303e 7921 863e 6ffe 0cbf ea35 423e
000000a0: 1d4d 9fbe a91f a33b b2ff d1bd 0bcf 19bf
000000b0: d794 a93e 58f7 943e c001 f63d 80c1 86be
000000c0: 9eec afbe 4de5 c13e 182e d23d 849f cb3d
000000d0: 847a bbbd f263 22bd 7047 dcbc 6310 963e
000000e0: 50d3 883d 1875 d5bd d9c0 cdbe 3881 b53d
000000f0: f97b 023e 6e3c 7b3c c647 103e 33aa cc3d
00000100: 04a2 ecbe 108e f33d ea24 05bf e54d 39bd
00000110: c879 89be ac49 e23d eba4 d7be 67c4 29be
00000120: 1b5d 01bf 36c2 e1be 30a4 aabe 6515 7ebe
00000130: 6e95 e5be d28a d4be 834e 603e 9239 a13e
00000140: 534d 453c aa7c fc3d 9810 fcbe d17b 21be
00000150: 12b2 273d 6110 59be 8f8c 92bd a844 a23e
00000160: e6cb 253e cbb1 7f3e 2def dbbc 6e17 bcbe
00000170: 0c56 38be 7c5d 32bd f27c 5ebe 8c4f 8ebe
00000180: 3dc9 3a3e e0e4 a8be f6eb 93be be46 a63c
00000190: dd61 98bd ae80 96be c80a 103e 4a83 fbbe
000001a0: d6af 4ebe c0ec 1f3e 3eb3 2abe 9a71 233e
000001b0: 9064 d93d 17e7 a43d c664 183e 497b 3d3e
000001c0: e346 9bbe d386 8bbe 8dc6 9dbe 5707 50be
000001d0: 6c38 4dbc db5a c33e 8652 ccbe 29e6 c63d
000001e0: 4902 953e 1fa5 a1be 337e ac3d 2f9d 03bf
000001f0: 21b9 04bf 0b77 bfbe 94de 0cbf 5fbb 4dbe
-0.11957541 -0.28239924 -0.20732711 0.05084572 -0.41261706 -0.4548484 0.04146578 -0.39251912
-0.53233874 -0.3203421 0.0252268 0.15940033 0.14589915 -0.29733744 0.091133624 -0.688269
0.2643336 0.08062768 0.024909934 0.13512486 -0.15700755 -0.5619164 0.052518796 0.16822162
-0.10955832 0.42192453 0.38083595 0.12886766 0.39987412 0.13346452 0.07769202 0.29098588
0.10474775 -0.49910685 -0.34071243 -0.033530768 0.17267534 0.26197413 -0.55075735 0.18965879
-0.3111352 0.0049781394 -0.10253848 -0.6008155 0.33121368 0.29094958 0.120120525 -0.26319504
-0.34360212 0.37870255 0.10262698 0.099425346 -0.091542274 -0.039646097 -0.026889533 0.29309377
0.0668093 -0.104227245 -0.40186194 0.08862537 0.12742604 0.015334232 0.1408988 0.099934004
-0.46217358 0.11892331 -0.5200945 -0.0452403 -0.26850724 0.11049208 -0.4211801 -0.16578828
-0.5053269 -0.44093484 -0.3332839 -0.24812849 -0.44840568 -0.41512161 0.2190495 0.31489235
0.012042361 0.12328465 -0.4923141 -0.15769888 0.040941305 -0.21197654 -0.07155716 0.31693006
0.16191062 0.24970166 -0.026847446 -0.36736625 -0.18001574 -0.043546185 -0.2172735 -0.27795064
0.18240829 -0.32987118 -0.2889096 0.020297404 -0.07440541 -0.2939505 0.14066613 -0.49123603
-0.20184264 0.15617657 -0.16669938 0.15961304 0.10614884 0.080518894 0.14882192 0.18504061
-0.3032752 -0.272513 -0.30815545 -0.203153 -0.012525659 0.38155255 -0.3990671 0.09711868
0.29103306 -0.3157129 0.08422508 -0.5141172 -0.51844984 -0.3739551 -0.5502713 -0.20091008

hidden_layer2.weight f4 [64, 128]
00000000: c08f d0bc 1842 febd 2815 a0bd 2a06 26be
00000010: f78a 87bb 89eb 6b3d 6084 02be 76b1 6a3d
00000020: b6d3 d2bd 8dfe 5abd 3726 4c3b aa59 20be
00000030: 7713 8ebd 145f dabc 9c98 ccbd cb70 20bd
00000040: bfcb fdbd 4808 233d 7e9b 08be 23a4 61bd
00000050: 79fd 843d a7c5 cf3d 29bf 05be c4ab cabd
00000060: 1f97 3b3c c235 c5bd d5d5 0fbc 4832 a9bd
00000070: 1953 b5bc 8d58 b2bd c7f8 18bc 56a0 9ebc
00000080: c65a 1bbd 474a b23d 6b2c 86bb d858 05be
00000090: 7a9e 95bc 6c31 09bc d49a e0bc b756 07bd
000000a0: e981 bebd 137e a2bd 68ea 673c 9365 e2bd
000000b0: f274 aabd 379b 9abd 4901 f43c dbd8 96bd
000000c0: 2e5f 7fbd 71af dabd a029 73bd 2b22 f8bd
000000d0: 6189 193d 480e 51bd 4426 1fbd 49c8 00be
000000e0: 4934 67bd 7c21 19be e3c9 38bd 3499 73bd
000000f0: 9ac7 f7bd b783 233c 9927 3dbd e41c 30bd
00000100: 0102 f1bc 7668 43bd 002e 9d3b c1b3 16bd
00000110: 0cfb 08be ba85 c8bd e928 abbc 49ab 4fbd
00000120: 5e29 3f3d adda 003d dee2 e8bc b79a 76bc
00000130: f256 58bd 88b9 fcbc e4af dbbd 5613 0fbe
00000140: bd61 95bd 5f01 853c f339 a23c 2946 d1bd
00000150: 38a0 b3bd d065 d0bc 9537 4cbd 4248 acbd
00000160: 7275 e93b de61 09be d4e4 94bd e061 a8bd
00000170: 9b90 053c fb7f 43bc 7f71 d2bd 2357 acbb
00000180: e5df e8bd 8f09 62bd e8bc bebd 857a 11bc
00000190: 5184 5bbd 58eb 4cbd 7ebb 1fbe ac22 673d
000001a0: 558d a13c adee 69bc 7295 3fbd 84ee acbd
000001b0: f32e 1bbe d47f 633b bc7c abbc 7996 81bc
000001c0: 450b 523c 9ef4 cbbd 75d1 313d 2ae2 cebc
000001d0: 4dae 6dbd c262 15be ec4b 83bc d086 a8bb
000001e0: 4c15 13be 52fe 73bc 2d2a 80bb 9c35 05be
000001f0: d9b0 15bd 500e 8f3d 4264 833d 6bef 9bbd
00000200: a917 fdbd 20d9 e9bc ab50 29be 662a f4bd
00000210: ec38 b53b 1683 0f3c 2c1e cdbd 3ca5 343d
00000220: 2e76 7ebd 75fb 05bd cda4 cbbd 7b37 19be
00000230: df67 9ebd 4482 6f3b 27a9 45bc 090e 0cbe
00000240: ec7e c0bd 6337 cb3d 92f8 e3bc f630 0ebe
00000250: b6a7 3dbc 2ba3 5c3d d653 80bd 4142 f7bd
00000260: 1ca9 9abd b298 0a3d 6b10 0b3d 7465 2cbd
00000270: 44c9 63bd aa41 28be 2b6c a5bb 6428 3e3d
00000280: b750 20bd 7b59 7b3b adcf 923c c754 fa3b
00000290: 55dc ccbd b5a4 85bd da32 a33c 9b91 88bd
000002a0: 909f 0ebe 9c95 403b 480b 29bd 339d a8bd
000002b0: e003 94bc 0ce5 8bbd b63d e1bd 3cbf 2a3c
000002c0: 8941 97bd c6cd e2bd e070 96bd 424c 3fbe
000002d0: a118 eebc 1e6e 273d 5d06 90bd d0ed 18bd
000002e0: eb38 acbd 9648 09be b454 b4bb f818 ccbd
000002f0: f501 bfbd 83d3 6fbc 5b3e 54bc 3fb9 26be
00000300: 483e 003d 9653 26be 86e1 22bd b130 1cbe
00000310: 16e3 31bd 6a15 18be 2265 293d 89e7 06be
00000320: 9d31 303d df3a 843d 05f9 15bd abe1 e7bd
00000330: 4372 5b3d 5f05 af3d 79ac 1dbd 1103 debb
00000340: 2787 c6bd 9789 e9bc 0fb8 b7bc 2cdf 4dbd
00000350: f0b6 8abd e40f eabd 36e1 d2bd 05a3 bfbd
00000360: a34a 10be 6154 3cbd 56e4 d7bd 169c dcbd
00000370: 5e5f f9bd 4e11 4fbc 07f9 0dbe 6106 08be
00000380: 1fba 65bd f902 bb3d bc1f 0fbd 26e9 cebd
00000390: 7e2c 03bd 4e05 393d 02ef ebbd 8cdb 193d
000003a0: a2bf a9bd 1321 49bd 25f8 f5bd 4586 62bd
000003b0: 7eb5 9cbd d7df a2bd 23cb f2b9 02fe 9e3c
000003c0: aeb1 873d 9289 24be a188 37bd 5d7a 8bbd
000003d0: f203 15be 78df bfbc 458f afbc cc76 09be
000003e0: 9c65 5ebb 7cdc 33bd 95b3 093d 81b0 3bbb
000003f0: 13ff 86bd 0b8b 66bc 6bc0 103c 9247 03be
-0.02545917 -0.1241495 -0.07816535 -0.16213289 -0.004136439 0.05759767 -0.1274581 0.057298146
-0.10294287 -0.053465415 0.0031150708 -0.15659204 -0.069373064 -0.026656665 -0.099900454 -0.039170068
-0.12392377 0.03980282 -0.13340566 -0.055088174 0.064936586 0.10145121 -0.13061203 -0.09896043
0.011449604 -0.09629394 -0.008779009 -0.082615435 -0.02213435 -0.08708296 -0.009336657 -0.019363564
-0.037928365 0.087055735 -0.0040946505 -0.13022172 -0.018264044 -0.0083735995 -0.027417578 -0.033041682
-0.09302122 -0.07934203 0.014155008 -0.1105453 -0.08323087 -0.07549136 0.029785769 -0.07365581
-0.06234663 -0.10677994 -0.05936587 -0.12115892 0.03748453 -0.05103901 -0.038854852 -0.12576403
-0.056446347 -0.1495418 -0.04511441 -0.059472278 -0.12098618 0.009980134 -0.04618034 -0.042996302
-0.0294199 -0.047707044 0.0047967434 -0.03679252 -0.13377017 -0.09791131 -0.02089353 -0.05070046
0.04667031 0.031458545 -0.028428491 -0.015051535 -0.052817293 -0.030850187 -0.10726908 -0.1397222
-0.07294033 0.016236005 0.019803023 -0.1021846 -0.08770794 -0.025439173 -0.049857695 -0.084122196
0.0071245963 -0.1341624 -0.07270208 -0.08221793 0.008152152 -0.011932368 -0.10275554 -0.005259411
-0.113708295 -0.055184897 -0.09313375 -0.008879309 -0.053592984 -0.05002913 -0.15598866 0.05642955
0.019720713 -0.014278096 -0.04677338 -0.08443931 -0.15154628 0.0034713643 -0.020933501 -0.015818821
0.01282007 -0.099587664 0.043412644 -0.025254328 -0.058027554 -0.14588454 -0.016027413 -0.005143024
-0.14363593 -0.014892178 -0.0039112777 -0.13008732 -0.03654561 0.06985152 0.06415607 -0.07614025
-0.123580284 -0.028545916 -0.16534679 -0.11922149 0.0055304673 0.008759281 -0.100155205 0.044102892
-0.062124424 -0.03271051 -0.09943543 -0.1496257 -0.077346556 0.003654615 -0.012064255 -0.13677229
-0.093992084 0.099226736 -0.027828488 -0.13885865 -0.01157563 0.053866547 -0.062659904 -0.12073184
-0.07551786 0.033837028 0.033951204 -0.04208894 -0.055611864 -0.16431299 -0.005048295 0.04642524
-0.039139476 0.0038352895 0.017921293 0.007639501 -0.100029625 -0.06525556 0.019921709 -0.06668397
-0.13928056 0.002938605 -0.041270524 -0.08233108 -0.018068254 -0.068307966 -0.109980986 0.01042157
-0.07385547 -0.110744044 -0.07345748 -0.18681434 -0.029064478 0.0408765 -0.07032464 -0.03733617
-0.08409294 -0.13406596 -0.0055032615 -0.099657 -0.09326545 -0.014637831 -0.01295432 -0.16281603
0.031309396 -0.16242823 -0.039765857 -0.1525295 -0.043429457 -0.14851919 0.041356213 -0.13174261
0.043016065 0.06456541 -0.036614437 -0.113223396 0.053575765 0.08545946 -0.03849456 -0.006775268
-0.09693747 -0.02850799 -0.022426633 -0.05026166 -0.06773174 -0.11428812 -0.10296862 -0.093572654
-0.14090972 -0.045978907 -0.105415985 -0.107719585 -0.12176393 -0.012638403 -0.13864528 -0.13283683
-0.056085702 0.09131426 -0.034942374 -0.10103063 -0.032024853 0.045171075 -0.115201965 0.03756289
-0.08288504 -0.049103808 -0.120102204 -0.05530383 -0.076518044 -0.0795285 -0.00046309186 0.01940823
0.066256866 -0.16068104 -0.044808034 -0.06810448 -0.14552286 -0.023421988 -0.02143062 -0.13424224
-0.0033935076 -0.043911442 0.03361853 -0.002863914 -0.0659162 -0.014071236 0.0088349385 -0.1282027

hidden_layer2.bias f4 [64]
00000000: b53e f3bc be45 92bc 3cfd a1bd 23f5 e9bc
00000010: 9e08 a8bd 825a 8dbc 93b0 4f3e 2a4b a53d
00000020: 1989 fe3b 1c89 8d3c 6902 13be 827c c7bc
00000030: 111b f6bd f6e5 ccbd e74c 20bd 477d 0abe
00000040: 9aea 2fbd 8482 1fbe 0804 31be fd93 2b3c
00000050: 9a75 4fbb 1484 8bbd 559f a9bd 0316 8abd
00000060: c895 6c3d 89cf a0bb 251f 453d e9e8 2dbd
00000070: 48f6 eabd 89f7 41bd 8d24 eebd 1184 b7bb
00000080: 939d 4abd 0e8e bebd 8b1d e0bd 8c2e 11be
00000090: ae59 613d f95e 0bbe 2153 94bc a2fa 7fbd
000000a0: ab23 8dbc e1ab c13c 5c59 57bd 1fc1 debd
000000b0: 1b87 c4bd 318b 87bd abde 22bd 98e3 0cbe
000000c0: 7f96 02be 45a7 0fbe 5f87 a9bd 7775 0abe
000000d0: 68fa 92bd ef0d 42bd 11bb 9ebd 058c 0fbe
000000e0: 1b4f 343c a344 cebd 56f5 963d 738a 00be
000000f0: c563 4bbd 3ac4 473c 23a4 e0bd 1666 893c
-0.029692987 -0.017855521 -0.07909629 -0.028559273 -0.082047686 -0.017255072 0.20282201 0.08070977
0.007767808 0.017277293 -0.14356388 -0.024351362 -0.12016881 -0.10004799 -0.03913584 -0.13524352
-0.042948343 -0.15577132 -0.17286694 0.010472295 -0.003165579 -0.06812301 -0.08282343 -0.0674248
0.05776003 -0.0049075526 0.048125405 -0.04245845 -0.11472756 -0.04735521 -0.11628065 -0.0056004603
-0.04946668 -0.093044385 -0.10943135 -0.14177912 0.055017166 -0.13610448 -0.018106045 -0.06249488
-0.017228922 0.023641529 -0.052575454 -0.10876679 -0.09596082 -0.066183455 -0.039763134 -0.13758695
-0.12752722 -0.14028652 -0.08277773 -0.13521372 -0.071766675 -0.04737657 -0.07750524 -0.14018257
0.011005188 -0.10071685 0.07371013 -0.12552814 -0.049655695 0.01219278 -0.109688066 0.016772311

output_layer.weight f4 [2, 64]
00000000: bf4d 5d3c 03ea 543c 7aab 25bc ac48 30bd
00000010: 8b8d 12bd 2044 59bd 0200 a53e b554 9b3e
00000020: e236 8d3c fff3 123d 16a2 cbbd e66f 3b3d
00000030: 8a81 303c 572a 5bbc 3c1e d2bd 104d f53d
00000040: 0d9a cfbd 0205 8dbc d4c5 543d e322 f5bb
00000050: ffe3 09bc 8ef2 ebbd c4d0 b2bd e8c5 83bd
00000060: b76b 3abe 84af 0abd 347b 45be bfbf abbd
00000070: 51f5 c7bc e030 ccbb 5138 c13d e8d7 c4bc
00000080: 7881 81bc 6c53 7cbc f4e8 1c3c 6c75 d7bc
00000090: 6fdf d4be 36b6 36bb c359 e53c 60b1 043d
000000a0: 677d 64bc df8c 14be 7484 babc 53eb bcbd
000000b0: 412b ffbc 91cd 373d e0ec 9bbd 07a0 913c
000000c0: 3138 97bb 3ed0 183e 70a3 39bd 4cfc a23c
000000d0: 36ef 4ebd 2b6f 9bbb a088 a93b 31a3 24be
000000e0: 5a84 513e e64e 813b d6bf 853e 49a2 7fbd
000000f0: df97 093e 4287 22bd b122 80bd fb76 d33c
00000100: 481e 073d 42b0 963d 116b a8bd b040 19be
00000110: d3cd f73d 3af7 72bd c40e 27be 837c 89be
00000120: 8b38 69bd 3e48 593d 79d3 39bd 755e 69bd
00000130: ee74 0d3d 900e 873d 1063 dd3c af5d 27be
00000140: 6dc5 b4bc 67c5 a83d bf5d f6bb 25c0 0f3d
00000150: d3c0 3a3d 0d00 1e3e 9a31 a23c 826b 83bd
00000160: f7ef 023e 5985 623d 00f3 123e c42d 12bd
00000170: 137c bebd 2ac3 e03d b4c9 4e3d 43aa 20bc
00000180: a4e1 75bd 3ec6 f33d 1396 bb3d 71d0 31bc
00000190: 96bd b13e f4d6 993c 0a23 9e3c b41e 543d
000001a0: 3a0f 883c 4ff3 133e 45ff 213c 216d 0b3d
000001b0: 9317 443d 5e18 063e 0025 91bd 5fe7 a5bb
000001c0: 940e 35bd 5446 dabc cf7a 08be 1156 193e
000001d0: fdaa 3abd 9665 a8bd 0d66 173d 52d6 ffbc
000001e0: 3742 efbd 9af0 873d 6ca1 47be b1b7 df3c
000001f0: 0136 4ebe 389d 9f3d 3a31 f03c 06fa 233e
0.013507306 0.012995246 -0.010111684 -0.043038055 -0.035779517 -0.053043485 0.32226568 0.30338064
0.017238084 0.035877224 -0.09943025 0.04576101 0.010773072 -0.013376794 -0.10259673 0.11977589
-0.10136805 -0.017214302 0.051946476 -0.0074809655 -0.008416175 -0.11520873 -0.08731225 -0.06434232
-0.18205152 -0.03385879 -0.1928528 -0.08386182 -0.024408968 -0.0062314123 0.094345696 -0.024028733
-0.015808806 -0.015400749 0.009577025 -0.026301108 -0.41576716 -0.0027879602 0.027996903 0.03239572
-0.013945914 -0.14506863 -0.022768237 -0.09224572 -0.031148555 0.044873778 -0.0761354 0.017776502
-0.004614853 0.14923188 -0.04532188 0.019895695 -0.050521098 -0.004743477 0.0051737577 -0.16077878
0.20460644 0.003946173 0.26122922 -0.062410627 0.1343684 -0.039679773 -0.06256617 0.02581357
0.032987863 0.07357837 -0.08223546 -0.14966083 0.12099805 -0.059317805 -0.16314226 -0.26852807
-0.05693869 0.05304741 -0.04536769 -0.056974847 0.03453534 0.065945745 0.027024776 -0.16344331
-0.022066796 0.082407765 -0.0075184996 0.035095353 0.045594048 0.15429707 0.019799042 -0.0641699
0.12786852 0.05530295 0.1435051 -0.035688177 -0.09301009 0.109747246 0.050485328 -0.009806219
-0.06002964 0.11903046 0.09159484 -0.010852919 0.34714955 0.018779255 0.019303817 0.051787093
0.016608823 0.14448284 0.009887521 0.03403962 0.047874045 0.13095233 -0.07087135 -0.005062982
-0.044203356 -0.026644863 -0.13328098 0.14974238 -0.045573223 -0.08222501 0.036962558 -0.031230126
-0.11682551 0.06637688 -0.19495171 0.02730927 -0.20137788 0.07793659 0.029320348 0.16013345

output_layer.bias f4 [2]
00000000: 0608 423e f1da c9bc
0.18948373 -0.024640532
