cartpole_rf_results/num_episodes=3000_alpha_policy=0.001_alpha_value=0.001_gamma=0.99_reward_scale=0.005/policy_net.pth (torch, 38822 bytes, 6 tensors)

hidden_layer1.weight f4 [128, 4]
0	0xbe9ba018	-0.3039558
1	0xbea35a0b	-0.31904635
2	0xbf061c7a	-0.523872
3	0xbeee7ca9	-0.46579483
4	0x3dd4851a	0.103769496
5	0x3d9e820d	0.07739649
6	0xbed59c36	-0.41720742
7	0xbe07deb1	-0.13268544
8	0xbede9be5	-0.43478313
9	0xbec3ffbb	-0.38281044
10	0x3e643711	0.22286631
11	0x3e00beda	0.12572804
12	0xbca38572	-0.019961093
13	0xbe4458ae	-0.19174454
14	0x3f1d3107	0.61402935
15	0x3eebca99	0.46053007
16	0xbe1fea54	-0.15616733
17	0x3db68a84	0.089131385
18	0x3e0fc80f	0.1404116
19	0xbebf7acc	-0.37398374
20	0x3e9de296	0.30836934
21	0xbed1d37b	-0.4098166
22	0x3e9ad29d	0.3023881
23	0x3ee56e3b	0.44810662
24	0xbf018c00	-0.5060425
25	0xbea60dc1	-0.32432368
26	0x3c96a994	0.018391408
27	0xbefc3414	-0.49258482
28	0x3e8f1fa6	0.27953833
29	0x3e8497e0	0.2589712
30	0xbe8ec3ad	-0.27883664
31	0x3df1df6e	0.11810194
32	0x3d366c84	0.044537082
33	0xbef3f874	-0.47650492
34	0xbd419df5	-0.04726978
35	0x3d90eddc	0.07076618
36	0x3b3c5c6f	0.0028741618
37	0xbef46eec	-0.47740877
38	0x3e837da9	0.2568181
39	0xbe62c889	-0.2214681
40	0xbe209aa0	-0.15683985
41	0xbd369886	-0.04457905
42	0x3e94cd43	0.29062852
43	0x3ed32d8a	0.4124568
44	0x3f036942	0.51332486
45	0xbe7cb1ee	-0.2467725
46	0x3ecc8022	0.39941508
47	0x3e9d087b	0.30670533
48	0x3f07a5c3	0.5298731
49	0xbe492751	-0.19643904
50	0x3f078c8b	0.52948827
51	0x3eb4f349	0.35341862
52	0xbe4337e7	-0.19064294
53	0x3d07ff43	0.03320242
54	0x3ea8bbc0	0.32955742
55	0x3eb554a1	0.3541613
56	0xbe810244	-0.2519704
57	0xbe123779	-0.14278974
58	0x3e21a677	0.15786158
59	0x3f0277df	0.5096416
60	0x3dd6d8d6	0.10490577
61	0xbee2799d	-0.4423341
62	0xbf0a5faf	-0.5405225
63	0xbf13095f	-0.57436174
64	0xbecb7b25	-0.3974239
65	0xbd94a8da	-0.072587684
66	0x3e02019b	0.12695925
67	0x3e3ddaf1	0.18540551
68	0x3ede8f06	0.43468493
69	0xbdded58d	-0.10880575
70	0x3f048f74	0.5178139
71	0xbe1f3a7c	-0.15549654
72	0x3ec6d5c1	0.38834956
73	0x3b9cd756	0.004786412
74	0x3efc36b4	0.49260485
75	0xbcc6bb8a	-0.024259347
76	0x3d067dcb	0.03283481
77	0xbefcee03	-0.4940034
78	0xbec6f23b	-0.38856682
79	0xbeeda304	-0.46413434
80	0x3eba5710	0.36394548
81	0x3e9399f7	0.28828403
82	0xbde1fe71	-0.11034859
83	0x3e5ddc86	0.21666154
84	0xbd95e964	-0.07319906
85	0xbda69263	-0.0813339
86	0xbcebf557	-0.02880351
87	0xbec8a921	-0.39191535
88	0x3eac1838	0.33612227
89	0xbcd8fe97	-0.026488585
90	0xbeaedcd0	-0.34152842
91	0xbe7e4005	-0.24829109
92	0xbdf435f0	-0.1192435
93	0x3e8f52d4	0.2799288
94	0xbedc7ea3	-0.43065366
95	0x3eb128bf	0.346014
96	0x3e078400	0.13233948
97	0xbe980820	-0.296937
98	0xbe6cbf84	-0.23119932
99	0xbdd53656	-0.104107544
100	0xbe044323	-0.12916236
101	0xbe58099a	-0.21097413
102	0x3e5d5e19	0.21617927
103	0x3e7f1405	0.2490998
104	0xbef40905	-0.4766313
105	0xbeb7ac9e	-0.35873884
106	0xbee250c7	-0.44202253
107	0xbed72853	-0.42022952
108	0xbe10afaf	-0.14129518
109	0xbeeb9973	-0.4601551
110	0xbddf3266	-0.108982846
111	0x3e171cd5	0.14757092
112	0xbef41d6d	-0.476787
113	0x3ecb9d8a	0.3976863
114	0xbf126aa9	-0.57194
115	0xbe9118a5	-0.28339115
116	0x3e792bbb	0.24333088
117	0xbe1ddb48	-0.1541568
118	0x3ee8a783	0.454403
119	0xbed624f5	-0.4182507
120	0xbe8e65f0	-0.27812147
121	0x3ea86f23	0.3289729
122	0xbf20202e	-0.625491
123	0xbe9b6139	-0.30347613
124	0x3df59997	0.119921856
125	0xbeb1d45a	-0.34732324
126	0xbf0c9773	-0.54918593
127	0xbf0a1319	-0.5393539
128	0xbd2cee69	-0.042219553
129	0x3e0bad3f	0.13640307
130	0x3ef53dcf	0.4789872
131	0xbd1d7d5a	-0.038449623
132	0xbecfc216	-0.40577763
133	0x3d8fbcf3	0.07018461
134	0x3ea96031	0.330812
135	0x3e72410f	0.2365763
136	0xbeb9ea76	-0.36311692
137	0xbea9c897	-0.3316085
138	0xbede9277	-0.4347112
139	0x3c3b119f	0.011417775
140	0xbea44b1b	-0.3208855
141	0xbe165453	-0.14680605
142	0xbb057c59	-0.0020368306
143	0x3eb182d0	0.34670115
144	0xbe2e957f	-0.17049216
145	0xbe889f97	-0.26684257
146	0xbebda26e	-0.37037987
147	0x3ec5330a	0.38515502
148	0xbcae55bc	-0.021281116
149	0x3eff1c63	0.49826345
150	0xbd98ef9d	-0.074675776
151	0x3d0bbdee	0.034116678
152	0x3e3a1ca4	0.18174988
153	0x3e33faea	0.17576185
154	0x3ea3da70	0.32002592
155	0xbe53c55b	-0.20680754
156	0x3d888489	0.06665904
157	0x3ef5f970	0.48041868
158	0x3e84be0d	0.25926247
159	0x3f0eb565	0.55745536
160	0x3ee7f515	0.4530417
161	0x3ecaaf34	0.39586794
162	0x3e26b582	0.16280177
163	0x3ea2e871	0.31817964
164	0x3c2e39b9	0.010633879
165	0xbe7ec326	-0.2487913
166	0xbcad76f8	-0.021174893
167	0x3d0268d4	0.031838253
168	0xbed35ca4	-0.41281617
169	0xbd93a807	-0.07209783
170	0x3cfd2d22	0.03090531
171	0xbe8a035a	-0.26955682
172	0xbe2a2bce	-0.16618273
173	0x3dd1ebc3	0.10250046
174	0x3da94c44	0.082665
175	0xbe9cae10	-0.3060155
176	0xbea1446b	-0.3149751
177	0xbdf51c2d	-0.11968265
178	0x3d45fc5b	0.048336368
179	0xbe716c08	-0.23576367
180	0x3d2f2d25	0.042767663
181	0xbd296b4c	-0.041362092
182	0x3eed8580	0.46390915
183	0x3ed29eab	0.4113668
184	0x3e454196	0.192633
185	0xbd573e21	-0.052549485
186	0x3e21f837	0.15817343
187	0xbf072368	-0.527884
188	0x3e93c7e2	0.28863436
189	0x3e7bdcd3	0.24595957
190	0x3edcf6b5	0.43156973
191	0x3d3f7a6b	0.046747606
192	0xbe9e16a5	-0.3087665
193	0xbefab9c6	-0.4896986
194	0xbe720947	-0.23636352
195	0x3ea09568	0.31363988
196	0x3eb4e383	0.35329828
197	0x3e88f1c7	0.2674696
198	0x3e949d6a	0.29026347
199	0x3ea1b71d	0.31585017
200	0x3e77c8b6	0.24197659
201	0x3e27d6a3	0.16390471
202	0x3ef5a233	0.4797531
203	0x3f087d5a	0.5331627
204	0x3e47a50e	0.19496557
205	0x3ecfd1d6	0.4058978
206	0xbd8dd2f3	-0.06925001
207	0xbea4fd57	-0.32224533
208	0x3e53a697	0.20669018
209	0x3ecdfaff	0.40230557
210	0xbd10047b	-0.035160523
211	0xbc65952b	-0.014012615
212	0x3cd41d54	0.025892891
213	0xbf01c41d	-0.5068987
214	0xbf0dca88	-0.55387163
215	0xbe9a52b0	-0.3014121
216	0xbed6c776	-0.41949052
217	0xbedfef99	-0.43737486
218	0x3ef11422	0.47085673
219	0x3edf1e2a	0.435777
220	0xbd889713	-0.0666944
221	0x3e8918eb	0.26776823
222	0xbe0c1347	-0.13679229
223	0xbd4cd744	-0.05000998
224	0xbe0cd128	-0.13751662
225	0x3d5ed0c5	0.054398317
226	0x3d33bb44	0.043879762
227	0xbe9d4b0f	-0.30721328
228	0xbe19a60a	-0.15004745
229	0x3ef63281	0.48085406
230	0x3f03fc23	0.51556605
231	0xbd85acf5	-0.065271296
232	0xbeef2a78	-0.4671209
233	0xbec6a69a	-0.38798982
234	0xbe87d46f	-0.2652926
235	0xbefb9201	-0.4913483
236	0x3ce02808	0.027362838
237	0x3e63bdab	0.22240321
238	0x3dba3b0c	0.090932935
239	0xbe8db2dc	-0.2767552
240	0xbe9daf59	-0.30797842
241	0xbe5e7905	-0.21725853
242	0x3e4f1321	0.20222141
243	0xbe95dc89	-0.29269817
244	0xbbb57fcb	-0.0055389157
245	0xbdc00b02	-0.093770996
246	0xbe29ce43	-0.16582589
247	0x3f06995f	0.52577776
248	0xbec6e5d6	-0.38847226
249	0xbee720fd	-0.45142356
250	0xbea922c6	-0.33034343
251	0xbe4f6d29	-0.20256485
252	0xbaa37f79	-0.0012473903
253	0xbc08bd0f	-0.008345856
254	0x3f2498d9	0.64295727
255	0x3d37ecd6	0.0449036

hidden_layer1.bias f4 [128]
0	0xbe995e30	-0.29954672
1	0xbedd2791	-0.4319425
2	0xbe57483a	-0.21023646
3	0x3e1433f8	0.1447295
4	0x3d71d14e	0.0590375
5	0x3ec7ca1c	0.39021385
6	0xbe1a37b6	-0.15060315
7	0xbee4e017	-0.44702217
8	0x3de6d594	0.112712055
9	0x3e32294d	0.17398567
10	0x3e49dc73	0.19713001
11	0xbea7ee89	-0.32799175
12	0xbe398ab6	-0.1811932
13	0x3e773034	0.24139482
14	0x3ea40e0b	0.32041964
15	0x3e89817a	0.26856595
16	0xbeaa34ed	-0.33243504
17	0xbe01cb1e	-0.1267514
18	0x3e1886fa	0.1489524
19	0x3e9ffa13	0.3124548
20	0xbed4e4af	-0.41580722
21	0x3da54b1e	0.08070968
22	0xbdd99aab	-0.10625204
23	0xbe9b8e40	-0.30381966
24	0xbeb9f9e1	-0.36323455
25	0xbcdb3a75	-0.026761273
26	0x3da9bded	0.082881786
27	0xbde2dd83	-0.11077406
28	0x3eb3b894	0.3510176
29	0xbe99d656	-0.30046338
30	0x3e496777	0.19668375
31	0x3e66e79f	0.22549294
32	0x3d8c6722	0.068556085
33	0x3ecad47a	0.39615232
34	0xbdf6b3b8	-0.120459974
35	0x3ee9fb9d	0.45699778
36	0xbe8ef6de	-0.2792272
37	0x3dc29679	0.09501357
38	0xbedaed50	-0.4275918
39	0x3eccf9a6	0.40034217
40	0x3e81e66e	0.25371116
41	0xbe259473	-0.1616991
42	0x3d48f1ab	0.049058598
43	0xbe3543d5	-0.17701657
44	0x3eaf1550	0.34195948
45	0x3e1f042b	0.15528934
46	0x3ee95e8f	0.45579955
47	0x3e39b510	0.18135476
48	0x3ec485c8	0.38383317
49	0xbe89d24d	-0.2691826
50	0x3dfe4274	0.12415019
51	0x3e18e40c	0.14930743
52	0xbe42950a	-0.19002166
53	0xbe08d351	-0.13361861
54	0xbd5e03ee	-0.054202966
55	0x3e56bce5	0.20970495
56	0x3b9a92f4	0.004717225
57	0xbe94c809	-0.29058865
58	0x3e3b8e67	0.18316041
59	0x3e758e87	0.23980151
60	0x3e6c5a28	0.23081267
61	0x3ee882af	0.45412204
62	0x3e826758	0.2546947
63	0x3e1c5a76	0.15268883
64	0x3ea8460f	0.3286595
65	0x3edf426e	0.4360537
66	0x3dd7cf62	0.10537602
67	0x3ed4bceb	0.41550383
68	0x3eceddd5	0.4040362
69	0x3ea7fdc3	0.32810792
70	0x3db51865	0.088425435
71	0x3ea1deef	0.31615397
72	0xbe9bdea8	-0.3044331
73	0x3eb287f2	0.34869343
74	0x3e8aaa61	0.27083114
75	0xbec76888	-0.3894694
76	0x3eca35fe	0.39494318
77	0xbd24dd2d	-0.040249992
78	0x3e76f4d5	0.24116834
79	0xbe17f028	-0.14837706
80	0x3ebe56ab	0.37175497
81	0xbe9468e9	-0.2898629
82	0xbead0793	-0.3379484
83	0xbe934b29	-0.2876828
84	0x3ecc41ee	0.3989405
85	0xbea38212	-0.31935173
86	0xbeb4feb8	-0.35350585
87	0x3eb33ad9	0.35005835
88	0xbddaff53	-0.106932305
89	0x3e0cbc92	0.13743809
90	0x3eb9b362	0.3626967
91	0x3e8a8c4d	0.27060166
92	0xbef6d48f	-0.48209044
93	0xbe9679d3	-0.2938982
94	0x3e455eff	0.1927452
95	0xbdf8649d	-0.121285655
96	0x3e9d4e76	0.30723923
97	0x3e133f90	0.14379716
98	0x3dac6367	0.08417397
99	0xbe910430	-0.28323507
100	0x3ec3dc7c	0.38254154
101	0x3edf3872	0.43597752
102	0x3aeb05ff	0.0017930864
103	0x3ec03b7f	0.37545392
104	0xbc9176ee	-0.017756905
105	0xbe32953f	-0.17439745
106	0xbc7cbf6c	-0.015426498
107	0xbdc10f98	-0.094268024
108	0xbee64de6	-0.44981307
109	0xbe5509aa	-0.20804468
110	0x3ee33ba8	0.44381452
111	0xbe4c75b5	-0.19966777
112	0x3ec6d471	0.38833955
113	0xbc6a026d	-0.014282805
114	0xbecc0984	-0.3985101
115	0x3dd91aee	0.106008396
116	0x3e5fd2fd	0.2185783
117	0x3d441472	0.04787106
118	0xbe59dd75	-0.21275885
119	0x3e3692b1	0.17829396
120	0x3d343040	0.043991327
121	0x3e4af6a9	0.19820656
122	0x3efba6e9	0.4915078
123	0xbdaf8399	-0.08570022
124	0xbedc0004	-0.42968762
125	0x3e1ef094	0.15521461
126	0x3ec7f22d	0.39051953
127	0x3d41b5d8	0.04729256

hidden_layer2.weight f4 [64, 128]
0	0x3c58183c	0.013189372
1	0xbb210c64	-0.0024574036
2	0x3d899652	0.067181244
3	0xbc42722c	-0.011868041
4	0xbd2846ec	-0.04108326
5	0x3d8fb770	0.0701741
6	0xbba0b94e	-0.0049049025
7	0x3d01d96a	0.031701483
8	0x3a5e3dbf	0.0008477829
9	0xbca5fc7d	-0.020261997
10	0x3d852726	0.065016076
11	0xbcdf0ff7	-0.027229292
12	0xbc12f352	-0.008969145
13	0x3d2eeb9e	0.04270517
14	0xbdbb4f76	-0.09146015
15	0xbdccf72b	-0.10008081
16	0x3d8f7122	0.07004
17	0xbcfa08e5	-0.03052182
18	0xbb4eaa5b	-0.0031534645
19	0x3b319fbb	0.0027103263
20	0xbc4a9a8e	-0.01236595
21	0x3db15f68	0.086607754
22	0xbaa9cb52	-0.0012954271
23	0xbd137c68	-0.036007315
24	0x3d17ee90	0.037092745
25	0xbca77ee5	-0.02044625
26	0x3c5734a2	0.013135107
27	0x3da30181	0.07959271
28	0x3d4c3faf	0.04986542
29	0xbd7ef099	-0.06224117
30	0x3ca260bb	0.019821515
31	0x3d29e4da	0.041478015
32	0x3d601f2b	0.054717224
33	0x3a27b814	0.0006397974
34	0xbd515227	-0.051103737
35	0x3c2ba814	0.010477085
36	0xbd0ff366	-0.035144232
37	0xbd48e64b	-0.04904775
38	0x3d6f26da	0.05838666
39	0xbdb70f00	-0.08938408
40	0xbd5fc20f	-0.054628428
41	0xbd168e9f	-0.036757108
42	0x3d9a6294	0.075383335
43	0x3d4ec009	0.050476108
44	0x3dafbbfc	0.08580777
45	0x3bda502c	0.0066623893
46	0xbcdaab1b	-0.026692918
47	0x3d394f4e	0.045241646
48	0xbd9d91ae	-0.07693802
49	0x3d72303e	0.05912804
50	0x3cfc67a8	0.030811146
51	0xbd16c806	-0.03681185
52	0xbcc7fb15	-0.024411717
53	0xbd99d3ce	-0.07511102
54	0xbd936b66	-0.07198219
55	0xbd1955be	-0.037435286
56	0x3c939758	0.018016502
57	0xbd95e9df	-0.07319998
58	0xbdb25218	-0.087070644
59	0x3db8a820	0.09016442
60	0xbb540995	-0.0032354344
61	0xbd76052b	-0.060063522
62	0x3cebb08f	0.028770713
63	0x3d0fb408	0.0350838
64	0x3c0fa9bb	0.008768494
65	0xbdcecaa1	-0.10097242
66	0xbc87bff4	-0.016571023
67	0xbd983f13	-0.074339055
68	0xbd87cd4d	-0.06630955
69	0xbdb3129f	-0.08743786
70	0xbd02c77c	-0.031928524
71	0x3d622869	0.05521432
72	0x3c1bd6be	0.009511648
73	0xbd4e8b75	-0.050425965
74	0xbda57c29	-0.08080322
75	0xbd7574e9	-0.059925947
76	0xbda8a824	-0.08235195
77	0x3d5f861b	0.054571252
78	0xbd18ea51	-0.037332837
79	0x3c8d2c6d	0.017233098
80	0xbd00f213	-0.03148086
81	0x3d9938d1	0.0748154
82	0xbd0a1e7d	-0.033720482
83	0x3d9ad39e	0.07559894
84	0xbdc597de	-0.09648107
85	0x3c708169	0.014679291
86	0xbdb233ba	-0.08701272
87	0xbd9579db	-0.07298633
88	0x3d9aeb99	0.07564468
89	0xbc2c9b91	-0.010535137
90	0xba57f3f7	-0.0008237953
91	0x3d7db449	0.06193951
92	0xbbd58376	-0.0065159155
93	0x3daf6fad	0.08566222
94	0x3c5886dd	0.013215748
95	0x3ccdece3	0.02513737
96	0x3cafeb4b	0.021474501
97	0x3c158afb	0.009127374
98	0x3d95a180	0.07306194
99	0xbcc6b57b	-0.024256459
100	0xbd429543	-0.04750563
101	0xbd5471a3	-0.051866185
102	0x3ca77ae1	0.020444335
103	0x3ba23910	0.00495065
104	0xbc1ad006	-0.009449011
105	0xbc64bbe9	-0.013960817
106	0x3ca2aa45	0.019856581
107	0x3d045bc8	0.032314092
108	0x3d8cb0f7	0.06869691
109	0xbd7883f4	-0.060672715
110	0xbb3483d1	-0.002754439
111	0x3bd16dfc	0.006391285
112	0xbd40eb33	-0.047099303
113	0x3da2fae7	0.07958012
114	0x3d90b9e2	0.07066704
115	0xbdc17a3a	-0.09447141
116	0x3c200838	0.0097675845
117	0x3c35b1fd	0.011089799
118	0xbd4163ff	-0.047214504
119	0xbd57fb27	-0.052729752
120	0x3d390c58	0.045177788
121	0xbd56b525	-0.052418847
122	0x3d3483f3	0.04407115
123	0xbd9e49b7	-0.07728904
124	0xbc80bc5f	-0.015714822
125	0x3cd50db5	0.026007513
126	0xbd9c5a82	-0.076344505
127	0xbd919f69	-0.07110483
128	0xbd643f9d	-0.05572473
129	0xbd6dacc8	-0.058026105
130	0xbd10957d	-0.035298813
131	0xbda50b82	-0.080588356
132	0xbd00bf8c	-0.031432673
133	0xbd3a889d	-0.04554044
134	0xbce07961	-0.027401628
135	0x3c84c245	0.016205916
136	0xbd801462	-0.06253888
137	0x3d391249	0.045183454
138	0x3d7d7e7a	0.061888196
139	0xbda68860	-0.0813148
140	0xbdb885cc	-0.09009895
141	0xbd72c9e4	-0.05927457
142	0x3d35e5fc	0.044408783
143	0xbd870c2b	-0.06594118
144	0xbda99827	-0.08280974
145	0x3d902e06	0.07040028
146	0xbcc5c57d	-0.024142021
147	0xbd2cd502	-0.042195328
148	0xbd229ec7	-0.039702203
149	0x3da073ef	0.078346126
150	0x3d64a9f6	0.05582615
151	0xbd1750e7	-0.03694239
152	0x3d8fa563	0.07013967
153	0xbd5dc025	-0.05413832
154	0xbdbeafae	-0.09310852
155	0xbd6a4851	-0.057197873
156	0xbcc93ccf	-0.024565129
157	0xbcce5c9f	-0.02519065
158	0xbd8c2d19	-0.06844539
159	0xbca8992a	-0.020580847
160	0xbd02e87e	-0.031960003
161	0x3d188751	0.037238423
162	0x3da5784f	0.08079588
163	0x3c1e0895	0.009645601
164	0xbd47a507	-0.048741367
165	0xbcae9c18	-0.021314666
166	0x3cbb9dbe	0.022902366
167	0xbd8ac364	-0.06775549
168	0x3d8417cc	0.064498514
169	0x3d1adb26	0.037806652
170	0xbd0cdd5c	-0.034390792
171	0x3d1d4ffc	0.038406357
172	0xbd71b6e0	-0.059012294
173	0xbd125149	-0.03572205
174	0x3d3825eb	0.044958036
175	0xbd1e8dae	-0.038709335
176	0x3cb7a791	0.02241877
177	0xbb3061b4	-0.0026913704
178	0x3d29736d	0.041369844
179	0x3d5250cd	0.05134659
180	0x3d541b80	0.05178404
181	0x3d274983	0.04084159
182	0xbc8b19c8	-0.016980067
183	0xbb1bf97f	-0.0023799834
184	0xbc730ed6	-0.01483508
185	0xbd0f17cd	-0.034934808
186	0xbb0fa266	-0.0021916865
187	0x3c824009	0.015899675
188	0xbbdbefbc	-0.006711928
189	0x3d868f96	0.065703556
190	0x3d5ec34f	0.05438548
191	0x3d3b0db1	0.045667354
192	0xbda007f0	-0.07814014
193	0x3d6f36ad	0.058401752
194	0xbda10a1f	-0.078632586
195	0xbdb9f6fc	-0.09080312
196	0xbcb535e6	-0.022120427
197	0x3d92b47b	0.0716333
198	0xbd215f7d	-0.039397705
199	0x3d24668f	0.04013687
200	0xbd81ffa2	-0.06347586
201	0xbdbb5119	-0.091463275
202	0x3ce88a84	0.028386362
203	0xba6f2365	-0.00091224007
204	0x3c9d6728	0.019214228
205	0xbda6545d	-0.0812156
206	0xbd5c6ac4	-0.053812757
207	0xbd9bfe6e	-0.07616888
208	0xbd06d6a6	-0.03291955
209	0x3d4742b3	0.048647594
210	0x3d957010	0.07296765
211	0xbcca7dc3	-0.024718171
212	0x3c54d115	0.012989302
213	0xbd8ed353	-0.06973901
214	0xbd8289c6	-0.063739344
215	0x3c948614	0.01813034
216	0x3d4d690a	0.050149
217	0xbb94be77	-0.0045393067
218	0xbdc7899f	-0.09743046
219	0x3bc54484	0.0060201306
220	0x3cfd3ff2	0.03091428
221	0xbc84340e	-0.016138103
222	0xbd949a27	-0.07255965
223	0x3cfa05de	0.030520376
224	0xbd498201	-0.049196247
225	0xbd0874f3	-0.033314656
226	0x3c71dc2d	0.014761967
227	0x3d5cb9cf	0.05388814
228	0xbd4c77e6	-0.04991903
229	0xbda56513	-0.08075919
230	0x3d4e6dc6	0.050397657
231	0xbd44327e	-0.047899716
232	0x3d86e6c9	0.065869875
233	0xbd9b967f	-0.07597064
234	0xbcf471d9	-0.029839443
235	0xbcf6a4b4	-0.030107833
236	0xbc65b43d	-0.014020023
237	0x3d521dc2	0.05129791
238	0x3d25e81d	0.040504564
239	0xbd9bd236	-0.07608454
240	0xbd52e1ad	-0.051484752
241	0x3c8f542c	0.017496191
242	0x3d257c83	0.040401947
243	0x3d9a6847	0.075394206
244	0xbc95fb29	-0.018308239
245	0xbd8bec84	-0.06832221
246	0xbd6383f5	-0.055545766
247	0x3d163dd6	0.036680065
248	0xbcfc9248	-0.030831471
249	0xbdc09b1e	-0.09404586
250	0xbdb2d237	-0.087315015
251	0xb9075691	-0.00012906852
252	0x3d2265c8	0.039647847
253	0x3d827b1c	0.063711375
254	0x3d8d3e53	0.06896653
255	0xbb4b725f	-0.0031043512

hidden_layer2.bias f4 [64]
0	0xbc8c1020	-0.017097533
1	0x3d83d508	0.06437117
2	0x3b870acb	0.0041211597
3	0x3cf937e0	0.030422151
4	0x3c61514d	0.013752294
5	0x3c94f20c	0.018181823
6	0xbd1b7507	-0.037953403
7	0x3d1f841c	0.03894435
8	0x3ce2e8fe	0.02769899
9	0x3d336806	0.043800376
10	0x3d4ab509	0.049489055
11	0x3d12f0e5	0.035874266
12	0x3d8a901e	0.067657694
13	0x3d3ba958	0.045815796
14	0x3d5aa690	0.053381503
15	0xbcfed765	-0.031108567
16	0xbd14abbf	-0.036296602
17	0xbd3f10be	-0.046646826
18	0xbd1ab67b	-0.037771683
19	0xbdc3a3a3	-0.095526956
20	0xbd742e68	-0.05961457
21	0x3d33db13	0.043910097
22	0xbdad0a0b	-0.08449181
23	0x3d81a956	0.063311264
24	0xbcb02027	-0.021499706
25	0xbd2a4a3a	-0.041574694
26	0x3d87634d	0.06610737
27	0x3bab102e	0.0052204346
28	0x3da77cdf	0.08178114
29	0xbd3f2c6c	-0.046673223
30	0xbcef120e	-0.029183414
31	0xbc849e1d	-0.016188676
32	0xbb8b1fd4	-0.0042457376
33	0xbd1beaf0	-0.03806585
34	0xbdb396bc	-0.08768985
35	0xbd9b3ce0	-0.0757997
36	0xbd30e265	-0.043184657
37	0x3de6e6a3	0.11274459
38	0x3d929d02	0.07158853
39	0x3d10a2ca	0.035311498
40	0x3ccb3951	0.024807604
41	0x3d4f01a1	0.050538663
42	0xbc7fe043	-0.015617433
43	0xbd3eeb22	-0.04661096
44	0xbc1123b7	-0.008858613
45	0xbdc15e99	-0.09441871
46	0xbcd7fd98	-0.02636604
47	0x3da5a965	0.0808895
48	0xbd0a21dd	-0.0337237
49	0x3c887684	0.016658075
50	0xbccb5345	-0.02481998
51	0x3d8f441a	0.06995411
52	0x3d85ea12	0.06538786
53	0xbcd8a2f9	-0.026444899
54	0x3bb1b5a7	0.005423266
55	0xbdb1f38d	-0.08689032
56	0xbcc345b9	-0.023836957
57	0xbc339674	-0.010961164
58	0xbd4baf82	-0.049727924
59	0xbd94b878	-0.07261747
60	0xbcde7985	-0.027157554
61	0x3db78f4e	0.0896288
62	0x3c64fc11	0.013976113
63	0x3cd2185c	0.025646381

output_layer.weight f4 [2, 64]
0	0xbcaa87d4	-0.020816721
1	0xbc634691	-0.013871805
2	0xbd82fe72	-0.06396188
3	0x3b6299c8	0.0034576524
4	0xbe4ea4c6	-0.20180044
5	0x3d9f8e78	0.07790846
6	0x3d73cd43	0.059521925
7	0xbbbac605	-0.0056998753
8	0xbd36c3f4	-0.04462047
9	0xbd92bd12	-0.071649686
10	0x3e24b572	0.16084841
11	0xbd90bee5	-0.0706766
12	0x3dc54690	0.09632599
13	0xbe1d6ee2	-0.1537433
14	0x3dd8e235	0.105900206
15	0x3e44bc50	0.1921246
16	0xbd9a3476	-0.075295374
17	0x3d8154e6	0.06315021
18	0xbe09c702	-0.13454822
19	0xbd204cef	-0.03913587
20	0x3d8f51c9	0.06998021
21	0x3de7b762	0.11314274
22	0xbd3bce39	-0.045850966
23	0x3de9f94f	0.11424505
24	0x3c37b725	0.011213099
25	0x3cad7c96	0.021177571
26	0x3d92b6ea	0.07163794
27	0x3d64abd1	0.05582792
28	0x3df06269	0.1173752
29	0x3dde6d2e	0.10860668
30	0x3dab78a2	0.08372618
31	0xbd0ea005	-0.034820575
32	0xbe1aaf5f	-0.15105961
33	0xbd86a68c	-0.06574735
34	0xbced0791	-0.028934272
35	0x3db34d05	0.08754925
36	0x3ddc45ee	0.107555255
37	0xbc4017a5	-0.011724387
38	0x3d1e167e	0.03859567
39	0x3dfd9de8	0.12383634
40	0x3da74430	0.081673026
41	0x3dabee2b	0.08395036
42	0xbdf7308b	-0.12069806
43	0x3e0ac7af	0.13552736
44	0xbc909f16	-0.017653983
45	0xbdd4cc14	-0.10390487
46	0x3df29766	0.11845283
47	0x3d3e31d7	0.04643425
48	0xbbae7eb8	-0.0053251646
49	0x3e30c00f	0.17260765
50	0x3d58a833	0.052894782
51	0x3de991f2	0.1140479
52	0xbc5edde4	-0.013602708
53	0xbe1a41da	-0.15064183
54	0xbe571d0f	-0.21007179
55	0x3dc3cede	0.09560941
56	0xbd1e90e7	-0.03871241
57	0xbde5ef02	-0.11227228
58	0x3e1c2d26	0.15251598
59	0xbddfa9fa	-0.10921092
60	0xbdb7eebc	-0.08981082
61	0xbe1263e1	-0.14295913
62	0xbdadf83c	-0.084946126
63	0xbe0f65ca	-0.14003673
64	0xbc8aa8c3	-0.016926175
65	0xbdb6df44	-0.08929303
66	0x3e386465	0.18007047
67	0xbdd9ba83	-0.106312774
68	0xbc410c19	-0.011782669
69	0x3da7453d	0.08167503
70	0x3d8ab24a	0.06772287
71	0xbcf0f855	-0.029415289
72	0x3d2abe84	0.041685596
73	0x3c5185a3	0.012788209
74	0xbdf4e7d4	-0.1195828
75	0x3d4f4efb	0.05061243
76	0xbda45091	-0.08023179
77	0xbcda8dd6	-0.02667896
78	0x3d17ccad	0.03706043
79	0x3cc6e365	0.024278352
80	0x3e5fc1ed	0.2185132
81	0xbd1be57e	-0.038060658
82	0x3d1e9c35	0.03872319
83	0xbd895720	-0.06706071
84	0x3de9f48f	0.11423599
85	0x3c15d810	0.009145752
86	0xbce1d382	-0.027566675
87	0xbdc46228	-0.09589034
88	0x3c9afa42	0.01891816
89	0x3d3795ae	0.04482048
90	0xbd30d9da	-0.04317651
91	0x3d8638f5	0.065538324
92	0xbdae62bc	-0.08514926
93	0xbd89c63e	-0.06727265
94	0x3b6bada9	0.0035961664
95	0x3e1bc27c	0.15210909
96	0x3e3ed5ae	0.186362
97	0x3d35d090	0.044388354
98	0x3cdfe143	0.027329093
99	0xbde48b7b	-0.11159416
100	0xbe0bcde1	-0.13652755
101	0x3e367a29	0.17820038
102	0x3db10cdc	0.08645031
103	0xbe1bb2a1	-0.1520486
104	0xbc24b199	-0.010052108
105	0x3d7f8b14	0.062388495
106	0x3c531529	0.012883463
107	0xbd68d5f3	-0.056844663
108	0x3e1e9b99	0.15489043
109	0xbdeee30a	-0.11664398
110	0xbe044bc5	-0.12919529
111	0xbd347faf	-0.04406708
112	0xbe3e26c8	-0.18569481
113	0xbe3b31fe	-0.1828079
114	0xbd29d087	-0.041458633
115	0x3dbb2092	0.09137072
116	0x3dae3825	0.085068025
117	0x3d953db8	0.072871625
118	0x3d9f1678	0.077679574
119	0x3d9c328a	0.07626827
120	0x3c869333	0.016427612
121	0xbdce2834	-0.10066262
122	0xbd59ec15	-0.05320366
123	0x3c1d4635	0.009599258
124	0xbd464046	-0.04840114
125	0xbd715c40	-0.058925867
126	0x3e09864b	0.13430135
127	0x3c13a719	0.009012007

output_layer.bias f4 [2]
0	0x3d5810a6	0.052750252
1	0x3d6dfbe2	0.058101542
