cartpole_rf_results/num_episodes=3000_alpha_policy=0.005_alpha_value=0.001_gamma=0.99_reward_scale=0.01/policy_net.pth (torch, 38822 bytes, 6 tensors)

hidden_layer1.weight f4 [128, 4]
0.13833752 -0.5027836 -0.81625634 -0.69052047 -0.020717012 -0.34937975 0.42429712 0.5332431
0.32630095 0.16004825 0.657908 0.47213602 0.45800793 -0.38433775 0.27735886 -0.028987097
0.278755 -0.020812545 -0.23148973 -0.4661649 -0.10347835 -0.3215608 0.050740574 0.19571714
-0.3016639 0.19964707 0.26227006 0.3397367 0.37483028 -0.18471037 -0.81237805 -0.26931876
-0.5545543 0.2437983 -0.59025496 -0.3865845 0.086497635 -0.04257628 -0.00503324 0.13629268
0.30647156 -0.48038384 0.28534436 -0.44860592 0.20468555 -0.28751484 0.45777234 0.5874997
-0.23047741 0.10360392 -0.66222167 -0.27969548 -0.16223809 -0.46569678 -0.7519084 -0.5382855
0.11568033 0.13357621 0.08605817 0.26707304 -0.22310904 -0.21279535 -0.1809181 0.15810706
-0.032200936 0.25677714 -0.4434912 -0.021259734 -0.21570969 -0.1787462 0.026012076 0.34410644
0.28508395 0.5254636 0.36774847 0.6040785 -0.15743546 0.10405342 -0.7003516 -0.09586754
-0.06692798 0.30901563 0.10677754 0.42844784 -0.2429597 0.44436765 0.3010164 0.74492615
-0.018641073 -0.26552325 -0.22400749 0.22464943 -0.08812934 0.42563987 -0.44225392 0.40804315
0.046674024 -0.21299611 -0.27766186 -0.43422604 -0.33940932 -0.06995425 0.41447866 0.023393266
0.06661701 -0.41990125 0.08830255 0.4154215 -0.077774875 -0.06380245 0.15254752 0.09856679
-0.031365894 0.3334491 -0.14331436 -0.096082106 0.46769217 0.036155894 0.38411254 -0.008840037
-0.12631896 0.2701207 -0.43700945 0.11214462 0.10086346 -0.48333204 -0.92208606 -0.4963498
-0.4418229 -0.15814413 0.42694086 0.63451695 0.3624457 0.523428 0.5042772 0.39014605
0.30694446 0.40367877 -0.62783974 -0.32071668 -0.0018242503 -0.4253694 0.043861225 0.09638739
0.08617165 -0.49224815 -0.84897614 -0.48059508 0.17851241 -0.19803154 0.17033789 0.38307554
-0.14075322 -0.39426804 -0.54079026 -0.13161327 -0.23597956 -0.18460211 0.50703657 0.52939
0.030831505 0.36865455 0.64435756 0.33312833 0.2665376 0.23650278 0.20243336 0.24176294
-0.0773469 -0.123072326 0.072617434 0.29177386 -0.24360768 -0.3800545 0.24871364 -0.18993585
-0.14170203 0.38703465 -0.6442857 -0.53658736 -0.2424441 -0.0182639 -0.3403835 -0.6067395
-0.32772213 0.29868096 0.47394422 0.16843055 -0.27256906 -0.057012863 -0.8774517 -0.1864203
0.40423587 0.33045673 0.035815977 0.14689176 -0.4073762 0.33506805 -0.47625762 -0.36266387
0.30312032 0.23750901 -0.095038846 -0.4574336 -0.030582657 0.28916314 0.49036935 0.03502054
0.35489747 0.20070618 -0.34340933 0.17895816 0.039158653 0.20932353 0.21363387 -0.15422979
-0.28226858 -0.23728643 0.0007172965 0.5079781 -0.21130446 -0.356339 -0.4693826 0.40844244
0.42110294 0.24521565 0.18961518 -0.13512748 -0.31575707 0.27874815 -0.26892868 0.14354162
-0.3435285 0.24311365 -0.031519376 0.48996156 0.44204414 0.4189804 0.015260499 0.5272929
0.48996866 0.33692762 0.32438472 0.24022512 0.02994262 0.25917166 -0.061314758 0.19559969
0.061719857 -0.20307957 -0.071701765 0.16157575 0.23962615 -0.44330916 -0.4162254 0.14113034
00000000: 5aa8 0d3e 6db6 00bf 2df6 50bf f3c5 30bf
00000010: b9b6 a9bc e7e1 b2be 793d d93e 9f82 083f
00000020: eb10 a73e b0e3 233e a96c 283f d0bb f13e
00000030: 0480 ea3e ebc7 c4be fb01 8e3e 5976 edbc
00000040: fab8 8e3e 127f aabc a50b 6dbe 2aad eebe
00000050: 75ec d3bd 9ea3 a4be 59d5 4f3d 136a 483e
00000060: b173 9abe 4870 4c3e 4348 863e f8f1 ad3e
00000070: c1e9 bf3e b724 3dbe 02f8 4fbf 26e4 89be
00000080: 45f7 0dbf 43a6 793e f31a 17bf 67ee c5be
00000090: ac25 b13d 7764 2ebd e1ed a4bb 4f90 0b3e
000000a0: d7e9 9c3e dff4 f5be a818 923e adaf e5be
000000b0: 1799 513e 2535 93be 2361 ea3e 6166 163f
000000c0: 4502 6cbe 4b2e d43d 5c87 29bf 3f34 8fbe
000000d0: be21 26be cf6f eebe 127d 40bf 14cd 09bf
000000e0: cfe9 ec3d 34c8 083e 443f b03d ccbd 883e
000000f0: b276 64be 06e7 59be 9842 39be d1e6 213e
00000100: 21e5 03bd 4b78 833e 4711 e3be e528 aebc
00000110: 00e3 5cbe 3e09 37be 4717 d53c b82e b03e
00000120: 86f6 913e c884 063f 8749 bc3e e3a4 1a3f
00000130: c336 21be f619 d53d 3e4a 33bf 3356 c4bd
00000140: 8911 89bd 4c37 9e3e 2fae da3d 845d db3e
00000150: 6dca 78be 2884 e33e d21e 9a3e 7bb3 3e3f
00000160: 2ab5 98bc aaf2 87be 3862 65be 800a 663e
00000170: 287d b4bd 78ed d93e 1b6f e2be 08eb d03e
00000180: 432d 3f3d a71b 5abe b229 8ebe e052 debe
00000190: 0fc7 adbe 2c44 8fbd 8c36 d43e 3ca3 bf3c
000001a0: 806e 883d 4cfd d6be f8d7 b43d 20b2 d43e
000001b0: 6f48 9fbd dcaa 82bd 6b35 1c3e 63dd c93d
000001c0: 8679 00bd d7b9 aa3e 00c1 12be b2c6 c4bd
000001d0: 5975 ef3e 3418 143d 66aa c43e cdd5 10bc
000001e0: c259 01be 434d 8a3e b4bf dfbe 14ac e53d
000001f0: 8091 ce3d 4c77 f7be d50d 6cbf 9021 febe
00000200: 9c36 e2be 89f0 21be fe97 da3e b46f 223f
00000210: 7c92 b93e 61ff 053f 5018 013f 39c1 c73e
00000220: d327 9d3e fcae ce3e 1bba 20bf fa34 a4be
00000230: af1b efba 05ca d9be d4a7 333d c066 c53d
00000240: c37a b03d f307 fcbe 8056 59bf 8f10 f6be
00000250: f5cb 363e c8c8 4abe 0e6d 2e3e 7a22 c43e
00000260: 9d21 10be 80dd c9be 3b71 0abf a1c5 06be
00000270: a0a4 71be 5608 3dbe 26cd 013f 1a86 073f
00000280: 5a92 fc3c 4ac0 bc3e 9ef4 243f cc8f aa3e
00000290: 9e77 883e c92d 723e b14a 4f3e b490 773e
000002a0: 0d68 9ebd 580d fcbd 73b8 943d 6263 953e
000002b0: 4b74 79be 8196 c2be caae 7e3e 8b7e 42be
000002c0: 561a 11be 6829 c63e e8ef 24bf ca5d 09bf
000002d0: 4443 78be 2d9e 95bc bf46 aebe 4853 1bbf
000002e0: 32cb a7be b6ec 983e d1a8 f23e 0f79 2c3e
000002f0: 2c8e 8bbe 5286 69bd ada0 60bf f7e4 3ebe
00000300: 01f8 ce3e a031 a93e c6b3 123d cb6a 163e
00000310: 9d93 d0be 0a8e ab3e 0ad8 f3be 14af b9be
00000320: 9632 9b3e 9035 733e baa3 c2bd bd34 eabe
00000330: 7b88 fabc 310d 943e b111 fb3e b371 0f3d
00000340: 1fb5 b53e ec85 4d3e 59d3 afbe cf40 373e
00000350: d364 203d e858 563e d6c2 5a3e 6aee 1dbe
00000360: 8285 90be 37fb 72be f408 3c3a da0a 023f
00000370: 3260 58be 1172 b6be eb52 f0be 5e1f d13e
00000380: ce9a d73e d019 7b3e 7b2a 423e dc5e 0abe
00000390: e9aa a1be 14b8 8e3e 05b1 89be 93fc 123e
000003a0: f8e2 afbe c9f2 783e 761a 01bd 3edc fa3e
000003b0: 9c53 e23e 9984 d63e 2c07 7a3c abfc 063f
000003c0: 2cdd fa3e c781 ac3e c115 a63e 93fd 753e
000003d0: 3a4a f53c 26b2 843e 2f25 7bbd 494b 483e
000003e0: f6cd 7c3d 17f4 4fbe 60d8 92bd 1d74 253e
000003f0: 8f60 753e 6bf9 e2be 7f1b d5be 7984 103e

hidden_layer1.bias f4 [128]
0.23040523 0.42151886 -0.021118468 -0.28531924 -0.19959727 -0.12067056 0.10313765 0.29864398
-0.03635238 0.303882 -0.3030117 0.23122244 0.31143805 0.39867142 -0.55229 -0.2974902
-0.49856132 -0.48840398 0.35048875 0.3308397 0.42720473 0.3326381 0.41692922 -0.513425
0.12252768 -0.04117001 0.072653 -0.10440004 -0.33648178 -0.40669233 -0.25987035 0.37961906
0.42868116 -0.13679397 -0.35557774 0.36187 0.40845045 0.22174783 0.006950289 0.0049526943
0.22448146 -0.28143105 -0.125088 -0.13824198 0.19906671 0.22499438 -0.3846772 0.2373707
-0.45577946 -0.46001995 -0.06659802 0.27184206 0.31526613 -0.35973373 0.37292045 -0.30190733
-0.53729784 -0.13258895 -0.02776528 0.12078132 -0.16588525 0.37963402 -0.10194066 0.29797193
0.04170887 -0.24486174 -0.45948243 -0.17767225 -0.37086463 -0.2687176 -0.46146807 -0.37140873
-0.24219519 -0.15859702 0.16475303 -0.019833634 0.10924502 0.2411286 -0.42616048 0.39081773
0.0037801606 0.40656385 -0.25746742 -0.52955616 0.39046764 -0.22179082 0.36767334 0.17480381
0.038989667 -0.43013468 0.13557617 0.23265992 0.41022286 0.08620633 0.4076461 -0.11884916
0.23282515 -0.15166661 -0.28874496 -0.10773137 0.07804483 -0.4901585 -0.3954921 -0.0023482805
0.08996644 -0.4263645 0.19610143 -0.29867345 0.3871786 0.17998633 -0.38025683 -0.06451356
-0.34541073 0.031234805 0.35076913 -0.46215206 -0.2836944 -0.22244328 0.117106184 0.27357835
-0.4609933 -0.3276008 0.100146025 0.25279948 0.13911225 0.32252806 -0.36227593 -0.31386408
00000000: 59ef 6b3e 52d1 d73e a300 adbc 5d15 92be
00000010: 3a63 4cbe 2022 f7bd d539 d33d dde7 983e
00000020: 3ce6 14bd 6c96 9b3e 5924 9bbe 93c5 6c3e
00000030: cf74 9f3e a91e cc3e e162 0dbf a350 98be
00000040: 6e43 ffbe 1610 fabe 4373 b33e d263 a93e
00000050: 94ba da3e 8b4f aa3e bf77 d53e d26f 03bf
00000060: cbef fa3d e2a1 28bd 19cb 943d b0cf d5bd
00000070: 5747 acbe fa39 d0be ba0d 85be 6e5d c23e
00000080: 197c db3e b813 0cbe 490e b6be 0647 b93e
00000090: 6b20 d13e dd11 633e 40bf e33b 364a a23b
000000a0: 78de 653e bb17 90be 1217 00be 4e8f 0dbe
000000b0: 25d8 4b3e ed64 663e 69f4 c4be 4e11 733e
000000c0: ed5b e9be bc87 ebbe 8b64 88bd e22e 8b3e
000000d0: 906a a13e 052f b8be 6eef be3e 9993 9abe
000000e0: 5a8c 09bf 66c5 07be 0374 e3bc 325c f73d
000000f0: d3dd 29be 645f c23e 44c6 d0bd c78f 983e
00000100: ecd6 2a3d 09bd 7abe 4841 ebbe b7ef 35be
00000110: f8e1 bdbe 5a95 89be 8b45 ecbe 4929 bebe
00000120: 0402 78be 4267 22be 05b5 283e 257a a2bc
00000130: dabb df3d 6aea 763e b531 dabe 4319 c83e
00000140: 92bc 773b 2329 d03e c5d2 83be fe90 07bf
00000150: 60eb c73e 221d 63be ae3f bc3e c5ff 323e
00000160: a1b3 1f3d 9d3a dcbe 7bd4 0a3e 673e 6e3e
00000170: bb08 d23e f28c b03d fdb6 d03e 3067 f3bd
00000180: b769 6e3e 7e4e 1bbe 61d6 93be 44a2 dcbd
00000190: f8d5 9f3d 0ef6 fabe f17d cabe 9ce5 19bb
000001a0: 5340 b83d 734c dabe d0ce 483e baeb 98be
000001b0: 463c c63e 564e 383e 06b1 c2be af1f 84bd
000001c0: add9 b0be 22e0 ff3c 0398 b33e 329f ecbe
000001d0: 6440 91be 2cc8 63be 5ed5 ef3d 7612 8c3e
000001e0: 5007 ecbe 4bbb a7be 5c19 cd3d ef6e 813e
000001f0: 7173 0e3e 6622 a53e 3b7c b9be cbb2 a0be

hidden_layer2.weight f4 [64, 128]
-0.041473497 0.00051658094 0.008371576 -0.02050869 -0.046567015 0.0053706495 -0.026931489 -0.034238793
-0.035675958 -0.10651028 0.10876038 -0.082884185 -0.004566024 -0.033661075 0.04243807 0.1066691
-0.07834853 0.0040866905 -0.07747487 -0.020650804 -0.04474696 0.026358392 0.0062168445 -0.010544278
0.023142327 -0.020168055 0.05742168 0.0947896 -0.083219215 -0.05429176 0.013908947 -0.0004628397
-0.103968725 -0.06604384 0.01231505 -0.0015504493 -0.05395127 -0.046586476 -3.694108e-05 0.053497665
-0.06192055 -0.020911833 0.021515498 -0.005886453 0.01025104 0.0050503346 -0.056597233 -0.054384734
0.04229287 -0.10849462 -0.01852874 -0.017725851 -0.032470915 0.0059293057 -0.08452116 0.05267587
0.058070056 0.0039136508 0.049461227 0.03665195 0.0055038766 -0.11749426 -0.07460548 0.030123083
-0.024456471 0.0200492 0.06094663 0.07597223 0.050908756 -0.01367732 0.022929395 -0.025001984
0.04560135 -0.028374864 0.037934396 -0.037154336 -0.04112017 0.023123803 0.08289619 0.026885306
-0.103893176 0.023799289 0.046466775 0.08033569 -0.075222306 0.051724125 0.022787279 -0.099563465
0.0064226827 -0.052513137 0.03523786 -0.063868836 -0.010491237 -0.046788417 0.008022542 -0.10764672
-0.046644323 -0.10777364 -0.005625071 -0.072820075 -0.072896965 0.016420022 -0.04166355 -0.04825481
-0.0049755364 -0.026709996 -0.03504235 -0.045712095 -0.110798806 -0.050708547 -0.003512985 -0.039247837
-0.11474806 -0.089469135 -0.044597894 0.09114543 0.04861578 0.06963756 -0.00623372 -0.049517326
-0.037605383 0.0019791916 0.04154838 -0.10618945 -0.057198834 -0.004438903 0.08182553 0.056116797
-0.09820449 -0.09759065 0.0012271781 -0.10669252 0.037004445 -0.077392444 0.027380485 -0.06606591
0.025658078 0.046413526 0.05179935 -0.06404222 0.038178492 -0.07519403 -0.08792027 -0.054421864
-0.06166848 -0.009108926 -0.01676557 -0.01763005 -0.10218236 -0.032380193 0.067211896 -0.03482322
-0.07333521 -0.005507745 -0.077212445 0.03619563 -0.037786286 -0.031489164 0.03942095 -0.09962049
-0.029159548 -0.086828135 0.04862704 -0.056231152 -0.057534933 -0.069779284 -0.07860981 0.0118489405
0.019363867 -0.069284 -0.05712158 0.005468597 -0.12814525 -0.09427444 -0.037823584 0.0061840406
-0.10879463 0.026523905 0.021863183 -0.0985945 -0.023442702 0.035343304 0.027252557 -0.050537366
0.031450856 0.0027542333 -0.0015422676 0.009095788 0.021404726 -0.029578075 0.025486168 -0.010611564
-0.11462792 -0.008625113 -0.046164483 0.00532986 -0.021221614 -0.0805528 0.022641651 0.081385374
-0.087484725 -0.08888215 -0.073942356 -0.03861321 0.02999517 -0.11816899 -0.00638159 0.03604236
-0.044498302 -0.052156903 0.054461773 0.078313716 0.063083 0.055285905 0.01184151 0.013574023
-0.049276225 0.023789654 -0.04117334 -0.08563372 -0.014600541 -0.027129281 -0.020670272 -0.107696235
0.008911011 0.028230809 0.08460197 -0.06332721 0.021915214 -0.073135644 -0.029638674 0.011593689
-0.05173594 -0.01844146 -0.054303464 -0.03325168 -0.025035407 -0.06145057 0.10493951 0.01549752
0.008721204 -0.101497665 -0.018285103 -0.07261804 -0.059969753 0.0060631507 -0.0010103942 -0.017176175
-0.03874256 -0.08875346 -0.05807425 0.004874924 0.029302184 -0.017974796 0.09857735 0.05574907
00000000: 1de0 29bd 296b 073a ef28 093c d701 a8bc
00000010: 0ebd 3ebd 46fc af3b 6d9f dcbc fa3d 0cbd
00000020: f420 12bd 1022 dabd c3bd de3d 2fbf a9bd
00000030: 969e 95bb 32e0 09bd 8bd3 2d3d 5475 da3d
00000040: 3275 a0bd a5e9 853b 25ab 9ebd e02b a9bc
00000050: 9748 37bd 8eed d73c acb6 cb3b e8c1 2cbc
00000060: fa94 bd3c 7a37 a5bc ff32 6b3d 0d21 c23d
00000070: d66e aabd 0961 5ebd 5ae2 633c 4ba9 f2b9
00000080: 8eed d4bd fe41 87bd 10c5 493c 7238 cbba
00000090: 02fc 5cbd 76d1 3ebd 2ff1 1ab8 5e20 5b3d
000000a0: 67a0 7dbd 4b4f abbc 4541 b03c 26e3 c0bb
000000b0: faf3 273c 477d a53b 80d2 67bd 87c2 5ebd
000000c0: 4a3b 2d3d 6d32 debd 96c9 97bc ce35 91bc
000000d0: 3900 05bd 9f4a c23b 6e19 adbd a7c2 573d
000000e0: deda 6d3d 153e 803b db97 4a3d 5b20 163d
000000f0: dd59 b43b d5a0 f0bd c2ca 98bd afc4 f63c
00000100: f058 c8bc 383e a43c 2ca3 793d 5497 9b3d
00000110: b385 503d d716 60bc 6dd6 bb3c f6d0 ccbc
00000120: 7bc8 3a3d 6772 e8bc 1961 1b3d 252f 18bd
00000130: a06d 28bd 216e bd3c 7ac5 a93d 933e dc3c
00000140: f2c5 d4bd baf6 c23c f253 3e3d 0a87 a43d
00000150: 270e 9abd addc 533d 63ac ba3c eee7 cbbd
00000160: 5e75 d23b 0418 57bd 9355 103d aacd 82bd
00000170: 70e3 2bbc 36a5 3fbd fb70 033c e275 dcbd
00000180: 1e0e 3fbd 6db8 dcbd 8452 b8bb b122 95bd
00000190: 014b 95bd 4883 863c 66a7 2abd d6a6 45bd
000001a0: d309 a3bb ecce dabc 9188 0fbd 9b3c 3bbd
000001b0: 7cea e2bd c4b3 4fbd 1c3a 66bb 57c2 20bd
000001c0: 0801 ebbd 983b b7bd 48ac 36bd 75aa ba3d
000001d0: 5721 473d 239e 8e3d 3c44 ccbb aed2 4abd
000001e0: 1a08 1abd 53b5 013b a22e 2a3d db79 d9bd
000001f0: 5349 6abd 3874 91bb 2594 a73d bada 653d
00000200: 701f c9bd 9bdd c7bd 44d9 a03a 9c81 dabd
00000210: f991 173d ee7f 9ebd 0a4d e03c 904d 87bd
00000220: e430 d23c 1c1c 3e3d 8e2b 543d 9128 83bd
00000230: 0d61 1c3d 54ff 99bd 8b0f b4bd 76e9 5ebd
00000240: 1798 7cbd 9b3d 15bc f357 89bc e56c 90bc
00000250: fc44 d1bd 18a1 04bd 64a6 893d cba2 0ebd
00000260: c530 96bd 507a b4bb 8f21 9ebd de41 143d
00000270: cbc5 1abd c8fa 00bd dd77 213d d405 ccbd
00000280: 01e0 eebc f3d2 b1bd 262d 473d a352 66bd
00000290: c0a9 6bbd 71e8 8ebd 2efe a0bd 0f22 423c
000002a0: f9a0 9e3c c5e4 8dbd 51f8 69bd eb31 b33b
000002b0: 8238 03be f512 c1bd e7ec 1abd 7ea3 ca3b
000002c0: b8cf debd a948 d93c 6b1a b33c eaeb c9bd
000002d0: e90a c0bc 24c4 103d c140 df3c 4500 4fbd
000002e0: 9dd2 003d 5e80 343b ea25 caba 8006 153c
000002f0: f758 af3c b84d f2bc 5ec8 d03c 20dc 2dbc
00000300: 0bc2 eabd 5950 0dbc f816 3dbd 1ba6 ae3b
00000310: f3d8 adbc def8 a4bd fc7a b93c 60ad a63d
00000320: 312b b3bd d807 b6bd 176f 97bd e328 1ebd
00000330: 6eb8 f53c 9502 f2bd a81c d1bb 27a1 133d
00000340: da43 36bd 7aa2 55bd 4f13 5f3d f162 a03d
00000350: a931 813d 7973 623d e502 423c 9465 5e3c
00000360: ded5 49bd 85e2 c23c 60a5 28bd bb60 afbd
00000370: 1c37 6fbc 3a3e debc b454 a9bc d88f dcbd
00000380: 7dff 113c 4c44 e73c cc43 ad3d b2b1 81bd
00000390: 8987 b33c 24c8 95bd cecc f2bc 75f3 3d3c
000003a0: 11e9 53bd 8b12 97bc 4f6d 5ebd ea32 08bd
000003b0: 0e17 cdbc 98b3 7bbd 87ea d63d 4fe9 7d3c
000003c0: 61e3 0e3c 02de cfbd a4ca 95bc c4b8 94bd
000003d0: d8a2 75bd 65ad c63b 346f 84ba 0db5 8cbc
000003e0: 85b0 1ebd 60c4 b5bd 44df 6dbd d4bd 9f3b
000003f0: 220b f03c e13f 93bc ece2 c93d 2359 643d

hidden_layer2.bias f4 [64]
-0.028886765 0.037974425 0.08665059 -0.09300993 -0.042141873 0.00440939 0.117130585 0.020378683
-0.014938244 -0.06388021 -0.0889027 -0.09823734 -0.02250227 -0.02279317 -0.08799938 -0.055217788
0.08992341 -0.053214505 0.07782544 -0.0792346 -0.15115666 -0.04301663 0.07763527 -0.03331607
0.040897243 0.039522924 0.024077611 -0.020508675 0.04460672 0.103031605 0.0026296556 -0.02546638
0.020747019 -0.037620056 -0.0021592998 -0.052948315 0.03818423 -0.0439376 -0.034262378 -0.08263812
-0.07845882 -0.026474562 0.07402667 0.005986343 -0.010690907 -0.0919083 0.033973385 0.01800872
-0.07191187 -0.030219633 -0.014871603 0.041116968 -0.1451558 0.080021605 -0.008758054 0.00060464
-0.055172574 0.004616624 -0.084765084 0.018676996 0.03314008 -0.012863108 0.025294563 -0.13324149
00000000: f0a3 ecbc 128b 1b3d dd75 b13d fd7b bebd
00000010: f59c 2cbd a57c 903b 29e2 ef3d 32f1 a63c
00000020: 89bf 74bc a1d3 82bd 9e12 b6bd a930 c9bd
00000030: ae56 b8bc beb8 babc 0539 b4bd 0c2c 62bd
00000040: c429 b83d 74f7 59bd f262 9f3d c045 a2bd
00000050: d0c8 1abe 3532 30bd 3eff 9e3d 6e76 08bd
00000060: de83 273d cae2 213d 693e c53c cf01 a8bc
00000070: 89b5 363d 3c02 d33d 4d56 2c3b df9e d0bc
00000080: a7f5 a93c 7d17 1abd 0a83 0dbb 55e0 58bd
00000090: 1167 1c3d eaf7 33bd b556 0cbd 2d3e a9bd
000000a0: 05af a0bd 2ee1 d8bc 4b9b 973d 1629 c43b
000000b0: ea28 2fbc 6b3a bcbd ad27 0b3d 0687 933c
000000c0: 8846 93bd 2a8f f7bc 06a8 73bc 446a 283d
000000d0: b9a3 14be 5ee2 a33d f17d 0fbc b480 1e3a
000000e0: a3fc 61bd 0d47 973b 5199 adbd 8000 993c
000000f0: e4bd 073d c9bf 52bc 8b36 cf3c 7570 08be

output_layer.weight f4 [2, 64]
-0.08794381 -0.018420491 -0.28621215 0.023663478 0.073607564 0.050882068 -0.20811193 -0.015489767
0.15065034 -0.038693093 -0.008562338 -0.045849416 -0.18945757 0.021225458 0.032618165 0.094467565
0.22811161 -0.07107776 0.16116962 -0.0644722 -0.1539547 -0.008403273 0.09571601 0.030564684
0.10980072 -0.018234696 0.17299135 0.022787865 -0.08355733 0.17566559 -0.08783836 -0.0839885
-0.07315442 0.052820433 0.17095964 0.057133052 -0.06789477 0.063448854 -0.0022545715 0.007829251
-0.013152266 0.027650384 -0.18965913 0.04226428 0.048477314 -0.041368235 0.04746527 0.0059270156
0.13565038 0.026141874 0.0059382915 -0.116040245 -0.05777897 0.0063870973 0.041312896 0.018615063
0.061345104 0.016221335 0.07433453 -0.16050485 0.05736275 0.036086388 0.04228569 -0.051050715
0.0902154 0.07532414 0.14678754 -0.019892784 0.016311973 0.05592969 0.20444807 -0.004579267
-0.12380789 0.021907017 -0.07718065 -0.050055254 0.20131038 -0.011052701 -0.015582291 0.05750136
-0.23734623 0.06447031 -0.07178241 -0.06438234 -0.08534677 0.026358573 -0.15958694 0.024971953
-0.0991235 -0.06528673 -0.11109569 -0.16265252 -0.120006494 -0.14345054 0.07521934 0.0036623676
0.017529516 -0.17351106 -0.12391008 0.012059222 -0.11836253 0.072470345 0.052126408 -0.03512722
-0.018551856 0.014661645 0.16042256 -0.08284835 0.013047737 -0.082260385 0.060500685 -0.04400261
0.052784808 0.12634508 -0.1528128 -0.08307949 -0.020376291 0.039487388 -0.12763198 0.04561533
0.07806664 0.03966394 -0.061493836 0.12260424 0.08581498 0.053802453 -0.22643974 0.043706313
00000000: e21b b4bd 92e6 96bc 668a 92be e9d9 c13c
00000010: 90bf 963d b769 503d 4b1b 55be cbc8 7dbc
00000020: 1544 1a3e a67c 1ebd 0c49 0cbc 99cc 3bbd
00000030: 2a01 42be 03e1 ad3c a09a 053d 3678 c13d
00000040: 1796 693e 3791 91bd a609 253e 000a 84bd
00000050: 4da6 1dbe e2ad 09bc c106 c43d ca62 fa3c
00000060: 33df e03d ee60 95bc a524 313e 9ead ba3c
00000070: 1b20 abbd aee1 333e 99e4 b3bd 2a02 acbd
00000080: fcd1 95bd 3d5a 583d 0b10 2f3e 5904 6a3d
00000090: 6a0c 8bbd 79f1 813d 6fc1 13bb 4246 003c
000000a0: 9a7c 57bc 0f83 e23c 0136 42be 4f1d 2d3d
000000b0: 2690 463d bd71 29bd f16a 423d 6937 c23b
000000c0: efe7 0a3e 7c27 d63c 0096 c23b 82a6 edbd
000000d0: a4a9 6cbd db4a d13b b637 293d 9e7e 983c
000000e0: 0145 7b3d 9be2 843c b43c 983d 625b 24be
000000f0: 34f5 6a3d 52cf 133d c233 2d3d 8e1a 51bd
00000100: dac2 b83d 8b43 9a3d 794f 163e 31f6 a2bc
00000110: b0a0 853c 8816 653d d65a 513e ad0d 96bb
00000120: fe8e fdbd 5876 b33c e310 9ebd bd06 4dbd
00000130: 4f24 4e3e 6316 35bc de4c 7fbc 8c86 6b3d
00000140: e40a 73be 0309 843d a802 93bd e3da 83bd
00000150: 4aca aebd efed d73c c26a 23be fb91 cc3c
00000160: 4301 cbbd 0db5 85bd 2386 e3bd 628e 26be
00000170: f7c5 f5bd b3e4 12be 990c 9a3d 5504 703b
00000180: 0f9a 8f3c e2ac 31be 91c4 fdbd 0b94 453c
00000190: 0e68 f2bd 556b 943d 8082 553d 8fe1 0fbd
000001a0: 10fa 97bc 6537 703c d045 243e 65ac a9bd
000001b0: 2dc6 553c 2278 a8bd 91cf 773d 153c 34bd
000001c0: e234 583d 9b60 013e f57a 1cbe 9425 aabd
000001d0: 2eec a6bc 87bd 213d f5b1 02be 24d7 3a3d
000001e0: 67e1 9f3d a876 223d f6e0 7bbd ef17 fb3d
000001f0: c4bf af3d f65f 5c3d d2df 67be 6405 333d

output_layer.bias f4 [2]
-0.09472766 -0.03573419
00000000: 9300 c2bd 045e 12bd
