cartpole_rf_results/num_episodes=3000_alpha_policy=0.01_alpha_value=0.01_gamma=0.99_reward_scale=0.005/policy_net.pth (torch, 38822 bytes, 6 tensors)

hidden_layer1.weight f4 [128, 4]
-0.34083825 -0.039916314 0.28163773 -0.10468321 -0.18089776 0.4943032 1.2334272 0.53753155
0.13528682 -0.14914565 -0.14872044 -0.0021677413 -0.4808017 0.10710557 -0.6620395 -0.5923395
0.25496092 0.20982136 -0.19973582 -0.27421397 -0.098668024 -0.25631645 0.34800085 0.2207695
-0.2831312 -0.24605481 0.33699763 0.25696456 0.25748453 -0.228767 -0.052869823 -0.066452965
-0.050948147 -0.32127234 0.51884717 0.008121262 0.2160529 -0.32237646 0.061491076 -0.18289864
-0.023761109 -0.15342821 0.08520325 0.27698722 -0.031914026 -0.03676327 0.3138491 0.07806484
0.5704958 0.2331029 1.0550975 0.28252774 -0.51481867 -0.17240566 -1.4392867 -0.4121287
-0.46041906 0.17655542 0.062538296 -0.1829047 -0.14909701 0.2665012 -0.19101009 -0.016337996
-0.2459257 0.2394442 -0.24184428 -0.01168537 0.11178037 0.23327498 -0.88384885 -0.19518545
-0.22886705 -0.03618089 0.54354554 0.26522848 0.05572561 0.39008948 1.0134846 0.28228667
0.11116326 -0.1391536 0.03010998 0.22205113 0.15046486 0.111043654 -0.46922743 0.26620603
0.035876516 -0.015725123 -0.54950094 -0.58633983 0.09586017 0.17812034 0.5275745 0.06290865
-0.30534878 -0.5732771 -0.5539394 -0.55310726 0.04554363 -0.14199172 -0.19021429 0.17533292
0.07929134 -0.3165789 -1.0192403 -0.33188507 -0.35166886 -0.47101307 -1.2732638 -0.9852122
0.22537948 0.012506998 1.0342636 0.19590232 -0.30215093 -0.583124 -0.40301305 -0.23552227
-0.47624105 0.32789567 -1.0306162 -0.7393902 -0.052199338 0.47684363 1.0336069 0.34617445
0.11433123 0.076660894 -0.16468222 0.34965557 -0.6197862 -0.5857675 -0.19897531 -0.31974724
-0.27810106 -0.49469262 -0.8934539 -0.34975553 -0.17731623 -0.032762166 0.38638312 0.26463673
0.08994045 0.33835754 -0.38388914 -0.45593035 0.39859658 -0.73356855 -0.7924363 -0.6218991
-0.0007738259 -0.4278363 0.23255226 -0.337972 0.005345102 -0.23485869 0.2379071 -0.092470765
-0.29780924 0.39295986 -0.8634024 -0.97793436 -0.024738004 0.24442732 -0.16916169 0.35030937
0.35019234 0.44042253 1.1594403 0.4382845 -0.5507088 -0.10445779 -0.61301863 0.016492257
0.40510622 -0.3517184 -0.48442346 -0.07904128 -0.028893434 0.18544823 -1.2074505 -0.6219832
0.21530227 -0.33211002 0.652587 -0.2472389 -0.052882276 -0.03346041 -1.0853382 -0.7238866
0.06342628 -0.1712139 -0.3991274 0.26133844 0.048641596 0.27116472 0.10371155 -0.28291008
-0.6243349 0.02032389 -1.5937322 -0.718899 -0.27604657 0.39165178 -0.21986489 -0.09035894
-0.4517131 0.2692259 0.31198478 0.26308596 0.0932093 0.49041444 0.23873077 0.42675313
0.055786133 0.2691399 -0.23507465 0.3639394 0.31595585 -0.4096299 -0.8845485 -0.18456247
0.35354424 0.66732746 0.5038708 0.56867623 0.045416005 0.06778069 -1.2173374 -0.94323087
0.19692008 -0.28836456 0.082784966 -0.22304538 0.108470276 0.4166993 -0.3424263 -0.12033897
-0.29650056 0.3215042 -0.4373958 -0.057405565 -0.36386532 -0.17170827 -0.49877656 -0.3697641
0.031323735 -0.28990382 -0.4945533 0.24532019 -0.12570673 -0.24334086 0.10041556 -0.09562866
00000000: 5a82 aebe 4a7f 23bd d232 903e 2764 d6bd
00000010: 433d 39be 4f15 fd3e f1e0 9d3f ab9b 093f
00000020: a188 0a3e a3b9 18be 2c4a 18be aa10 0ebb
00000030: a42b f6be 2a5a db3d 6c7b 29bf 90a3 17bf
00000040: 3d8a 823e 69db 563e 8c87 4cbe c665 8cbe
00000050: 7612 cabd e93b 83be 2b2d b23e 6611 623e
00000060: 93f6 90be cbf5 7bbe f48a ac3e dc90 833e
00000070: 03d5 833e e541 6abe 078e 58bd 7e18 88bd
00000080: 01af 50bd cf7d a4be 2bd3 043f 0b0f 053c
00000090: f93c 5d3e 870e a5be 11de 7b3d c849 3bbe
000000a0: a8a6 c2bc 491c 1dbe 0b7f ae3d 45d1 8d3e
000000b0: 48b8 02bd 1595 16bd d4b0 a03e 75e0 9f3d
000000c0: 030c 123f 87b2 6e3e 6f0d 873f 7aa7 903e
000000d0: 28cb 03bf 1c8b 30be 8c3a b8bf 8802 d3be
000000e0: 0cbc ebbe f2ca 343e 1414 803d 5f4b 3bbe
000000f0: e3ac 18be d872 883e 2698 43be 43d7 85bc
00000100: f2d3 7bbe dc30 753e 07a6 77be fe73 3fbc
00000110: 1bed e43d a3df 6e3e eb43 62bf b2de 47be
00000120: 205c 6abe 6a32 14bd cd25 0b3f 07cc 873e
00000130: 8a40 643d cfb9 c73e ddb9 813f e187 903e
00000140: 90a9 e33d 487e 0ebe 34a9 f63c 5f61 633e
00000150: 7613 1a3e db6a e33d 943e f0be 284c 883e
00000160: 41f3 123d f9d1 80bc 18ac 0cbf 5e1a 16bf
00000170: 5652 c43d 2e65 363e 1f0f 073f 40d6 803d
00000180: ad56 9cbe 4ac2 12bf f9ce 0dbf 7098 0dbf
00000190: f58b 3a3d 4766 11be 89c7 42be 798a 333e
000001a0: 8063 a23d a116 a2be 7776 82bf d7ec a9be
000001b0: f10d b4be a028 f1be 4ffa a2bf de36 7cbf
000001c0: e1c9 663e 27ea 4c3c c062 843f 9e9a 483e
000001d0: 87b3 9abe 9d47 15bf ba57 cebe c02c 71be
000001e0: ded5 f3be f1e1 a73e 3beb 83bf ad48 3dbf
000001f0: f9ce 55bd d924 f43e 3b4d 843f c73d b13e
00000200: 7e26 ea3d 6300 9d3d 75a2 28be 0e06 b33e
00000210: 4faa 1ebf dcf4 15bf 2fc0 4bbe e9b5 a3be
00000220: 4363 8ebe 5a48 fdbe 65b9 64bf 2813 b3be
00000230: 6392 35be 9f31 06bd 02d4 c53e 777e 873e
00000240: b332 b83d 333d ad3e 1e8d c4be b46f e9be
00000250: da14 cc3e 26cb 3bbf 1bdd 4abf c834 1fbf
00000260: 94da 4aba 5c0d dbbe 2e22 6e3e aa0a adbe
00000270: f725 af3b cc7e 70be eb9d 733e 5061 bdbd
00000280: 747a 98be 0932 c93e f107 5dbf e859 7abf
00000290: 5ba7 cabc 284b 7a3e b938 2dbe c05b b33e
000002a0: 694c b33e 107f e13e 8a68 943f d366 e03e
000002b0: 40fb 0cbf f7ed d5bd caee 1cbf c51a 873c
000002c0: 156a cf3e 6f14 b4be 5a06 f8be 65e0 a1bd
000002d0: ecb1 ecbc 24e6 3d3e bd8d 9abf 4a3a 1fbf
000002e0: 3378 5c3e 530a aabe f10f 273f 322c 7dbe
000002f0: 169b 58bd c80d 09bd 5dec 8abf a250 39bf
00000300: a3e5 813d b252 2fbe 6d5a ccbe 27ce 853e
00000310: 693c 473d 1ad6 8a3e b966 d43d 97d9 90be
00000320: 69d4 1fbf 497e a63c 6bff cbbf c409 38bf
00000330: fa55 8dbe 9586 c83e 4324 61be 1c0e b9bd
00000340: f046 e7be fad7 893e 78bc 9f3e 34b3 863e
00000350: 84e4 be3d 9a17 fb3e d775 743e 637f da3e
00000360: 0080 643d b4cc 893e 69b7 70be 4456 ba3e
00000370: f7c4 a13e 03bb d1be c571 62bf f2fd 3cbe
00000380: c003 b53e f9d5 2a3f adfd 003f c494 113f
00000390: 2206 3a3d 9ad0 8a3d b6d1 9bbf 9477 71bf
000003a0: 6ba5 493e 85a4 93be 2a8b a93d 0266 64be
000003b0: aa25 de3d 9c59 d53e 8052 afbe 4774 f6bd
000003c0: ecce 97be 339c a43e 58f2 dfbe 1922 6bbd
000003d0: 8e4c babe 4bd4 2fbe a45f ffbe b851 bdbe
000003e0: 514d 003d 466e 94be 1736 fdbe 3735 7b3e
000003f0: 44b9 00be 592e 79be aca6 cd3d f5d8 c3bd

hidden_layer1.bias f4 [128]
-0.32374963 0.3758303 -0.27176407 0.03459951 0.16946767 0.09127307 -0.4456182 -0.31611487
0.03791715 -0.10869645 -0.47225156 -0.5209016 0.22314537 0.32590377 -0.23148175 -0.2543505
-0.5279218 0.18023127 -0.17474805 0.24931929 -0.3959242 -0.48887408 0.004603105 0.5658449
0.23591538 -0.3195355 -0.013085414 0.3419873 0.23636205 0.19939719 0.29928577 0.33725518
-0.34657067 0.12669577 0.21670657 -0.140131 0.012827462 -0.073711246 -0.3674573 -0.31481794
0.39000434 -0.37408942 0.34496814 -0.085279636 -0.28886798 0.35474974 -0.61993444 0.30136266
-0.45024824 -0.36976388 0.34379613 -0.55760026 0.17043068 0.15570083 -0.2523807 -0.15273012
0.41580066 0.34760007 -0.23950899 -0.24493346 -0.49958336 0.16042437 -0.34783402 -0.28079668
0.2812371 0.075435646 -0.029727982 -0.16547456 -0.032408196 -0.120717905 -0.38083002 -0.16898476
-0.78872114 0.077940136 -0.3736975 0.18016617 0.27615544 0.30895156 0.4556872 -0.4074183
0.19891745 -0.5835482 0.25314453 -0.35453245 -0.54911315 0.20493397 -0.4239999 -0.5818365
-0.2923305 0.5890843 0.30067447 -0.20196415 -0.39976344 0.30004793 0.3346042 0.31134441
-0.28989753 -0.46951768 -0.045631018 -0.4198963 0.066028304 -0.5049635 -0.29826143 -0.47748047
-0.053521074 -0.0699693 -0.5083313 -0.02687603 -0.22083715 0.2681773 -0.4719816 -0.28840017
0.00080251833 0.30404413 -0.37103888 0.28916225 -0.48489797 -0.5168878 0.1219164 -0.5081064
-0.2505394 0.26282147 -0.25437424 0.10111025 -0.65891176 -0.49138036 -0.50999916 -0.20988314
00000000: 83c2 a5be d46c c03e a924 8bbe 37b8 0d3d
00000010: ef88 2d3e 60ed ba3d 1228 e4be cfd9 a1be
00000020: 034f 1b3d 3f9c debd f5ca f1be cf59 05bf
00000030: 3880 643e dcdc a63e 8d09 6dbe 3b3a 82be
00000040: e225 07bf 8c8e 383e 27f1 32be 8e4d 7f3e
00000050: 94b6 cabe b44d fabe a5d5 963b 36db 103f
00000060: cd93 713e 289a a3be 3464 56bc f618 af3e
00000070: e508 723e c72e 4c3e fc3b 993e b6ac ac3e
00000080: b671 b1be 89bc 013e 54e8 5d3e 807e 0fbe
00000090: 462a 523c ecf5 96bd 5d23 bcbe d12f a1be
000000a0: a6ae c73e a688 bfbe aa9f b03e 17a7 aebd
000000b0: 81e6 93be c2a1 b53e 06b4 1ebf 354c 9a3e
000000c0: f086 e6be b151 bdbe 0c06 b03e e4be 0ebf
000000d0: 6185 2e3e 0a70 1f3e 0b38 81be 4965 1cbe
000000e0: d3e3 d43e a3f8 b13e d841 75be d6cf 7abe
000000f0: 64c9 ffbe 4946 243e 4d17 b2be 95c4 8fbe
00000100: 4ffe 8f3e 017e 9a3d 1988 f3bc 2a72 29be
00000110: 75be 04bd f33a f7bd 27fc c2be 570a 2dbe
00000120: a1e9 49bf 149f 9f3d 4755 bfbe 7b7d 383e
00000130: 3f64 8d3e e62e 9e3e d54f e93e 2299 d0be
00000140: 04b1 4b3e 6a63 15bf 299c 813e 4785 b5be
00000150: ae92 0cbf 36da 513e 8416 d9be 3df3 14bf
00000160: 58ac 95be 3bce 163f 01f2 993e b1cf 4ebe
00000170: cbad ccbe e29f 993e 3e51 ab3e 8968 9f3e
00000180: 736d 94be 9f64 f0be 97e7 3abd a6fc d6be
00000190: d939 873d 4a45 01bf b9b5 98be 5278 f4be
000001a0: ea38 5bbd 104c 8fbd 0022 02bf 1f2b dcbc
000001b0: 2223 62be 894e 893e 93a7 f1be 30a9 93be
000001c0: 1860 523a acab 9b3e cff8 bdbe 130d 943e
000001d0: 8c44 f8be c252 04bf 4eaf f93d 4313 02bf
000001e0: b346 80be 8990 863e 573d 82be e412 cf3d
000001f0: 71ae 28bf 3596 fbbe 4e8f 02bf 9beb 56be

hidden_layer2.weight f4 [64, 128]
-0.04492581 -0.039364588 -0.03842152 -0.04820711 0.06921427 0.05028923 -0.06601279 -0.0026192265
0.039618712 0.049495015 -0.011973961 0.073832124 0.027737094 -0.08391902 0.022894768 -0.06982364
0.069812186 0.005214187 -0.019470517 -0.020704733 0.07470745 -0.027774373 0.052260257 -0.01450017
0.078147 0.031712595 0.077203214 0.082967326 -0.0031953843 -0.08053659 -0.05829357 0.035995178
0.010447466 -0.042587463 0.023983948 0.041364856 -0.08229714 0.019741045 -0.0660762 -0.07723936
-0.018115621 -0.05325622 -0.05421681 -0.013359234 0.047639392 -0.0831946 0.052720543 0.08519785
-0.048744295 0.060347088 -0.0073841065 -0.00021739345 -0.018935272 -0.07362962 -0.049129747 0.015929349
-0.037668515 -0.06312332 0.038394537 -0.08735712 0.04320722 -0.058807053 0.032502376 -0.03386397
0.012485319 0.06709262 0.005904552 -0.057079446 0.011470265 -0.08256693 -0.033326894 0.026063863
0.07422207 0.05541476 -0.006653196 -0.060884576 0.033495903 0.027287588 -0.053458177 -0.007039735
0.0421037 -0.086377844 -0.060830977 0.0027965065 0.04388112 0.05535627 -0.03322097 -0.031397738
0.042441297 0.025490772 0.023566484 -0.087960586 -0.06746597 -0.010993362 -0.08465286 0.014681201
0.030710943 0.02904057 0.055138644 0.0032900462 -0.06536119 -0.040293578 -0.05847262 -0.03541456
0.06625319 0.03260618 -0.07599292 -0.016870625 0.02255205 -0.033365257 -0.07105496 -0.065882005
0.041092798 -0.019353759 0.04086123 0.03217166 -0.039461367 -0.00998874 0.053633098 0.055614147
-0.003815038 -0.049725167 0.052109774 -0.0076859095 -0.050510045 0.04200279 -0.02941653 -0.08643721
-0.013001457 -0.043860655 -0.0034526694 0.116160266 -0.059081744 -0.14926663 -0.048119206 -0.09374666
-0.0060014767 -0.06481324 -0.022911279 -0.03187527 -0.042041235 -0.11907834 0.12362388 0.131147
-0.060277138 -0.031484354 -0.005634021 -0.09994431 0.085894406 0.047058314 -0.089549944 -0.06188691
-0.104195066 -0.08521472 -0.043351922 -0.096562445 -0.045482095 -0.10926164 0.083318904 -0.11736393
-0.069240235 -0.039791357 -0.09024292 -0.06273423 -0.079599924 -0.08841623 0.058273613 0.043286856
-0.04404753 -0.016008943 -0.01868172 -0.050115258 -0.13230191 -0.055912334 -0.06815694 -0.13332814
-0.018057698 -0.11193535 -0.026502172 -0.028572582 -0.15125155 -0.043312076 -0.037114915 -0.07048459
-0.06449976 -0.033601698 0.12670913 0.0053038625 -0.077730134 -0.11331092 -0.10378829 -0.10127126
-0.020585477 -0.07511698 -0.1050877 -0.09979811 0.05573616 -0.110951506 -0.0904241 -0.12180089
0.07475307 -0.1573437 -0.067278884 0.13020979 -0.17090446 -0.016525086 -0.04957567 0.0016154676
-0.07634202 -0.07394464 -0.07954515 0.006916003 -0.018106887 -0.15855335 -0.07386743 -0.016893625
0.047301564 -0.11679064 -0.09145579 0.14073345 0.004030956 -0.065864705 -0.11466428 -0.039729092
-0.03774974 -0.017317528 -0.078230724 0.06520407 -0.042020127 -0.044358607 -0.13688637 0.13544185
-0.0779577 -0.13874406 -0.0051071234 -0.03570154 0.12562719 -0.058254443 -0.06704477 0.023500185
0.030394359 -0.15380327 -0.05055488 -0.044821646 0.1280485 0.07710233 -0.077221364 -0.05628485
0.08182374 -0.02890183 -0.063284494 -0.1255258 -0.04324179 0.007400449 -0.053987943 0.004079221
00000000: 2004 38bd c33c 21bd e25f 1dbd d274 45bd
00000010: 36c0 8d3d 14fc 4d3d b731 87bd 54a7 2bbb
00000020: 3b47 223d 49bb 4a3d 6f2e 44bc 4c35 973d
00000030: e738 e33c bcdd abbd cf8d bb3c b2ff 8ebd
00000040: b1f9 8e3d c5db aa3b a280 9fbc f99c a9bc
00000050: 3800 993d 1587 e3bc da0e 563d 1f92 6dbc
00000060: 890b a03d 11e5 013d b81c 9e3d c6ea a93d
00000070: a769 51bb 5ef0 a4bd 3dc5 6ebd ae6f 133d
00000080: d92b 2b3c 3170 2ebd fc79 c43c 326e 293d
00000090: 678b a8bd f9b7 a13c f552 87bd ab2f 9ebd
000000a0: 3667 94bc 3223 5abd 7212 5ebd b0e0 5abc
000000b0: 8621 433d ee61 aabd 7ff1 573d 367c ae3d
000000c0: 19a8 47bd 822e 773d 60f6 f1bb 1cf4 63b9
000000d0: 251e 9bbc 20cb 96bd 463c 49bd 447e 823c
000000e0: 4d4a 1abd cd46 81bd 9743 1d3d 4ae8 b2bd
000000f0: 0efa 303d aadf 70bd 3621 053d f2b4 0abd
00000100: 398f 4c3c db67 893d f97a c13b 23cc 69bd
00000110: c7ed 3b3c da18 a9bd c881 08bd e283 d53c
00000120: be01 983d 96fa 623d 0e03 dabb 1b62 79bd
00000130: 0033 093d 388a df3c f6f6 5abd 94ad e6bb
00000140: ee74 2c3d dee6 b0bd e729 79bd 9845 373b
00000150: b0bc 333d 42bd 623d b612 08bd ea9a 00bd
00000160: edd6 2d3d 06d2 d03c 800e c13c ae24 b4bd
00000170: 992b 8abd 811d 34bc 7b5e adbd 6c89 703c
00000180: 8495 fb3c 7de6 ed3c 0fd9 613d d19d 573b
00000190: 16dc 85bd e10a 25bd fc80 6fbd dc0e 11bd
000001a0: c1af 873d 0f8e 053d 2da2 9bbd 4434 8abc
000001b0: 14bf b83c 02aa 08bd 4385 91bd 25ed 86bd
000001c0: ec50 283d c68b 9ebc 1b5e 273d 6ec6 033d
000001d0: 3ea2 21bd d0a7 23bc 61ae 5b3d a9cb 633d
000001e0: b705 7abb 9eac 4bbd 0f71 553d 15da fbbb
000001f0: 9fe3 4ebd 1e0b 2c3d effa f0bc fe05 b1bd
00000200: 1004 55bc 3ba7 33bd 2e46 62bb 6fe5 ed3d
00000210: b3ff 71bd 5ad9 18be a518 45bd 40fe bfbd
00000220: 09a8 c4bb cebc 84bd 6fb0 bbbc a58f 02bd
00000230: 6e33 2cbd 58df f3bd 842e fd3d 664b 063e
00000240: 29e5 76bd bdf5 00bd 989d b8bb 9aaf ccbd
00000250: 68e9 af3d 38c0 403d f665 b7bd 217d 7dbd
00000260: 3964 d5bd 0e85 aebd c991 31bd 88c2 c5bd
00000270: 6f4b 3abd 91c4 dfbd 1aa3 aa3d 805c f0bd
00000280: d3cd 8dbd 43fc 22bd 48d1 b8bd ce7a 80bd
00000290: 4905 a3bd 9213 b5bd 50b0 6e3d 8f4d 313d
000002a0: 2f6b 34bd 3025 83bc 680a 99bc a845 4dbd
000002b0: 277a 07be 5504 65bd de95 8bbd 2c87 08be
000002c0: bded 93bc 5c3e e5bd 151b d9bc 0c11 eabc
000002d0: b0e1 1abe 0168 31bd cf05 18bd 3a5a 90bd
000002e0: 7318 84bd efa1 09bd 0ac0 013e 06cc ad3b
000002f0: fa30 9fbd 8e0f e8bd f48e d4bd 4e67 cfbd
00000300: e0a2 a8bc eed6 99bd 3838 d7bd f462 ccbd
00000310: 9a4b 643d 8b3a e3bd 4530 b9bd bf72 f9bd
00000320: 2318 993d b51e 21be 83c9 89bd b755 053e
00000330: 9401 2fbe 9e5f 87bc dc0f 4bbd 19be d33a
00000340: 3459 9cbd 4a70 97bd 91e8 a2bd a39f e23b
00000350: e554 94bc cf5b 22be cf47 97bd 8064 8abc
00000360: 49bf 413d ee2f efbd 2c4d bbbd 6e1c 103e
00000370: 1c16 843b 13e4 86bd 1bd5 eabd f9ba 22bd
00000380: 799f 1abd 7ddd 8dbc 6e37 a0bd b689 853d
00000390: 4c1d 2cbd 5fb1 35bd f12b 0cbe 45b1 0a3e
000003a0: 49a8 9fbd ec12 0ebe a859 a7bb c73b 12bd
000003b0: 6aa4 003e 369c 6ebd c54e 89bd 7683 c03c
000003c0: 97fd f83c 9b7e 1dbe a212 4fbd e796 37bd
000003d0: 251f 033e d4e7 9d3d 3c26 9ebd f18a 66bd
000003e0: 3493 a73d 88c3 ecbc 4d9b 81bd d689 00be
000003f0: 4e1e 31bd 777f f23b 7622 5dbd fcaa 853b

hidden_layer2.bias f4 [64]
-0.06745525 -0.02744635 0.015374166 0.003972827 -0.021476634 -0.122942455 -0.112327956 -0.1370188
-0.13104856 0.0034476814 -0.052660085 -0.0920063 -0.1292222 -0.039050106 0.13835776 -0.06538696
-0.053370144 -0.10247027 -0.0145859625 -0.08215491 -0.10912409 0.05476315 -0.0070109433 -0.05746386
-0.12911005 -0.016872706 -0.030296277 -0.03305423 -0.0057944763 -0.020232657 -0.039702486 -0.11233054
-0.12010539 -0.005415232 -0.14201227 -0.03357064 -0.15880342 -0.06124569 -0.14781839 -0.19504906
-0.0020319696 -0.0987754 -0.11905483 -0.13577278 -0.027966004 0.027294766 -0.01140087 0.4368718
0.006971745 -0.07697331 -0.07801993 -0.08468384 -0.07985784 -0.09795704 -0.17715633 -0.03865487
-0.01792806 -0.08923194 -0.059986144 -0.0031746626 -0.056118373 -0.16525424 0.0053267935 -0.14341325
00000000: fa25 8abd 2bd7 e0bc ede3 7b3c 7d2e 823b
00000010: c4ef afbc 41c9 fbbd 330c e6bd a84e 0cbe
00000020: 9831 06be 7ff2 613b 1ab2 57bd cd6d bcbd
00000030: d352 04be 01f3 1fbd a8ad 0d3e 99e9 85bd
00000040: a79a 5abd efdb d1bd f6f9 6ebc d540 a8bd
00000050: 737c dfbd 534f 603d 0ebc e5bb 395f 6bbd
00000060: 6d35 04be a138 8abc e62f f8bc df63 07bd
00000070: 97df bdbb f5be a5bc 139f 22bd 8e0d e6bd
00000080: d1f9 f5bd 4272 b1bb aa6b 11be 5e81 09bd
00000090: 5d9d 22be c3dc 7abd b45d 17be f1ba 47be
000000a0: cb2a 05bb c24a cabd 05d3 f3bd 0508 0bbe
000000b0: f618 e5bc 4699 df3c b7ca 3abc a9ad df3e
000000c0: 3c73 e43b 2fa4 9dbd eac8 9fbd b96e adbd
000000d0: 828c a3bd b39d c8bd 7868 35be 9254 1ebd
000000e0: dedd 92bc 3cbf b6bd 08b4 75bd 000e 50bb
000000f0: 61dc 65bd 6838 29be 628c ae3b ecda 12be

output_layer.weight f4 [2, 64]
0.021771029 0.025103325 0.0014628354 -0.0065515647 -0.09024527 -0.007540429 0.053766582 -0.011326601
0.079554416 0.019895898 0.06489553 0.017678577 0.08349555 0.02648744 0.39587313 0.013399294
0.01033057 -0.08557687 0.082177036 0.15756796 -0.026883813 -0.007021551 -0.064920925 0.10187419
0.025228508 -0.010676251 -0.14113843 0.016566064 -0.027695665 -0.06992546 0.113884516 0.014435266
0.0053009856 0.12199904 -0.017580345 0.03983276 -0.010832123 -0.1244753 -0.052751143 -0.061872404
0.04144069 0.020442924 0.056632143 0.003973524 -0.022094388 0.033919122 -0.124730065 -0.41567987
-0.14807265 -0.050145335 0.084517814 0.028059363 -0.004205441 0.11320646 -0.19687207 -0.008549869
0.057910584 -0.08355491 -0.039138556 -0.08832349 0.015947986 0.07262426 0.049863648 -0.013243067
0.021014124 -0.06537344 -0.11756226 -0.050727356 0.0054423236 0.0019699943 -0.0038565204 0.05487741
-0.13630345 -0.03370146 -0.024769891 -0.023788929 0.10885696 -0.053904988 -0.3553348 0.031837728
0.12653375 -0.036251962 -0.01742212 0.055114895 0.018147338 0.01405238 -0.1636011 0.060661092
0.016633358 -0.16372642 -0.0786604 0.053870097 -0.010778836 0.034852058 0.037504833 -0.062699705
0.06918229 0.057440363 -0.11869444 -0.05405829 -0.04141513 -0.010973841 -0.025754843 0.09625327
-0.017503794 0.027624404 -0.042839095 0.022871403 -0.12548275 0.10551885 0.017990217 0.43094277
-0.06205094 0.04861131 -0.09508364 0.06179179 0.026235087 0.03838344 -0.0062487847 -0.052105278
0.0040520756 -0.09864697 0.011163486 -0.04622007 -0.11311269 0.015695343 0.13998957 -0.014875318
00000000: 2859 b23c 7da5 cd3c 9cbc bf3a 82ae d6bb
00000010: 83d2 b8bd b415 f7bb 593a 5c3d 3593 39bc
00000020: 6ded a23d b9fc a23c f3e7 843d aad2 903c
00000030: b7ff aa3d 30fc d83c e2af ca3e b688 5b3c
00000040: 8d41 293c ed42 afbd 6f4c a83d 7f59 213e
00000050: 713b dcbc 0a15 e6bb 43f5 84bd 6aa3 d03d
00000060: 04ac ce3c 71eb 2ebc 9886 10be 8eb5 873c
00000070: 05e2 e2bc 1435 8fbd 493c e93d e581 6c3c
00000080: e4b3 ad3b a2da f93d a804 90bc ad27 233d
00000090: 3879 31bc e8ec febd 9511 58bd eb6d 7dbd
000000a0: b7bd 293d eb77 a73c 1bf7 673d 5634 823b
000000b0: 4aff b4bc c7ee 0a3d 7a72 ffbd fed3 d4be
000000c0: 5ba0 17be 3265 4dbd ad17 ad3d c0dc e53c
000000d0: cccd 89bb cad8 e73d d598 49be c014 0cbc
000000e0: a633 6d3d d61e abbd c04f 20bd f2e2 b4bd
000000f0: 5aa5 823c 07bc 943d d33d 4c3d 73f9 58bc
00000100: d025 ac3c 83e2 85bd 7bc4 f0bd 7dc7 4fbd
00000110: 8555 b23b 051b 013b adbd 7cbb 23c7 603d
00000120: 2293 0bbe 8b0a 0abd 3aea cabc 00e1 c2bc
00000130: 66f0 de3d 7acb 5cbd 71ee b5be 4768 023d
00000140: 1092 013e f07c 14bd d5b8 8ebc 28c0 613d
00000150: baa9 943c f43b 663c 0c87 27be c477 783d
00000160: ae42 883c e6a7 27be b418 a1bd e4a6 5c3d
00000170: b799 30bc 08c1 0e3d ab9e 193d b468 80bd
00000180: 72af 8d3d 9646 6b3d 1216 f3bd 3a6c 5dbd
00000190: e9a2 29bd a0cb 33bc d2fb d2bc 6f20 c53d
000001a0: 1e64 8fbc 934c e23c 0c78 2fbd cf5c bb3c
000001b0: 8d7e 00be 441a d83d 3860 933c 88a4 dc3e
000001c0: 2029 7ebd a71c 473d 36bb c2bd 6319 7d3d
000001d0: f7ea d63c f437 1d3d 9bc2 ccbb 586c 55bd
000001e0: 46c7 843b 6c07 cabd 0ee7 363c 4251 3dbd
000001f0: a0a7 e7bd 8593 803c 6d59 0f3e 9bb7 73bc

output_layer.bias f4 [2]
-0.24434598 0.3290082
00000000: d535 7abe c373 a83e
