cartpole_rf_results/num_episodes=3000_alpha_policy=0.01_alpha_value=0.001_gamma=0.99_reward_scale=0.005/policy_net.pth (torch, 38822 bytes, 6 tensors)

hidden_layer1.weight f4 [128, 4]
-0.006027163 -0.27057683 -0.5852857 -0.5232697 0.3783745 -0.4706642 -0.4185529 -0.46893612
0.2644383 -0.14300112 0.28029832 -0.18556067 0.039151154 -0.6023278 -0.62455356 -0.17181663
0.37097886 0.35472628 0.9653936 0.326929 0.51003873 0.27099037 0.872711 0.62630254
-0.3515458 -0.3189434 -0.48731974 0.2399657 0.51069695 0.4439774 0.16150397 0.665757
0.4987792 -0.029406471 0.9878672 0.5009648 -0.29569712 0.25369954 0.12548432 -0.42085126
-0.26883015 -0.17098477 0.525201 0.38466743 -0.0760475 -0.161361 0.334183 -0.1725898
-0.49404287 0.15001155 0.3655983 0.46027434 0.6098975 0.0030002086 0.5781486 0.20485254
-0.07278565 0.016247291 -0.09355627 -0.45513707 0.6602421 -0.21243602 -0.054226223 -0.093140304
-0.103102684 0.01760614 -0.1323471 -0.08643496 -0.38265568 -0.15859528 -0.52477044 0.2831502
0.5116137 -0.30770183 0.36956877 -0.05733507 0.26124853 -0.5044403 -0.5410837 -0.34417415
-0.3568125 -0.051694702 -0.40529925 0.7266804 -0.35809025 0.20014675 -0.43942678 0.12276592
0.42813176 -0.07400686 0.580238 0.5118595 0.4165461 -0.31471452 -1.128427 -0.33454302
0.24282986 -0.32222158 -0.5370233 -0.5540445 0.23830792 0.22160164 -0.70122004 -0.53595257
0.1355789 -0.34319398 -0.22454455 -0.3738208 0.20282106 -0.1596366 -0.4011659 -0.82168186
-0.37583062 0.14826229 0.023568148 -0.31118673 -0.1992952 -0.23848255 0.26113433 -0.23109405
-0.4714474 -0.11524984 0.43743548 -0.26447737 -0.3287607 -0.2884409 -0.2682166 0.1882244
0.22911121 -0.112571046 -0.013686188 -0.4989524 0.04208515 -0.10636234 -0.30196914 -0.7084984
0.5399958 0.2877349 0.9999461 0.52714205 0.39697772 -0.4291233 -0.005437126 -0.3963908
0.4381416 0.27192613 0.430584 0.3915471 0.20522647 -0.42507383 -1.2206353 -0.6768076
0.37416208 0.44894433 0.28671703 0.5451807 0.16394982 -0.27924627 0.017620053 0.1754859
0.21101207 -0.1269644 -0.5403219 -0.9493161 0.40046623 -0.5222152 -0.36052895 -0.8276949
0.42507803 -0.41299066 -0.5318672 -0.29894784 -0.31779012 0.32307762 0.18821359 -0.028688451
0.2916579 -0.31394285 -0.7450889 -0.6078525 -0.02147896 0.23294704 -0.68261045 -0.4440617
0.22403902 -0.3228976 -0.13086802 -0.12305794 -0.40431207 -0.094872236 0.15951614 0.0051908777
-0.13151099 0.25324836 0.18353434 0.010237742 -0.26034704 0.11631829 0.3832485 -0.25841528
0.30129135 -0.18008396 -0.27557245 -0.323154 -0.2075363 -0.16106358 0.31468338 0.31989887
0.06644693 -0.1544645 0.10250157 0.12602739 0.34230945 0.2741197 1.0083181 0.42243522
0.52856654 0.63339496 0.41981906 0.3827221 -0.206888 0.19324511 -0.4400422 -0.40767965
-0.051321626 0.08859253 -0.4574991 0.14604211 -0.017709486 -0.1476395 -0.006732702 -0.094481155
-0.13264918 -0.016018106 0.93137956 0.6086002 0.27732605 -0.3473229 -0.5716425 0.26398882
0.021352274 0.35905215 -0.29370302 0.1136594 -0.42290613 0.1298061 -0.047679108 -0.36159977
-0.14893894 0.16521324 0.38564414 -0.19071811 -0.5311851 -0.3548114 0.5354256 0.28288963
00000000: 827f c5bb 0c89 8abe 49d5 15bf 01f5 05bf
00000010: 4dba c13e e6fa f0be 914c d6be 6518 f0be
00000020: 7564 873e e36e 12be 4383 8f3e 9e03 3ebe
00000030: f65c 203d 2832 1abf bee2 1fbf b3f0 2fbe
00000040: f1f0 bd3e af9e b53e 0924 773f 3d63 a73e
00000050: e691 023f 40bf 8a3e fd69 5f3f 5d55 203f
00000060: d0fd b3be 8d4c a3be f981 f9be 92b9 753e
00000070: 09bd 023f 0151 e33e 4c61 253e 0d6f 2a3f
00000080: fd5f ff3e d7e5 f0bc dde4 7c3f 3b3f 003f
00000090: 9d65 97be e8e4 813e f67e 003e d179 d7be
000000a0: 1ba4 89be a216 2fbe 9373 063f 21f3 c43e
000000b0: cbbe 9bbd d13b 25be 091a ab3e 61bb 30be
000000c0: 30f3 fcbe a19c 193e b32f bb3e 14a9 eb3e
000000d0: 3e22 1c3f 269f 443b 8c01 143f ddc4 513e
000000e0: a510 95bd 0a19 853c 6e9a bfbd ba07 e9be
000000f0: a005 293f d488 59be 511c 5ebd 58c0 bebd
00000100: 8027 d3bd c03a 903c 0086 07be d004 b1bd
00000110: 72eb c3be cd66 22be 5b57 06bf 10f9 903e
00000120: 1ef9 023f 188b 9dbe 1e38 bd3e 2ed8 6abd
00000130: 5ec2 853e 0023 01bf 7684 0abf 9837 b0be
00000140: 21b0 b6be d3bd 53bd 6283 cfbe ba07 3a3f
00000150: 9b57 b7be 45f3 4c3e 8cfc e0be b36c fb3d
00000160: 1634 db3e e990 97bd 7a8a 143f 3909 033f
00000170: 8845 d53e 4322 a1be 4c70 90bf 3949 abbe
00000180: 64a8 783e 3afa a4be 5c7a 09bf dcd5 0dbf
00000190: fe06 743e 8aeb 623e 2883 33bf 3034 09bf
000001a0: 32d5 0a3e 1fb7 afbe 02ef 65be 7165 bfbe
000001b0: 53b0 4f3e c777 23be 9e65 cdbe be59 52bf
000001c0: df6c c0be 12d2 173e fd11 c13c de53 9fbe
000001d0: 0a14 4cbe c534 74be 66b3 853e eba3 6cbe
000001e0: 8e61 f1be 1c08 ecbd 8bf7 df3e 9469 87be
000001f0: 5353 a8be 87ae 93be b053 89be e6bd 403e
00000200: 219c 6a3e a68b e6bd 083c 60bc b076 ffbe
00000210: 7a61 2c3d 80d4 d9bd b39b 9abe 2760 35bf
00000220: 2a3d 0a3f fd51 933e 78fc 7f3f c8f2 063f
00000230: aa40 cb3e 0db6 dbbe eb29 b2bb bcf3 cabe
00000240: 1954 e03e e739 8b3e 8275 dc3e dd78 c83e
00000250: e326 523e 47a3 d9be c73d 9cbf 4343 2dbf
00000260: 2c92 bf3e 08dc e53e 93cc 923e f690 0b3f
00000270: 76e2 273e 5ef9 8ebe ee57 903c 93b2 333e
00000280: 8c13 583e f502 02be 8952 0abf 6106 73bf
00000290: e909 cd3e e5af 05bf 4097 b8be d0e3 53bf
000002a0: d4a3 d93e 8373 d3be 7328 08bf b10f 99be
000002b0: 63b5 a2be 6e6a a53e 10bb 403e 0b04 ebbc
000002c0: 2f54 953e 1ebd a0be 25be 3ebf 399c 1bbf
000002d0: a5f4 afbc ab89 6e3e 8fbf 2ebf 0e5c e3be
000002e0: 7c6a 653e d652 a5be 4402 06be cd05 fcbd
000002f0: fe01 cfbe 604c c2bd 3358 233e 3d18 aa3b
00000300: d1aa 06be c5a9 813e 6df0 3b3e 34bc 273c
00000310: 354c 85be 4938 ee3d 2639 c43e 024f 84be
00000320: dc42 9a3e ee67 38be d517 8dbe 7174 a5be
00000330: 6584 54be daed 24be 2e1e a13e c9c9 a33e
00000340: 5415 883d f12b 1ebe 58ec d13d 530d 013e
00000350: 2f43 af3e 6b59 8c3e 9110 813f 6e49 d83e
00000360: 2350 073f 2c26 223f 86f2 d63e 27f4 c33e
00000370: 73da 53be 0ce2 453e 364d e1be 63bb d0be
00000380: a036 52bd 0070 b53d 523d eabe 108c 153e
00000390: 7c13 91bc cf2e 17be ff9d dcbb 567f c1bd
000003a0: 30d5 07be 6738 83bc e46e 6e3f 39cd 1b3f
000003b0: aefd 8d3e 4fd4 b1be 2a57 12bf 8b29 873e
000003c0: f7ea ae3c afd5 b73e 3e60 96be 42c6 e83d
000003d0: 2787 d8be e4eb 043e 2b4b 43bd 9b23 b9be
000003e0: 7383 18be a92d 293e 2673 c53e 9c4b 43be
000003f0: bffb 07bf d7a9 b5be a711 093f e9d6 903e

hidden_layer1.bias f4 [128]
0.35010067 0.21421413 -0.4719845 -0.12767203 -0.1030828 -0.16546367 -0.48442298 -0.16335785
0.057120435 -0.43211132 -0.016407743 -0.12784551 0.19230178 0.1269266 -0.14047745 0.20401621
-0.33674783 -0.298023 -0.33271366 0.054715484 -0.25413465 -0.14436908 -0.44160956 0.22288145
0.19682454 0.11959177 0.27053544 0.1890095 -0.59294295 0.1555761 -0.32431707 -0.48693746
-0.28815395 0.2281322 -0.026857058 -0.074627966 0.040272556 0.3260333 0.18102385 -0.4493695
0.22713651 0.21296942 0.07117485 -0.35303164 0.21342044 0.076129906 -0.23989809 -0.3560464
-0.36671203 -0.31358856 0.18245597 0.0026560125 -0.27951145 0.33488813 -0.15927577 -0.21722373
-0.200064 -0.5004281 0.27300587 -0.606193 -0.27087012 -0.0656856 -0.26401988 -0.23929623
-0.41528705 0.31526077 0.025650293 -0.10982145 -0.16390881 0.07841492 0.14679836 0.23559985
-0.31048423 0.072845474 0.39285883 0.13766246 -0.09541551 -0.1382651 0.1329098 -0.2946035
0.13800395 0.16392107 0.24494417 -0.1786235 -0.022396758 -0.51148534 -0.12677595 -0.53529143
-0.5661103 -0.20154573 -0.61291325 -0.16595688 -0.12550668 -0.35070395 0.15011717 -0.61464125
-0.5190291 0.010275925 -0.0769527 -0.3319203 -0.041013405 0.27054858 -0.2641474 0.36173496
0.14294203 -0.0461273 0.16238733 0.07129768 -0.067899525 -0.28230068 -0.48343545 0.1737921
-0.45860514 0.26465258 0.116110496 -0.26449487 -0.43595463 -0.21805352 -0.5564484 0.19049075
0.19260952 -0.18887112 0.2667085 -0.4351646 -0.17617573 -0.054318678 0.20827708 -0.24719588
00000000: 6540 b33e f35a 5b3e f4a7 f1be 75bc 02be
00000010: 131d d3bd 4f6f 29be 4a06 f8be 4847 27be
00000020: 1ef7 693d b23d ddbe 8869 86bc efe9 02be
00000030: c2ea 443e 0cf9 013e 52d9 0fbe a0e9 503e
00000040: 366a acbe 7896 98be 7259 aabe 581d 603d
00000050: f01d 82be 7dd5 13be a61a e2be 093b 643e
00000060: 5f8c 493e 88ec f43d 9f83 8a3e b58b 413e
00000070: 1ccb 17bf 574f 1f3e e30c a6be de4f f9be
00000080: ea88 93be 7d9b 693e 5503 dcbc 8cd6 98bd
00000090: d6f4 243d d6ed a63e 515e 393e c213 e6be
000000a0: 7996 683e a814 5a3e 1fc4 913d 90c0 b4be
000000b0: e38a 5a3e ffe9 9b3d d8a7 75be b74b b6be
000000c0: aec1 bbbe ae8e a0be bdd5 3a3e 7f10 2e3b
000000d0: 201c 8fbe 7576 ab3e 3019 23be e66f 5ebe
000000e0: 94dd 4cbe 0e1c 00bf 6dc7 8b3e 772f 1bbf
000000f0: 7daf 8abe 2c86 86bd 9d2d 87be 120a 75be
00000100: 81a0 d4be dc69 a13e 9020 d23c 12ea e0bd
00000110: b6d7 27be 0098 a03d 4f52 163e 1641 713e
00000120: caf7 9ebe 0230 953d cb24 c93e 63f7 0c3e
00000130: 3569 c3bd 5e95 0dbe 8219 083e 45d6 96be
00000140: e850 0d3e edda 273e a5d2 7a3e 14e9 36be
00000150: 6879 b7bc b4f0 02bf 8ed1 01be dc08 09bf
00000160: 9bec 10bf 0162 4ebe e2e7 1cbf 9af0 29be
00000170: d384 00be 788f b3be 51b8 193e 2159 1dbf
00000180: 17df 04bf 5a5c 283c 6199 9dbd 75f1 a9be
00000190: acfd 27bd 5885 8a3e 543e 87be 5335 b93e
000001a0: 655f 123e fbef 3cbd dd48 263e 8504 923d
000001b0: e80e 8bbd b789 90be da84 f7be 8ef6 313e
000001c0: 4bce eabe 8b80 873e 57cb ed3d df6b 87be
000001d0: 7235 dfbe 6c49 5fbe 6773 0ebf 0210 433e
000001e0: 6e3b 453e 6e67 41be 048e 883e e5cd debe
000001f0: 6967 34be 437d 5ebd 9646 553e eb20 7dbe

hidden_layer2.weight f4 [64, 128]
0.02953364 0.07040968 0.0862047 0.014941574 -0.082738034 -0.059628896 0.025150724 0.021392623
0.04170116 -0.011310575 -0.0068271826 -0.055896267 -0.08316385 -0.12509555 -0.06079999 -0.026791282
-0.05241343 0.00074517383 -0.050086733 -0.029153321 0.062747866 -0.0741774 0.0033563736 0.018387508
0.07645763 -0.04628851 -0.017654985 0.01621591 -0.059818707 -0.15049464 0.0036941443 0.01633749
0.08121253 0.03601694 0.003339529 0.023525516 0.027415687 -0.037907925 -0.066693805 -0.019243028
-0.04709391 0.005459812 -0.101856016 -0.0035672898 -0.02588097 -0.0009294754 -0.009478302 0.10097726
0.0012881235 -0.0086918855 -0.01251482 -0.047268335 -0.03714951 -0.028326536 -0.12414021 0.043795496
0.066431 -0.06903189 -0.084389046 -0.065680735 -0.052054543 0.106704056 -0.025114367 0.009977988
-0.054459635 -0.045584578 -0.011696482 0.011409091 -0.0121011 0.016854001 0.04747261 -0.044033043
-0.08285939 0.006693415 -0.028093891 -0.062219 -0.10911451 -0.13309218 0.04844074 -0.08528271
0.035998583 -0.07734373 -0.12738273 -0.01933552 -0.033306934 0.03272089 0.0343702 -0.025587056
-0.019466912 0.07003169 -0.02426187 0.031813234 -0.09650803 -0.0133639425 -0.079761006 0.016585723
0.019129328 0.013840094 -0.061339017 -0.0543816 -0.069166034 0.040218398 0.09291551 -0.1169869
-0.054819018 -0.098533995 -0.046073116 -0.020539101 -0.07756106 -0.06688551 0.07916096 0.021471305
0.035491582 -0.06841543 -0.031967327 -0.0008670797 0.005294094 -0.0047309045 0.044919435 -0.040344793
0.023048507 0.0071504023 -0.10267386 0.07999098 0.037047412 -0.06674817 0.08712676 0.017133377
-0.0044466564 0.094654605 0.083733365 0.067658186 0.1037934 -0.13055897 -0.16561306 -0.07821964
-0.016421475 -0.0035786934 0.019574936 -0.0026522866 -0.073726654 -0.017509172 0.08123169 0.00954867
0.087445356 -0.097424895 -0.047412056 -0.11595142 -0.004996413 -0.051026817 -0.124835245 -0.0531
-0.0594183 0.073456325 -0.109421976 -0.08769793 0.007144463 -0.110845745 0.12222553 -0.039570168
-0.01037252 -0.085209645 -0.14762668 0.010086452 -0.04623721 0.0027279977 -0.088950634 -0.07758261
0.031307507 -0.03733123 -0.025413595 -0.0075121266 0.034883883 0.071495906 -0.1177192 0.11049488
0.024117284 0.056353573 -0.1090265 -0.03830956 -0.13931212 -0.074303195 -0.030980723 0.069179475
-0.036009625 -0.11170874 -0.02580452 -0.0993925 -0.033150773 0.06885282 -0.0340746 -0.10641473
-0.07418861 -0.15475345 0.08531111 -0.011475727 0.0068371003 -0.024435738 0.062247768 -0.09752125
0.0059290207 -0.0012052734 -0.090594865 -0.025646769 -0.109059334 -0.023669692 0.056687344 -0.096090145
-0.07029554 -0.05626852 -0.13236503 -0.13121836 0.0205094 0.16513552 0.007781959 0.084906906
-0.033242453 0.07764512 0.13693793 -0.009106697 -0.098017156 0.1274323 -0.057789616 -0.056497976
-0.11772659 -0.029243622 -0.13533522 -0.15171218 0.026238345 -0.021314854 0.06570014 -0.11901705
-0.01767364 -0.06697199 -0.14564776 0.050576977 -0.0018867557 0.057799313 -0.05354683 -0.05558749
0.090108536 0.0383247 0.0048432853 0.053493205 0.11923296 -0.0802611 0.13400577 -0.078613944
-0.05327582 -0.006289985 0.057516385 -0.02772091 -0.0046317223 0.0973943 -0.06845657 -0.03339561
00000000: 88f0 f13c f332 903d 178c b03d 81cd 743c
00000010: 8f72 a9bd 6e3d 74bd e408 ce3c 953f af3c
00000020: d6ce 2a3d fd4f 39bc 8fb6 dfbb 7cf3 64bd
00000030: cf51 aabd 0c19 00be 6909 79bd 6479 dbbc
00000040: 77af 56bd c557 433a bf27 4dbd f2d2 eebc
00000050: f481 803d 52ea 97bd 9bf6 5b3b 66a1 963c
00000060: d195 9c3d 0599 3dbd 30a1 90bc 3ad7 843c
00000070: 7604 75bd 441b 1abe 7519 723b 33d6 853c
00000080: c152 a63d 8086 133d 00dc 5a3b 95b8 c03c
00000090: dd96 e03c 5745 1bbd c396 88bd 8ea3 9dbc
000000a0: 8be5 40bd 39e8 b23b e399 d0bd 31c9 69bb
000000b0: 5404 d4bc 0aa8 73ba e14a 1bbc 2acd ce3d
000000c0: 41d6 a83a 6968 0ebc f60a 4dbc 719c 41bd
000000d0: 162a 18bd 0d0d e8bc 393d febd e862 333d
000000e0: fa0c 883d 9760 8dbd 2ad4 acbd 9f83 86bd
000000f0: 2537 55bd a887 da3d a5bc cdbc b77a 233c
00000100: 1111 5fbd e5b6 3abd 9aa2 3fbc 32ed 3a3c
00000110: b143 46bc 6711 8a3c a472 423d fe5b 34bd
00000120: 2fb2 a9bd 6f54 db3b 2925 e6bc 5ad9 7ebd
00000130: 6e77 dfbd 5149 08be cc69 463d b4a8 aebd
00000140: 4073 133d 6466 9ebd 9e70 02be 8665 9ebc
00000150: da6c 08bd 5706 063d c4c7 0c3d f29b d1bc
00000160: 1379 9fbc c66c 8f3d d4c0 c6bc 984e 023d
00000170: 01a6 c5bd 70f4 5abc bd59 a3bd c8de 873c
00000180: 1cb5 9c3c 90c1 623c 9f3e 7bbd 3ebf 5ebd
00000190: eca6 8dbd 0cbc 243d 7d4a be3d d496 efbd
000001a0: e889 60bd 31cc c9bd 2ab7 3cbd 9e41 a8bc
000001b0: 55d8 9ebd 45fb 88bd 241f a23d 97e4 af3c
000001c0: 9f5f 113d 641d 8cbd 2cf0 02bd bc4c 63ba
000001d0: 147a ad3b b405 9bbb 71fd 373d 9540 25bd
000001e0: 39d0 bc3c ec4d ea3b ac46 d2bd 50d2 a33d
000001f0: 07bf 173d 44b3 88bd 846f b23d 4c5b 8c3c
00000200: 42b5 91bb 46da c13d 667c ab3d 6090 8a3d
00000210: a291 d43d 40b1 05be 7896 29be 9e31 a0bd
00000220: 5486 86bc 8388 6abb 9e5b a03c fcd1 2dbb
00000230: 00fe 96bd 656f 8fbc cd5c a63d 0672 1c3c
00000240: 8d16 b33d b486 c7bd 2533 42bd f077 edbd
00000250: f3b8 a3bb 7f01 51bd 9fa9 ffbd 637f 59bd
00000260: 9a60 73bd 4570 963d a118 e0bd f99a b3bd
00000270: 191c ea3b 1803 e3bd 6151 fa3d 5414 22bd
00000280: 81f1 29bc 6582 aebd 732b 17be a541 253c
00000290: 3b63 3dbd 35c8 323b c02b b6bd a2e3 9ebd
000002a0: 4d3c 003d a2e8 18bd 2c30 d0bc 4928 f6bb
000002b0: 67e2 0e3d 726c 923d c416 f1bd 244b e23d
000002c0: 9c91 c53c 01d3 663d 4949 dfbd 7cea 1cbd
000002d0: d6a7 0ebe 462c 98bd 49cb fdbc f8ad 8d3d
000002e0: d47e 13bd 8dc7 e4bd 0064 d3bc 4c8e cbbd
000002f0: 1bc9 07bd b502 8d3d cf91 0bbd f7ef d9bd
00000300: 33f0 97bd b077 1ebe 97b7 ae3d b004 3cbc
00000310: c109 e03b 752d c8bc 84f7 7e3d 39b9 c7bd
00000320: 3b48 c23b 44fa 9dba cd89 b9bd 2c19 d2bc
00000330: 805a dfbd f1e6 c1bc fd30 683d e9ca c4bd
00000340: 1cf7 8fbd d279 66bd b38a 07be 1b5e 06be
00000350: 5403 a83c 4919 293e ceff fe3b ace3 ad3d
00000360: 3d29 08bd 6804 9f3d 7539 0c3e 4134 15bc
00000370: 38bd c8bd 9d7d 023e ceb4 6cbd 6c6a 67bd
00000380: a31a f1bd 5290 efbc 5195 0abe 705a 1bbe
00000390: ccf1 d63c 7d9c aebc cc8d 863d 36bf f3bd
000003a0: 4fc8 90bc 9c28 89bd b024 15be ce29 4f3d
000003b0: 044d f7ba f9be 6c3d ec53 5bbd b5af 63bd
000003c0: d38a b83d 5cfa 1c3d 6cb4 9e3b b11b 5b3d
000003d0: 6930 f43d ee5f a4bd cf38 093e 5900 a1bd
000003e0: bf37 5abd 381c cebb 4d96 6b3d f616 e3bc
000003f0: b4c5 97bb aa76 c73d f532 8cbd d6c9 08bd

hidden_layer2.bias f4 [64]
0.038814534 -0.10366485 -0.11991688 0.009841643 -0.14669362 -0.020616895 -0.057637606 -0.034028187
-0.08366403 -0.0116436025 -0.10900571 -0.028179804 -0.12075537 -0.08339802 0.008974897 -0.13164829
-0.022073234 0.022394584 -0.08543789 0.004491222 -0.06161736 -0.1013908 -0.11576873 -0.008340366
0.0015504308 -0.08116816 -0.0067585735 -0.13789682 -0.14224298 0.16879085 0.06842261 0.0022563813
0.0045267767 -0.11395717 -0.050665084 0.0980794 0.1890254 -0.06509736 -0.1140514 0.14093865
-0.054446578 -0.14086312 -0.04896205 0.027568812 -0.0047680265 -0.012354162 0.062549785 -0.14415827
-0.12806275 -0.071603246 0.11269605 0.009002558 -0.040075213 -0.12357808 2.7551982e-06 -0.039230794
0.06314722 -0.09416912 0.022643445 0.031835534 -0.018461931 -0.0264764 -0.1276959 -0.11078517
00000000: fdfb 1e3d 3d4e d4bd fb96 f5bd d83e 213c
00000010: da36 16be c3e4 a8bc 6915 6cbd 2461 0bbd
00000020: 0c58 abbd cfc4 3ebc 633e dfbd 55d9 e6bc
00000030: 974e f7bd 95cc aabd 720b 133c cfce 06be
00000040: edd2 b4bc d974 b73c 0ffa aebd 1a2b 933b
00000050: 7c62 7cbd fba5 cfbd 2818 edbd 08a6 08bc
00000060: d337 cb3a 7e3b a6bd 0677 ddbb d334 0dbe
00000070: 25a8 11be 82d7 2c3e 2721 8c3d ccdf 133b
00000080: 5b55 943b 6062 e9bd 3186 4fbd dadd c83d
00000090: e08f 413e c451 85bd c893 e9bd 3952 103e
000000a0: 6003 5fbd 6c3e 10be 6e8c 48bd fdd7 e13c
000000b0: 1b3d 9cbb 1c69 4abc 1a1a 803d 3a9e 13be
000000c0: e222 03be b9a4 92bd 30cd e63d 777f 133c
000000d0: e825 24bd 8116 fdbd f2e5 3836 78b0 20bd
000000e0: 5453 813d bddb c0bd bf7e b93c fa65 023d
000000f0: 7a3d 97bc 09e5 d8bc b7c2 02be 56e3 e2bd

output_layer.weight f4 [2, 64]
0.0054595424 -0.024063248 0.05129307 -0.013619702 -0.052886013 0.03520419 -0.05851865 0.1275237
-0.053818256 -0.05766417 -0.034080043 -0.058658205 -0.0143329045 -0.0074763983 0.053754456 0.025015887
-0.0011313292 -0.059894223 -0.06954627 0.048181407 -0.15819047 -0.053546697 -0.150062 0.06076168
-0.0878306 -0.06350713 -0.08066389 0.17339627 0.05428787 -0.37528494 0.12062159 -0.078604616
0.013112141 -0.113674216 0.011667922 0.09537044 0.07998587 -0.017056536 -0.11459345 -0.47690034
-0.012347189 0.02873169 -0.007652581 0.049337972 -0.06264637 -0.0022370482 -0.15337078 -0.057496466
0.027882474 -0.108771 0.17088912 0.026688658 -0.057071794 0.01813767 0.025304908 -0.05798418
0.10135618 -0.11349903 0.0065972353 0.06971165 0.05458532 0.08278301 -0.013107506 0.07138544
-0.009806181 0.050602473 0.1058688 0.036376927 0.07079204 -0.034689162 -0.037991785 0.06072642
0.048710544 0.025989415 0.05523292 -0.122452416 0.0047925976 0.040281385 0.058030948 0.031960893
0.0041881274 -0.031809468 0.04006639 0.06260944 -0.04056628 -0.12866925 0.038636524 0.11060423
-0.11076416 0.040125124 0.06746534 0.06337818 0.092727974 0.3350883 -0.03027533 -0.0019511104
0.04341422 -0.12099166 0.026356876 -0.15940857 -0.23773336 -0.003608819 -0.051190086 0.3094821
-0.00498185 -0.053718667 -0.041121528 0.037870347 0.03199079 0.10554466 0.23945685 0.00312943
0.11529364 0.0026937667 -0.22350562 0.07466492 0.034323037 -0.008557145 -0.02006256 -0.07033554
-0.112927675 0.030609686 0.027200693 -0.071172655 -0.14497389 -0.08963979 0.0014620377 0.07347717
00000000: f6e5 b23b 4a20 c5bc af18 523d 2c25 5fbc
00000010: 019f 58bd 4532 103d 40b1 6fbd 9395 023e
00000020: 8870 5cbd 4431 6cbd 8497 0bbd 9643 70bd
00000030: 8fd4 6abc 93fc f4bb a22d 5c3d 1eee cc3c
00000040: 1c49 94ba a553 75bd 466e 8ebd de59 453d
00000050: affc 21be c853 5bbd daa9 19be 3de1 783d
00000060: 88e0 b3bd 0710 82bd 1c33 a5bd cb8e 313e
00000070: f55c 5e3d 5925 c0be 7408 f73d 75fb a0bd
00000080: 4ed4 563c 07ce e8bd d02a 3f3c 9451 c33d
00000090: a2cf a33d 26ba 8bbc f9af eabd 482c f4be
000000a0: dd4b 4abc b95e eb3c 81c2 fabb 9d16 4a3d
000000b0: bd4c 80bd 719b 12bb 3b0d 1dbe 6a81 6bbd
000000c0: c969 e43c 54c3 debd 8ffd 2e3e 2ca2 da3c
000000d0: 1dc4 69bd 7395 943c 3d4c cf3c d280 6dbd
000000e0: d493 cf3d 2e72 e8bd 9f2d d83b fbc4 8e3d
000000f0: db94 5f3d 248a a93d ddc0 56bc 8832 923d
00000100: 1baa 20bc 8a44 4f3d bed1 d83d f9ff 143d
00000110: 6bfb 903d 3916 0ebd 469d 1bbd 44bc 783d
00000120: b584 473d c1e7 d43c ea3b 623d 55c8 fabd
00000130: 390b 9d3b 18fe 243d dcb1 6d3d 6de9 023d
00000140: 8f3c 893b a54a 02bd a81c 243d 6139 803d
00000150: d428 26bd dfc1 03be 5541 1e3d 7884 e23d
00000160: 52d8 e2bd 3e5a 243d 452b 8a3d 6bcc 813d
00000170: 2ae8 bd3d b290 ab3e f803 f8bc 67bc ffba
00000180: 1cd3 313d 7aca f7bd 60ea d73c 003c 23be
00000190: 6070 73be f081 6cbb b2ac 51bd 7074 9e3e
000001a0: c93e a3bb 1b08 5cbd 0c6f 28bd f01d 1b3d
000001b0: c608 033d cc27 d83d 2d34 753e 2017 4d3b
000001c0: 121f ec3d e889 303b a8de 64be ece9 983d
000001d0: 5096 0c3d 4433 0cbc 3d5a a4bc 140c 90bd
000001e0: a046 e7bd 2ac1 fa3c fdd3 de3c f8c2 91bd
000001f0: 0974 14be 1195 b7bd d8a1 bf3a 337b 963d

output_layer.bias f4 [2]
-0.09106989 0.13776293
00000000: da82 babd ba11 0d3e
