cartpole_rf_results/num_episodes=3000_alpha_policy=0.001_alpha_value=0.01_gamma=0.99_reward_scale=0.01/policy_net.pth (torch, 38822 bytes, 6 tensors)

hidden_layer1.weight f4 [128, 4]
00000000: 6200 ff3d 5366 bc3b c5c2 cc3b 8d06 ba3e
00000010: 6977 753e 2ddf 6fbe 5f90 fabe 8110 28be
00000020: 54d7 d23e d5b0 e03e 8b4f a23e 4e51 783e
00000030: 1b8e 1a3e a2bc 223e 7196 073f 2e6b fd3d
00000040: 205e c3be 5576 bebe d497 843e d015 553d
00000050: f478 bbbe ac41 843e 915b 203f 6a27 bd3e
00000060: 2690 b53e 5503 c63e e6bd d83e e743 fc3d
00000070: 0082 6f3d 3e07 9ebe 3eaf fcba 5747 763e
00000080: 92f5 dbbe 963f 39be b9d1 353e fa27 4abe
00000090: 92ff b1bd 849a 6d3e 2efc b23d 1a03 a9be
000000a0: 8967 d6be 3431 cdbe d376 8bbe fef5 bd3e
000000b0: efdf 8bbe e587 e03e ddfc 763e 0fee c33c
000000c0: ad07 533e 786c f23d fb39 11bf 6fe4 09bf
000000d0: 6632 d83e 8a3b 03be 2776 f6be d4ce 93be
000000e0: d6c5 853e 58ca b8be 405c f93e cb8f 11be
000000f0: ac8e ba3e d59b be3d 3802 d53d fd39 71be
00000100: 9a4e b33e 7a92 c83e 23c2 96be d052 b0be
00000110: 0916 573e f69e f03e c0c6 123f 3513 773e
00000120: 1db5 963e ae90 133e 48ff 9fbe 4efc ee3e
00000130: 7705 dfbe 1a55 c6bc 2d6a 873e f18c ffbe
00000140: f22a 5abe 7e91 d43e cfde 7ebe 3529 b13e
00000150: 6f7b 7e3e 0b7e 20be 1021 7f3e 9842 fa3e
00000160: 40a8 d03e b9ed 5e3e 8c55 173f 7b61 123f
00000170: 7b41 d43e f297 ad3e 45f6 ea3e 1c14 e2be
00000180: 22c1 a2bd c0a7 dc3d a924 bbbe 476a 763d
00000190: bb44 e7be 314f f7be 0bb0 fabe 05a3 e8bd
000001a0: 739f f9be ef35 f3bb 2ee1 193e 62a8 f23e
000001b0: 5a72 173e 4be6 8d3d e17e e7be 0c0d 84bc
000001c0: 6bc8 bcbe 737e 33bc 1e37 163f 90e0 393e
000001d0: c8f1 c33e 49bb 4abe 4d76 64be b343 acbe
000001e0: f569 5cbe 09ec 29be 8417 5ebe 0dc9 ac3e
000001f0: 8411 ac3d 876d 933d 2d46 d5be be99 c0be
00000200: 5b4b a63e 9aae ab3e 3bae 8bbe 22eb 85be
00000210: 0662 153e 9873 13be 6bb4 ac3d 01ca d33e
00000220: 4c7f 833d 617a e2be e1c4 a33e b285 833e
00000230: e876 993e a12f 27be e7fc 9d3e da52 493d
00000240: 461b 8a3e 6d48 94be 0c8a cdbd 1b5a 013f
00000250: 5f79 86be d4a6 09b9 2b79 09be 438b dfbd
00000260: e9ea 023e 2d47 b8be aef5 78be d65a 483e
00000270: 8fb9 fb3e 1255 f93d 1435 f53e 03ba dfbd
00000280: 4b4b aa3e ee3b 56bd 7fcc 0abe 3824 d03e
00000290: 90c5 e1be 0c02 d83e 0d30 c33e b362 c13e
000002a0: dd7e bc3e a43d 36bd b453 073f 87b0 ee3e
000002b0: 79e8 e0be 9522 babe e631 2a3e 27d2 9ebd
000002c0: 898c d53e cb46 d4be c78b 15bf 83e7 d9be
000002d0: 06de 6cbe c793 8a3e 84b4 d9bd 3e6f 0ebf
000002e0: 1994 f43d 05f1 58be 6601 44be d229 1e3c
000002f0: 9901 b0bd 5bb2 1ebe 3500 14bf b487 14bf
00000300: 50fd e33e 854c 1dbe 2592 46bd 0321 633e
00000310: 399b 873e fec9 953e 316b e3be 851e e33e
00000320: 934b 813e 47cc e03e 17a9 5c3e c645 c4be
00000330: 2cd1 903e 80df ad3e a6c3 40be dfa5 ebbe
00000340: 15a3 9f3e d08b 70be 90ab c03e 7140 b4be
00000350: d045 36be 4d4c 003e 9710 7b3d 0ea3 573e
00000360: f467 c93e f13e e8be 4849 60be c09d 05bf
00000370: e029 f93e 240f c53e d443 2b3e 4d0a 97be
00000380: 150c 8a3e e3e2 ab3e f516 353e daf6 48be
00000390: 844e 8f3d 42f8 a73e 3f4c 6ebe 6c50 8cbd
000003a0: da9f 9abe 5da9 7ebe 14d9 01bf c3b3 dabe
000003b0: e229 ccbd f0e9 223e c61a f43d 1ac0 a43e
000003c0: ddfd 7e3d c7f9 203d d019 8ebd 3e64 a3be
000003d0: 5308 f3be 51fd 063e 5109 b83d 8cb0 7dbe
000003e0: 7d6e 98be f37b 2c3e cd8f e2be 1f25 09bf
000003f0: 8e43 a83e b81f ab3e a79b 9e3e bdf2 fcbe
0.12451245 0.0057495027 0.0062488043 0.36333123 0.23971333 -0.23424979 -0.4893827 -0.16412546
0.41179907 0.43884912 0.3170131 0.24249765 0.15093271 0.1589227 0.5296393 0.123739585
-0.3815775 -0.37199655 0.25897086 0.052022755 -0.36615717 0.25831354 0.6263972 0.36944133
0.3546154 0.38674417 0.4233238 0.12317639 0.058473587 -0.308649 -0.00192783 0.24050651
-0.42960793 -0.18090662 0.17755784 -0.19741812 -0.08691324 0.23203474 0.08739506 -0.3301018
-0.41875866 -0.40076602 -0.27239093 0.3710174 -0.27319285 0.4385368 0.24119897 0.023917226
0.20608397 0.11837095 -0.56729096 -0.53864187 0.4222595 -0.12815681 -0.48137018 -0.28868735
0.261275 -0.36091876 0.48703194 -0.14215009 0.36436975 0.09307066 0.10400814 -0.23557277
0.35020906 0.39174253 -0.2944499 -0.3443818 0.210045 0.46996278 0.5733452 0.2412842
0.29435053 0.1441066 -0.31249452 0.46676868 -0.43558857 -0.024210501 0.26448193 -0.49912217
-0.21305445 0.41517252 -0.24889682 0.3460175 0.24851774 -0.15673082 0.24914956 0.48878932
0.40753365 0.21770371 0.5911491 0.57179993 0.41456208 0.33904988 0.45891014 -0.44155967
-0.079469934 0.10774183 -0.36551407 0.060159948 -0.45169625 -0.48302606 -0.48962435 -0.113592185
-0.48754463 -0.007422201 0.15027305 0.4739409 0.14789715 0.069286905 -0.45213988 -0.016119502
-0.36871657 -0.010955441 0.5867785 0.1815207 0.38270402 -0.19798006 -0.22310753 -0.336454
-0.21524794 -0.16593947 -0.21688658 0.3374714 0.08401778 0.07198625 -0.41655102 -0.37617296
0.32479367 0.33531648 -0.27281365 -0.26155955 0.14588174 -0.14399564 0.084328495 0.41365054
0.06420764 -0.44233993 0.31986144 0.2568794 0.2997353 -0.16326763 0.30857012 0.04915128
0.26973933 -0.28961506 -0.10036096 0.50528115 -0.26264474 -0.00013127486 -0.13425128 -0.10915234
0.12784924 -0.35991803 -0.2431247 0.19565901 0.49165007 0.12174429 0.47892058 -0.10924151
0.3326057 -0.052303247 -0.13554572 0.40652633 -0.4409604 0.42189062 0.38122597 0.37770614
0.3681554 -0.04449238 0.52862096 0.46619055 -0.43927363 -0.3635451 0.16620597 -0.07754927
0.41708782 -0.4146026 -0.5841641 -0.42559442 -0.2313157 0.2706587 -0.10630134 -0.5563849
0.1194231 -0.21185692 -0.19141158 0.009653525 -0.08594055 -0.15497725 -0.57812816 -0.58019567
0.445292 -0.15361221 -0.048479218 0.22180562 0.26485613 0.2925567 -0.44417718 0.44359222
0.2525297 0.4390585 0.21548878 -0.38334483 0.28284585 0.3395958 -0.18824634 -0.46024987
0.3117911 -0.23490834 0.37630892 -0.35205415 -0.17800069 0.12529106 0.06129512 0.21058294
0.39337122 -0.4536052 -0.21902955 -0.5219383 0.4866476 0.38488114 0.16725093 -0.29500046
0.26962343 0.33571538 0.17684539 -0.19625416 0.069973975 0.32806593 -0.23271273 -0.06851277
-0.30200082 -0.24869294 -0.5072186 -0.42715272 -0.09968926 0.15909553 0.11919169 0.32177812
0.06225382 0.039300706 -0.06938517 -0.31912416 -0.47467288 0.1318257 0.08986152 -0.24774379
-0.29771796 0.16844158 -0.44250336 -0.5357227 0.3286404 0.33422637 0.30978128 -0.49403945

hidden_layer1.bias f4 [128]
00000000: 3ce1 c1be eef9 5cbe f8e1 08bf 59f1 fb3d
00000010: fc3c c3be 173e b13d 09ea 9abe 99ef 9fbd
00000020: 509e 8dbe bf45 8abe 8ec3 84be dc52 dabe
00000030: 4443 963e 32ef 04bf 58d2 83be 9f59 9abe
00000040: 44bc ddbe de81 d63e 54fd ecbe 960b d43e
00000050: f2df 62be ffe5 a8bd 0d6d 8f3e 6560 fdbe
00000060: 1159 8dbe 15ba f43e a597 ec3e 5457 85be
00000070: 5e13 ed3d 4950 f2be 3303 b0be 3736 713e
00000080: 641d d4bd e2ea d8be 1f67 81bd d6eb 89be
00000090: db61 c1be 2797 93be 9373 dcbd 94e4 f43e
000000a0: 682e b63d f41d d3be da54 b03d cb06 843e
000000b0: 1746 f93d 30a5 c93e 9167 91be 7b6a 203e
000000c0: d16c 94be e928 fabe e434 7f3e 3fff 56be
000000d0: b526 adbe 5b4c 6cbe cb89 5f3e 9b63 d83e
000000e0: 5654 4fbe e526 80be 5ece a93e 6d32 d3be
000000f0: fe0c a73d 1007 873e d9af 1abe bb02 293e
00000100: a307 363e af90 a0be be79 f03e 60d4 89be
00000110: 726b b6be 3af0 7fbe df30 b63e ca47 793e
00000120: a071 593e 4740 1c3e 89ac 8cbe 5ac1 ac3e
00000130: c83e e43e 929e 96be f6ff da3e 450a b2bd
00000140: 6596 833e 730a 5abe a8d6 3f3e 30e3 093d
00000150: 9d2f 143e 932e d13e 3d0e 8c3e c156 783e
00000160: fcd5 633e eddd 033e a277 f53e 2f1b 1d3e
00000170: e05b abbe 9d4c ecbe fc62 113e f05c 433e
00000180: e9d4 17bd 241b 383e d478 b4be cc3d 4bbe
00000190: 4c64 883e 7584 e03e 0aa7 e4bc b6c9 acbe
000001a0: 17de f8be d57a 70be a3b5 95be 54a3 07bf
000001b0: 232a afbe 97e7 c4be bef7 963e 8e18 19be
000001c0: d7f5 633e 2327 c93d 7c86 fabe 1b75 b43e
000001d0: 0d3e 463e bced 533a 521c 523d 0a3c b9be
000001e0: ad01 90bd e432 833e 3781 633e 6a3d b8be
000001f0: 9996 cebd ec58 c83d 5327 ee3e 63e0 b8be
-0.37867153 -0.21579716 -0.534698 0.12301893 -0.38132465 0.08654421 -0.3025668 -0.078093715
-0.27659845 -0.27006337 -0.25930446 -0.42641342 0.29348195 -0.51927483 -0.25746417 -0.301465
-0.43307698 0.41895956 -0.46287024 0.4141509 -0.22155741 -0.08246993 0.28012887 -0.49487606
-0.27607015 0.4779822 0.46209446 -0.2604319 0.115759596 -0.47326878 -0.3437744 0.23555838
-0.10357168 -0.423667 -0.06318497 -0.2693774 -0.3776997 -0.28826258 -0.107642315 0.4783064
0.0889557 -0.4123379 0.08609934 0.25786433 0.12171572 0.3938384 -0.28399327 0.15665619
-0.2898927 -0.48859337 0.2492252 -0.20995806 -0.33818594 -0.23076002 0.21829908 0.42263493
-0.20247015 -0.25029674 0.33165258 -0.4124941 0.08156775 0.26372576 -0.15106143 0.16504948
0.1777635 -0.31360385 0.46967882 -0.26919842 -0.3562885 -0.24993983 0.3558416 0.24343792
0.21234751 0.15258895 -0.27475384 0.33741266 0.44579148 -0.29417855 0.42773408 -0.08693365
0.2570068 -0.21293049 0.18734229 0.03366393 0.14471288 0.40855846 0.27354613 0.24251844
0.22249597 0.12877627 0.47942835 0.15342401 -0.33468533 -0.461522 0.14197916 0.19078422
-0.03706828 0.17979103 -0.35248435 -0.19847792 0.2663902 0.43851057 -0.027911682 -0.33747643
-0.4860694 -0.23484357 -0.2924014 -0.52983594 -0.34211835 -0.3845794 0.29485887 -0.14950773
0.22261749 0.09821918 -0.48930728 0.35245594 0.19359608 0.00080844364 0.05129654 -0.3617862
-0.0703157 0.25624764 0.2221726 -0.35984355 -0.10087318 0.097825855 0.46514377 -0.36108693

hidden_layer2.weight f4 [64, 128]
00000000: f2e3 d0bc 587b 35bc f59f 23bd ff0d acbd
00000010: 0984 b83c 4e3d 0e3d e870 63bd 4f51 2abc
00000020: 5f2e 25bd 457e 163d a195 c6bc 1fb9 3f3c
00000030: 4f50 ac3b 3614 b43d c9d8 7abc c580 4c3d
00000040: 3d08 be3a ddfa 833c c531 ae3d c4dd cabd
00000050: c95a 873d 5abf 2abc 9246 80bb fbec 333d
00000060: e8a9 243c c850 6f3a 1f04 a8bd fd8e 463d
00000070: a5d8 59bd 80be 173d 12ef 85bd 543e 083d
00000080: 33c1 56bd 6de3 83bd 2cef b3bd c81b af3d
00000090: c140 b23d cc71 b2bc 279b ea3c 7de5 95bd
000000a0: 2716 d03b 2497 adbd a351 553d 2d31 29bd
000000b0: c574 4b3d 2fea b6bd 95c6 753d 1453 8e3d
000000c0: 4b9f 14bc 08eb 2b3d 4c23 ba3b 9e4b bdbc
000000d0: cb8d 21bb 7019 a33d d53e bcbc cfa3 b0bd
000000e0: 95ec 1cbd ba93 3cbc 5fdf 70bc 3efb af3d
000000f0: 27ef acbd 2739 4ebc c4b7 4d3d a8cc 8e3d
00000100: 3513 1b3c 1c55 33bd 4e89 9ebd 6080 d83c
00000110: 7938 8cbc 58b8 253d 2482 14bd 95c2 853d
00000120: 7ee3 64bc 659f acbd 0b43 d5ba d4c7 d5bb
00000130: 0f89 f6bc f093 f0bc daa3 adbd 68ca 2bbd
00000140: e0c0 3d3d 88bc 28bd 9170 bdbc 5e44 8abd
00000150: d260 e9bc 18ee 1d3d 6b13 00bc 10f8 723d
00000160: d684 3fbd ae48 ae3c f5a7 153d 5811 f13a
00000170: 2bb1 56bd 74df 673d 3cf8 7d3d 5d72 6c3c
00000180: 7058 64bd abf5 36bd 3962 903d f8a6 aabd
00000190: 325a 49bd 4d82 a8bd a66f 22bc 10e6 b1bd
000001a0: 63bc a1bd c4e8 4bbd 9a28 1ebd b982 64bd
000001b0: 9bbc 40bd 8620 823d ea83 87bb d974 9c3c
000001c0: 177a d43c 9456 713d 6415 033c 9090 9fbd
000001d0: 780c b83c fd5d 13bd 5965 e3bb 428b 8a3d
000001e0: 27fe 083d 360c c0bc 23d4 52bd 8d1a 99bd
000001f0: 9216 9ebd 7676 76bd b57a 4a3d 2c2e 7a3d
00000200: b265 a33c a13e abbc cce0 9fbd e508 8f3d
00000210: 5282 6cbd 1323 3e3d a410 393c bd3a 6c3d
00000220: f79c a4bd 4f33 3b3d b83e 303d c801 863d
00000230: aeec f0bc 4717 af3d c45e 1dbd 9931 8d3d
00000240: 1e29 67bb adab c23c 7836 9dbc 4c5d e0bc
00000250: d176 adbd c37f 993c cac0 d93c c74a 64bc
00000260: 8903 a8bd 7a7e b4bd 0b9a 08bd 8c39 b83c
00000270: 67f8 e3bc 509f 8b3d 1cda 9c3c 2360 013d
00000280: e62e 0bbd 5882 81bd 99f9 5f3d fc99 033d
00000290: f5b7 3f3d cd46 933c eee2 8fbc 20b0 10bd
000002a0: d831 b8bd 5be5 b3bd f396 68bc 89d2 92ba
000002b0: 90a3 0bbd 2a18 edbc 20c5 b0bd 3537 5cbd
000002c0: 646a 0b3c 2476 3c3d 2677 4b3d a65b 9f3d
000002d0: c114 a0bd 0089 10bc 880b 233d b587 16bd
000002e0: 2c84 47bd 4361 913d 88af af3d 3adf 593d
000002f0: 326b 4dbd 4335 683d d2ad f2bb b985 553d
00000300: 29ed 6d3d 4f2f 883d f117 043d ae53 33bd
00000310: a2ac 89bc 9b55 8f3d 4d59 a2bd c892 85bc
00000320: 7a56 0cbd 2524 17bd 8b28 643d 4aaf 92bd
00000330: 6f6f 213d f721 583d cb10 97bd ec9d 9dbd
00000340: a401 a93d 12f7 893c 0c7a af3d 52de 46bd
00000350: 46da 60bc f05c 21bd 655b 303d 1f00 65bd
00000360: 7a05 c5bc 0b79 1a3c 3543 87bc 52c2 69bd
00000370: cc57 bf3c a0de 7cbd 357f 223d 7531 5d3d
00000380: 0913 533d 62e5 6cbd aa5b 21bb 26db acbd
00000390: 735b 4ebd a9d6 91bd fb7e 9abc 4ee8 9a3d
000003a0: 740e 393d 25c1 823b d2ee 8bbd 9fbb 92bd
000003b0: 64e1 1fbd 8e52 0ebd 0a5e b2bd 8c0d 6bbd
000003c0: d4f0 a53c 56c6 243d 86fe f93c 81a0 80bd
000003d0: f274 36bb f17c 37bb 1306 4ebd 3a30 8dbc
000003e0: cb33 273c 3006 6a39 c86d 843d 43da 6e3c
000003f0: 7d28 693d da56 b4bd 4b28 f73c 292e c23c
-0.025499318 -0.011076771 -0.03994747 -0.08401107 0.022523897 0.034726433 -0.055527598 -0.010395362
-0.040327426 0.036741514 -0.02424127 0.011701851 0.005258597 0.087929174 -0.015310475 0.04992749
0.0014498305 0.016110832 0.085055865 -0.0990558 0.06609113 -0.010421598 -0.0039146626 0.043927174
0.010050274 0.0009129164 -0.08203911 0.048476208 -0.053185124 0.03704691 -0.0653974 0.033262566
-0.052430343 -0.064398624 -0.08785853 0.08550221 0.08703757 -0.021782778 0.028638436 -0.07319162
0.006350297 -0.084760934 0.052079808 -0.041306663 0.049671907 -0.08931386 0.060003836 0.0694944
-0.0090711815 0.04197219 0.0056804772 -0.023107346 -0.0024651166 0.07963836 -0.02297918 -0.08624994
-0.03831156 -0.01150983 -0.014701693 0.085928425 -0.08444052 -0.012586868 0.05022408 0.06972629
0.0094650285 -0.04378234 -0.077410325 0.026428401 -0.017116772 0.040459007 -0.036256924 0.06531254
-0.013970254 -0.084288396 -0.0016270591 -0.0065240655 -0.030094652 -0.029367417 -0.08478518 -0.041941077
0.046326518 -0.041195422 -0.023124965 -0.06751321 -0.02848855 0.038557142 -0.00781713 0.059318602
-0.04675754 0.02127489 0.03653713 0.001839201 -0.052415054 0.056609586 0.062004313 0.014431563
-0.055748403 -0.04466788 0.070499845 -0.08332628 -0.049158283 -0.08227978 -0.009914314 -0.08686459
-0.0789726 -0.04978253 -0.03861294 -0.05578873 -0.04705487 0.063538596 -0.0041355984 0.019098686
0.025937123 0.058920458 0.008000705 -0.07791245 0.022466883 -0.035978306 -0.006939572 0.067648426
0.033445504 -0.023443323 -0.05147184 -0.07475767 -0.07719149 -0.060171567 0.04943343 0.06107919
0.019945953 -0.020903887 -0.078065485 0.06984118 -0.05774147 0.046420168 0.011295471 0.057673205
-0.08037751 0.04570323 0.043028563 0.065433085 -0.029409733 0.08549362 -0.038420454 0.068942256
-0.003527231 0.023763502 -0.019191012 -0.027388237 -0.08469928 0.01873768 0.026581187 -0.013933844
-0.08203799 -0.08813186 -0.03335003 0.022488378 -0.027828408 0.06817496 0.019146971 0.031585824
-0.033980273 -0.06323689 0.054681394 0.032129273 0.046806294 0.017978096 -0.017564263 -0.035324216
-0.08993882 -0.087839805 -0.014196145 -0.001120166 -0.034091532 -0.028942186 -0.086313486 -0.053763587
0.008509252 0.046011105 0.049674176 0.077811524 -0.078164585 -0.008821726 0.03980592 -0.036750514
-0.048710033 0.07098629 0.08578402 0.0531914 -0.050151058 0.05669142 -0.007405975 0.05212948
0.0580875 0.066496484 0.032249395 -0.043780975 -0.01680595 0.0699875 -0.07927189 -0.016305342
-0.034262158 -0.036899704 0.055702727 -0.0716234 0.039412912 0.052766766 -0.0737625 -0.07696137
0.08252266 0.016841445 0.085682005 -0.048551865 -0.013723915 -0.039395273 0.04305591 -0.05590832
-0.024050463 0.009428273 -0.016511539 -0.057070084 0.023357294 -0.06173575 0.039672095 0.054002244
0.051531825 -0.057835944 -0.0024621286 -0.08440237 -0.05038018 -0.07121021 -0.018859377 0.0756384
0.0451798 0.00399031 -0.06832661 -0.07164692 -0.03903331 -0.0347467 -0.08709343 -0.057385966
0.020256437 0.04022821 0.030516874 -0.06280614 -0.00278407 -0.0027998055 -0.05029876 -0.01723491
0.0102052195 0.00022318284 0.064662516 0.014578405 0.05692338 -0.08805628 0.03017058 0.023703652

hidden_layer2.bias f4 [64]
00000000: 8b8a 353d 23ec e5bc 27f6 c13d e537 933d
00000010: 8eb4 8cbc 02c6 88bc da36 95bd 27be 883d
00000020: 7eb2 14bb bcd9 6f3d 01cf 933d eb85 883c
00000030: 4cbd c13c 7b7e 3ebd 7bff bcbc 254f 9f3d
00000040: 562b 0e3d afc3 d63d 258e ee3d bb9e 013d
00000050: 4f18 21bd e301 043c 29c8 83bb 7dbb b53d
00000060: 1bd0 4e3d 9f7d 84bd 2c44 61bc f654 873d
00000070: f2c0 b53d 3a2e b8bd 56c1 c53d 2110 473a
00000080: 6da4 14bc 11e1 333d 3988 86bd e12c 66bd
00000090: 6d63 62bd 7fa1 963d 695d f03d 6233 54bd
000000a0: c0de b5bc e188 923d 60bf c5bd 801b b03d
000000b0: 267c 36bd 9ce6 cf3c ded8 a5bd dd1f 30bd
000000c0: 8afb 8e3b c28c 86bc ba72 75bd 5fad 213b
000000d0: 3282 43bd ea60 cb3d f476 67bc 47e5 923d
000000e0: 64e2 95bd 17dc 44ba 5349 923c 6637 0c3d
000000f0: f7d1 263c eaca 9c3c 12fe 2bbd 0ac9 933d
0.044321578 -0.0280667 0.09470778 0.071883954 -0.017175939 -0.01669598 -0.07285853 0.06676894
-0.0022689397 0.058557257 0.07217217 0.01666542 0.023649834 -0.04650734 -0.023071041 0.077787675
0.034709297 0.104865424 0.11648206 0.031645518 -0.039329823 0.00805709 -0.0040216637 0.08873651
0.050491434 -0.06469273 -0.013749164 0.06608002 0.08874692 -0.08993192 0.096560165 0.0007593651
-0.009072405 0.043915812 -0.06568951 -0.056195144 -0.0552706 0.07355022 0.117365666 -0.051806815
-0.022200942 0.07155014 -0.096556425 0.08598995 -0.04455199 0.025378518 -0.08098005 -0.042999137
0.004363482 -0.01642454 -0.059923865 0.0024669988 -0.047731586 0.09930594 -0.014127482 0.071726374
-0.07318571 -0.00075096026 0.01785723 0.03423252 0.010181895 0.019139726 -0.041990347 0.072160795

output_layer.weight f4 [2, 64]
00000000: f18a 9d3d 729f a3bd 5fa2 ed3d b036 82bc
00000010: 5d29 91bd 6804 c83d 6c65 983d b00d 16be
00000020: c139 f03d 05f0 243e 4a33 4cbd c8e1 863d
00000030: 4daf 26be 8744 dabd 29f8 4abe f280 45be
00000040: e247 823c 89ae 31be c9d2 3c3e 08aa 23be
00000050: 79ca 1c3c 099e 9abc 1009 0ebe 0173 11be
00000060: e129 d7bc fdd6 d83c a0ab d3bc 5a4e 1f3d
00000070: 4d78 313e 5d1c a53d a58d 38be 8682 87bd
00000080: 4a73 a23d 2d05 4f3d 0bcd 1ebe 474e aabd
00000090: 5283 b0bd ab25 3abd 52b8 67bd 2eed 023d
000000a0: 7c6b 75bd c517 c63d 1211 9dbd aa56 5fbe
000000b0: 2b10 043e 3c64 02be 9a33 3cbd 28a2 ccbd
000000c0: b326 db3c 4b98 7abd b99b cd3d 8ed2 f83d
000000d0: b27c 313d 7933 203e 3758 763d 81eb a1bd
000000e0: 24cf a2bd 7be9 efbc 53c6 47bd 6bdc cf3d
000000f0: 2034 c43b 9fa9 853d d43c 973d 6595 f8bb
00000100: e26b 903d a07c 0d3d be88 13be c51d 0d3e
00000110: 6335 9d3d 7fdd a9bd 7b1f 483c 67de d63d
00000120: 64a1 f3bd b7a9 a4bc 32a7 1e3d 65d2 23be
00000130: 1214 c53d 4a75 c33d 6ca2 a03d d28b 363c
00000140: 0d0f eb3d 2a4f e73d 1f36 e93c 8c89 a43c
00000150: 4894 29be af75 edbd e611 4f3e d8c3 303e
00000160: a24e a1bc 2983 80bb 53f3 253e cf71 81bc
00000170: b36a 05be 0ccc 4bbd 57ca 753c 9da1 c33c
00000180: 3dda e1bd 69b9 3cbe 3046 e23d dc64 1d3d
00000190: fa49 41bd 0ce9 143d 93b4 283e a4c5 e4bd
000001a0: 2a03 523d 0abc 07be 2e44 c7bd 2955 60bb
000001b0: 11b7 15bd 8cb7 903c c8f4 34bc 7eb5 75bd
000001c0: b497 9fbc 3adb 583e 57ec bbbd 953e a5bd
000001d0: 5e25 143c 2c98 09be fa94 1b3b e04b 183e
000001e0: 729b a5bd 4b26 51bd fe03 353e 2dcb 563d
000001f0: df00 09be 0b06 963c 8e63 a93d f937 35be
0.076925166 -0.07989396 0.116032355 -0.015895218 -0.070879675 0.097664654 0.0744122 -0.14653659
0.11729766 0.16107185 -0.0498536 0.06586033 -0.1627781 -0.10657602 -0.19821228 -0.1928747
0.015903417 -0.17351736 0.18439783 -0.1598283 0.009569758 -0.018874185 -0.13870645 -0.14204027
-0.026265087 0.026469702 -0.025838673 0.03889308 0.17331047 0.080620505 -0.18022783 -0.06616692
0.07932146 0.050542045 -0.15507905 -0.083157115 -0.08618797 -0.04544608 -0.056572266 0.031964473
-0.05991696 0.096725024 -0.076692715 -0.21810403 0.12896793 -0.12733549 -0.04594765 -0.09991866
0.026751852 -0.061180394 0.10039467 0.12149535 0.04333181 0.15644635 0.060142722 -0.07906247
-0.07949665 -0.029286137 -0.04877312 0.10149463 0.005987659 0.06526493 0.07384649 -0.0075861686
0.07051827 0.03454268 -0.14407632 0.13780887 0.07676198 -0.082942 0.012214537 0.10491639
-0.11896017 -0.020100458 0.03873367 -0.15998228 0.09622969 0.095438555 0.078434795 0.011141734
0.1147748 0.11294396 0.02846819 0.020085119 -0.16560471 -0.11594712 0.20221671 0.17262208
-0.019690815 -0.0039218855 0.16206102 -0.015801338 -0.13028984 -0.04975514 0.015001855 0.023880774
-0.11027954 -0.18430103 0.110485435 0.038426265 -0.04718969 0.036355063 0.16475134 -0.111705095
0.05127255 -0.13255325 -0.09729801 -0.0034230447 -0.03655154 0.017665647 -0.0110446885 -0.059987538
-0.019481517 0.21177378 -0.091759376 -0.08068577 0.009042112 -0.13436955 0.002373992 0.14872694
-0.080862895 -0.05106191 0.17677304 0.052439857 -0.13379239 0.018313428 0.08270942 -0.17697133

output_layer.bias f4 [2]
00000000: 869f be3d 71da 88bc
0.093077704 -0.016705723
