cartpole_rf_results/num_episodes=3000_alpha_policy=0.001_alpha_value=0.005_gamma=0.99_reward_scale=0.005/policy_net.pth (torch, 38822 bytes, 6 tensors)

hidden_layer1.weight f4 [128, 4]
000000 09 46 ba be 01 a8 31 3e 66 c9 f4 3e 18 64 ff 3e
       -0.36381558 0.17349245 0.47809905 0.49881053
000010 f9 70 97 be 7d da f3 be 2e 4b 8a be 49 04 b4 3e
       -0.2957838 -0.4762763 -0.27010483 0.3515952
000020 17 12 bf be c4 f7 27 be c4 7f 00 3f 4c 1c 07 3f
       -0.3731849 -0.16403109 0.50194955 0.5277755
000030 bd 3c 06 bf c8 32 c7 3e f0 5c 5b 3e 82 5e 77 bc
       -0.5243643 0.3890593 0.21422172 -0.015098216
000040 a6 59 ad be 1a fb bb be 0c 4c fd be 8f db 72 be
       -0.3385746 -0.36715013 -0.49472082 -0.23716567
000050 cb 74 c2 3b 4f 07 3b 3e 07 2e 0d bf 78 b0 15 3d
       0.005934333 0.18264507 -0.5514836 0.036545247
000060 49 55 b6 be 5e 44 22 be 98 20 e7 3d c0 bc c7 be
       -0.35611942 -0.15846393 0.11285514 -0.39011192
000070 a5 9f ff bd 09 cb c2 be 55 92 4e 3e c7 aa 89 3e
       -0.12481622 -0.3804553 0.20173009 0.26888105
000080 61 05 65 be c1 b6 e7 be d1 f3 6b be 6f d3 b7 3e
       -0.22365333 -0.45256618 -0.23042227 0.359035
000090 d1 ca d8 3d 95 14 e5 be dd 5f 63 be 12 74 0d 3e
       0.10585559 -0.44742265 -0.22204538 0.13813809
0000a0 fc 42 5c 3d 44 58 a0 be 82 62 6e 3e 00 88 e3 3d
       0.05377482 -0.3131734 0.23279765 0.11109924
0000b0 39 61 ac 3e 9e 2c 12 3e 24 a3 19 3f e9 74 26 3e
       0.33667925 0.14274833 0.6001456 0.16255535
0000c0 a5 80 9c 3e 5d d6 8f 3e 04 09 9e be 36 e3 ce be
       0.30566898 0.28093234 -0.30866253 -0.40407723
0000d0 90 d7 b9 be 21 b4 58 3d 85 34 2a bf 6b 22 00 be
       -0.36297274 0.05290616 -0.6648639 -0.1251313
0000e0 d3 60 bf be ce f2 d5 bd 1a 93 b2 3e a3 42 20 be
       -0.3737856 -0.10446702 0.34877855 -0.1565042
0000f0 45 78 ed 3e e4 92 b1 bd 74 ee b5 3e e2 85 fe 3e
       0.4638082 -0.08670595 0.35533488 0.4971152
000100 8b 15 57 3d 93 f9 5a 3d 80 da 2a 3f c2 52 d2 3d
       0.05251078 0.05346067 0.66739655 0.10269691
000110 cd 32 54 3a 30 61 ff 39 24 0c 90 be 0c 9f ec be
       0.0008094728 0.000487098 -0.28134263 -0.46215093
000120 56 2b 2f be d8 91 ec be b0 0f 0b 3f 0a db 88 3e
       -0.17106375 -0.4620502 0.5432081 0.26729614
000130 2f e6 eb bc 90 ab ba 3e 6a a5 8f 3e ff 57 cc be
       -0.028796284 0.36459017 0.28055888 -0.39910886
000140 5e 75 fe bd 48 c4 b4 3e 50 d0 c5 be 16 4e d2 be
       -0.1242473 0.35306 -0.38635492 -0.410752
000150 43 82 15 3e 97 91 0a 3e 72 74 e2 3c 95 29 e2 bd
       0.14600472 0.135321 0.027643416 -0.110430874
000160 17 41 25 3e dd fa af be 68 92 6d 3e 0f 27 c0 be
       0.16138111 -0.3437108 0.23200381 -0.375298
000170 58 42 e8 3e 89 45 a0 3e 90 4a 35 3e d6 f2 cf 3e
       0.45363116 0.3130305 0.17704225 0.40614957
000180 30 d9 c7 3e a5 b2 53 3e 64 7f be 3e fd 24 4e be
       0.39032888 0.20673616 0.37206566 -0.20131297
000190 4e a4 9e bd b8 d1 9b be fe be 2c 3e a2 a4 b7 bd
       -0.077461824 -0.3043344 0.16869733 -0.08966948
0001a0 e4 fd 09 3e 07 0f 75 3e e6 35 35 3f 36 58 fe 3e
       0.13475758 0.23931514 0.7078537 0.49676675
0001b0 99 db 89 3e 65 81 69 be 59 e1 22 be 8e 1b c6 bd
       0.26925352 -0.22803266 -0.15906276 -0.096732244
0001c0 26 ed 59 bd e1 21 b1 be f8 7a db 3e 7a 92 09 3f
       -0.053204678 -0.3459616 0.42867255 0.5373913
0001d0 9c de 2c be 39 c8 20 3e 2d 1c b4 3e d1 cd 8b 3d
       -0.16881794 0.15701379 0.35177746 0.06826366
0001e0 ec a3 61 bd 70 27 b0 3d 0a 2c 95 3e cd 75 d3 3e
       -0.05508797 0.08601272 0.29135162 0.41300812
0001f0 bc 91 97 be 82 19 85 be 53 d4 ed 3e 0b dd ef 3e
       -0.29603374 -0.25996023 0.46451053 0.4684833
000200 c0 84 be be 45 cb 4b 3e 08 f4 5e bd cb 11 44 be
       -0.37210655 0.1990176 -0.054431945 -0.19147412
000210 7d 86 cd 3e 08 08 d4 bc eb c5 07 3f 68 fe 74 be
       0.4014167 -0.025882736 0.53036374 -0.23925173
000220 91 d7 34 be e1 d8 51 3e 53 f2 1f 3e 99 ea 42 3e
       -0.17660357 0.20492889 0.15619783 0.19034804
000230 c6 f2 dc 3e 06 4d 14 3e 0f c0 a1 bd b0 b2 00 bf
       0.4315397 0.14482507 -0.078979604 -0.50272655
000240 d1 d9 e8 be dd e3 b2 bd 48 c2 27 bf 5c 76 bc be
       -0.4547868 -0.08734868 -0.65530825 -0.3680905
000250 d1 3b d8 be 99 ad d2 bd 9e 69 14 3f 84 cc 63 3e
       -0.42233136 -0.102870174 0.5797366 0.22245985
000260 fc 3a d4 be 57 f0 54 3e 84 d2 0b 3e 00 ca c9 3e
       -0.41451252 0.20794807 0.13654524 0.39411926
000270 af f2 ff be 5b 14 f0 3e 59 48 d1 be 7c fd 0e 3d
       -0.4998984 0.4689053 -0.4087551 0.03490971
000280 bb f9 5a 3e f9 4f ad bc 23 69 16 3f 21 f8 3b 3e
       0.21384327 -0.021156298 0.58754176 0.18356372
000290 c0 ed cd 3e e4 03 85 3e b5 41 1a bf 9f 1d cc be
       0.4022045 0.2597953 -0.6025651 -0.3986635
0002a0 83 81 d7 bd eb 3c c5 3e 46 03 6a bd f3 3b 9e bd
       -0.10522749 0.3852304 -0.057132028 -0.07726278
0002b0 50 69 34 be 24 28 48 3e 68 38 9d be 03 f6 37 bd
       -0.17618299 0.19546562 -0.30707097 -0.04491235
0002c0 fe 7f b0 3d 3d 7c 8b 3e 07 e7 a5 be 97 58 9b 3d
       0.086181626 0.27243224 -0.32402822 0.075852565
0002d0 87 c0 86 bd ac ff d1 be 69 04 a2 bd 57 6a d8 3d
       -0.065796904 -0.41015375 -0.079109974 0.10567158
0002e0 59 bc 24 bd 7b b8 a4 bd d9 3b d5 be 10 09 c1 be
       -0.040218685 -0.08042999 -0.41647223 -0.37702227
0002f0 95 f7 0d be 39 12 e7 bc bd 0b 69 3e 35 54 da 3e
       -0.13863976 -0.028206931 0.22758384 0.4264237
000300 f8 52 99 be d7 a3 88 bd 34 f6 84 be 8b 18 8e 3e
       -0.29946113 -0.06671875 -0.25969088 0.277531
000310 62 b9 6c 3e 00 ec 63 be 30 d6 88 3d 8c 53 d5 be
       0.23117593 -0.22257996 0.06681478 -0.41665304
000320 14 1d 94 be 54 0a e8 be 17 bd e2 3e 57 56 8c 3e
       -0.28928435 -0.4532038 0.4428489 0.27409622
000330 5a 1a a7 be 3c cb ba bc a6 ed 59 be 6b b8 c9 be
       -0.32637292 -0.022801988 -0.21282062 -0.39398512
000340 a4 1a ee be 97 d7 4b 3e ce b0 85 3e aa 8e fb 3e
       -0.465047 0.1990646 0.26111454 0.49132282
000350 41 e4 d3 bd 8d 56 83 bd 35 e2 23 3e ad 52 db 3d
       -0.1034627 -0.064129926 0.1600426 0.107091285
000360 4f 83 b6 39 32 63 1c be a5 01 a8 be 21 ed f3 3c
       0.00034811578 -0.15272215 -0.32813755 0.029776158
000370 64 22 df be 44 22 a4 3e 66 1e 18 3e 8e 77 a2 3e
       -0.43580925 0.32057393 0.14855346 0.31731838
000380 f2 b1 82 be 77 ca fa 3e 2c df 0b 3e 36 a8 44 be
       -0.25526386 0.48982593 0.13659352 -0.19204792
000390 66 35 e2 3e 9c d8 fe bd ff 25 8c 3a 81 40 52 be
       0.44181365 -0.12443659 0.0010692476 -0.20532419
0003a0 43 8e 20 3e f1 f2 5e bd 15 0b 3e be b5 92 b8 3c
       0.15679269 -0.054430906 -0.18558915 0.022530893
0003b0 6d dc 09 bd dc 61 3d be 81 93 5f be 80 de 21 3e
       -0.03365748 -0.18494362 -0.21833612 0.15807533
0003c0 d6 99 36 be 60 8b a5 bd c7 20 9f be 10 ee fa 3e
       -0.17832121 -0.08083224 -0.31079695 0.49009752
0003d0 11 95 9b be ac c1 c8 be d6 a1 38 3e 61 ef f6 3e
       -0.30387166 -0.3921026 0.18030486 0.48229507
0003e0 17 23 ec be a7 ad f6 be 26 dd a9 bc dc 4f 15 bf
       -0.4612052 -0.4817936 -0.020735335 -0.5832498
0003f0 1e 5e a7 bd 76 5b 82 3e 09 70 38 3e 1f 83 f5 3e
       -0.08172248 0.25460404 0.18011488 0.479516

hidden_layer1.bias f4 [128]
000000 be 03 a4 3e cf 28 b2 3e 48 de b5 3e 7d c2 fa bb
       0.32034105 0.3479676 0.3552115 -0.0076525793
000010 58 a0 91 be 62 77 7a 3e f6 b4 f4 3e 2a 6b 4e bd
       -0.28442645 0.24459603 0.47794312 -0.05039517
000020 f6 0c 6c be 6b de ac bd e6 f0 9c be 7c e5 bf 3e
       -0.23051819 -0.0844086 -0.3065254 0.3747977
000030 d9 14 f0 be 00 50 9f 3d 8e 95 92 3e 84 cf dd bb
       -0.46890905 0.07778931 0.28629726 -0.0067691226
000040 ad 7a 8a 3e b0 6f ba 3c 6a 36 d3 3d e6 6e 90 be
       0.2704672 0.022758335 0.10313113 -0.2820961
000050 d5 f9 aa bd a1 9f 65 3e 87 57 f4 3d 8d ca a8 3d
       -0.08348433 0.22424175 0.11930757 0.082417585
000060 80 b6 57 be f3 9e ce 3c 66 3a 35 3e 4d 4c b1 be
       -0.21065712 0.025222277 0.17698058 -0.34628525
000070 a5 53 cd 3e 6b b1 c7 3d 3a d4 31 3e fa 56 f9 3d
       0.40102878 0.09750637 0.17366114 0.121747926
000080 c5 38 c5 3e ec 03 48 be 5f 73 2f be 56 15 5a 3e
       0.38519874 -0.19532746 -0.17133854 0.21297202
000090 86 35 96 3d a1 0c a3 3e a6 a1 f1 be 0f 8c ff bd
       0.073344275 0.31845573 -0.4719364 -0.12477886
0000a0 c3 9a b9 3e 58 f1 00 3e 24 07 78 3e 5e a6 8f be
       0.36250886 0.12592065 0.24221474 -0.28056616
0000b0 36 11 f2 3e 4a a1 42 3e 96 30 37 3e c0 f7 21 be
       0.47278756 0.1900684 0.17889628 -0.15817165
0000c0 a2 1c 64 be 58 a2 e9 be 77 03 d0 3e 67 6b 04 bd
       -0.22276548 -0.4563167 0.40627643 -0.03232899
0000d0 19 8c 12 3e 4c b0 76 be a7 2f 30 be f5 14 9e 3d
       0.14311256 -0.2409069 -0.17205678 0.07718841
0000e0 8d d4 a7 be 39 fc e8 be 35 10 d6 be 36 14 a9 be
       -0.3277935 -0.4550493 -0.4180924 -0.33023232
0000f0 aa b7 40 3d 1f ff ee 3e f4 3d 5a 3e f1 38 48 be
       0.047050156 0.46679017 0.21312696 -0.19552971
000100 31 9f 36 be e6 a6 9e 3e 6d aa 67 3e 1a 4d a1 be
       -0.17834164 0.30986708 0.22623606 -0.31504136
000110 c3 16 44 3d 9e 7e 28 3d d5 80 fb bd 96 b5 ee 3d
       0.04787327 0.041136377 -0.12280432 0.116557285
000120 9b a8 98 3e 20 b8 4d be 84 63 05 3f 02 70 a6 3e
       0.29816136 -0.2008977 0.52104974 0.3250733
000130 5c 19 c7 3b 2d 98 be be 7c 80 c9 3e a2 90 68 be
       0.006076021 -0.37225476 0.39355838 -0.22711423
000140 af 9f 48 be a6 ca ae 3e a1 24 d6 be cf 33 7f 3e
       -0.19592164 0.34138983 -0.4182482 0.24922107
000150 51 24 ae be 01 70 45 3e 83 c6 ed be 6c a4 5c 3e
       -0.34012082 0.19281007 -0.46440515 0.21547097
000160 bb 9d 95 3d 6f 18 a4 be 64 f1 06 be 8f d6 d5 be
       0.07305475 -0.3204989 -0.1317802 -0.41765258
000170 2e fe da 3e fa 1a e1 3e 73 82 d0 3e 72 c2 f5 be
       0.4277205 0.43965894 0.40724525 -0.47999913
000180 82 a3 61 be 4c 20 23 bd a3 7b b5 be af 8b 0d 3e
       -0.2203503 -0.039825723 -0.3544589 0.13822816
000190 23 78 95 bd e2 c6 a7 3d ee 9f cc 3c e9 14 6f be
       -0.07298305 0.08192231 0.024978604 -0.2334782
0001a0 59 6b 86 3e 46 c9 8c be e1 a6 28 be 14 89 a0 be
       0.26253775 -0.2749731 -0.16469909 -0.31354582
0001b0 4e d4 aa be fd 7c f4 3e 85 bb 0b 3e e8 aa 0d be
       -0.333651 0.47751608 0.13645752 -0.13834727
0001c0 ec ac b2 3e 6f 33 e6 be ed 43 c4 be 94 32 31 be
       0.34897554 -0.44961116 -0.38333073 -0.1730445
0001d0 93 0b 3e 3e 5d 3a 29 3e 7c b4 a1 3e 97 5c d3 3e
       0.18559103 0.1652617 0.3158301 0.41281578
0001e0 1a 2a bb 3e cc c3 ea be 8d d7 7a be 9b 16 a3 3e
       0.36555558 -0.45852506 -0.24496289 0.31853184
0001f0 4d f8 e5 3e 16 d5 90 3e 90 3b 0e 3e 9a 93 d8 3e
       0.44916 0.28287572 0.13889909 0.4230011

hidden_layer2.weight f4 [64, 128]
000000 63 8f c3 3d 6c 1a 47 bd 9b a9 8c 3c c2 2e e2 3d
       0.09548833 -0.048609182 0.017170718 0.110440746
000010 8f f9 78 bd 7d 58 81 3d 82 d5 94 bd 69 06 19 3d
       -0.060784873 0.06315706 -0.07267286 0.03735963
000020 6a 88 85 3d 11 20 a1 3c c9 da 19 bd 55 55 59 3c
       0.065201595 0.01966861 -0.037562165 0.013264974
000030 00 84 f6 3c 39 4f c7 bd d6 f0 a7 3c 41 97 db 3d
       0.03009224 -0.097319074 0.020500582 0.10722209
000040 6d 2a e5 3d e1 ff 33 3c af 7c d0 39 84 c9 55 3d
       0.11189733 0.010986299 0.00039765748 0.052194133
000050 af ba 93 b9 c3 88 fd 3b a2 45 81 bd 3a 14 cd 3d
       -0.00028177115 0.0077372505 -0.063121095 0.100136235
000060 18 52 64 3d ea 06 57 bd 3a 6e 24 3e 14 e8 a5 bc
       0.055742353 -0.05249683 0.16057673 -0.020252265
000070 8d c8 a1 3c c1 46 d3 3d 0c bd f5 3d 35 97 e9 3d
       0.01974895 0.103162296 0.119989485 0.114057936
000080 7e 2d 85 bd 15 ad 6d bc ce 61 f0 3d 64 b4 62 bd
       -0.065028176 -0.014506598 0.11737405 -0.055347815
000090 64 33 aa bc 52 77 ce 3c 11 d3 e6 bc 9a 9f be bc
       -0.020776458 0.02520338 -0.028176816 -0.023269463
0000a0 38 bc e9 3d 4e d6 6b 3d 9d 6c 9b 3d cc 17 6d bd
       0.11412853 0.057577424 0.07589076 -0.057884023
0000b0 67 37 96 bc 18 cd 8e 3d 9f a3 0a be 0f 68 69 bc
       -0.018336965 0.06972712 -0.13538979 -0.014246001
0000c0 71 66 80 bc 69 cf 1f 3c 27 17 bb 3d 5b 3b 7d bd
       -0.015673848 0.00975404 0.09135275 -0.061824184
0000d0 66 84 8b 3d 9e 65 15 bc 55 74 7f bb 7d ae f2 3d
       0.068123624 -0.009118466 -0.0038979251 0.11849687
0000e0 fc cb 8c bd 30 e3 99 bd 1e 0b c2 3c 22 35 1a bd
       -0.068748444 -0.07514036 0.023686942 -0.037648328
0000f0 d5 7d fa 3d 70 b7 ab 3d cb 23 15 3c 6f 11 5b 3d
       0.12231032 0.08384597 0.009102772 0.053483423
000100 6e 40 98 bd 86 dd 4d bd 7d b0 9f bd 1f 38 0d bd
       -0.07434164 -0.05026009 -0.07797334 -0.03447735
000110 12 c0 63 bd d0 3f 47 3d b0 1b ce 3c 89 45 a0 3c
       -0.055603094 0.04864484 0.025159687 0.019564407
000120 c5 f6 aa 3d c6 c9 a4 bd 8b b9 38 bd db b2 34 3b
       0.08347849 -0.08046298 -0.045098823 0.0027572426
000130 b9 9b db bd 82 1e 9a bc c0 f7 47 3c c7 27 67 bd
       -0.10723061 -0.018813375 0.012205064 -0.05643442
000140 0f 4c 62 3d 1d 62 b0 bd ea a1 9c bd 7d 75 a3 bd
       0.055248316 -0.086124636 -0.0764807 -0.079813935
000150 1f e4 db 3d 56 f6 0a 3e 0a 6c 0d bd 6d 37 42 bd
       0.1073687 0.13570532 -0.034526862 -0.04741614
000160 62 95 ed 3c f4 aa 82 3c eb e4 66 3d f7 a2 60 bc
       0.029001895 0.015950657 0.056370657 -0.013710729
000170 7f 92 18 bc c4 c4 40 bd 34 2d 8f bd 09 85 96 bd
       -0.009312271 -0.04706265 -0.06991044 -0.07349593
000180 36 57 62 3d fe 51 74 3d 10 9d 41 bc a3 38 36 bc
       0.055258952 0.059648506 -0.011817232 -0.011121902
000190 7f 1d d3 bd 50 be c1 bd f1 c0 36 3d 0f 95 8e bd
       -0.1030836 -0.09460127 0.044617597 -0.069620244
0001a0 b2 59 d4 3a 3f fc 3c bd d9 75 9a 3d be 9c b6 bd
       0.0016201048 -0.046138998 0.07542009 -0.08916615
0001b0 ac 1d 4a 3d 6c 17 91 3d ee d8 15 3e 5b a7 66 bd
       0.049344704 0.070845455 0.14633533 -0.056311946
0001c0 a3 46 9a 3c 37 b1 a2 bc 52 34 89 bd 18 6f 2e 3c
       0.01883251 -0.019859893 -0.066994324 0.010646604
0001d0 e3 da 80 ba 34 f2 c6 3d 5f 42 1d 3c b1 10 16 bd
       -0.0009830858 0.09714165 0.009598344 -0.036637012
0001e0 b1 36 7c 3d 2d fb 5e bc 04 8a 15 3e 29 35 15 bd
       0.061575595 -0.01360969 0.1460343 -0.03642765
0001f0 65 f0 0c 3e 3d a3 84 3d 75 5f 91 bd 19 4f cb 3d
       0.13763578 0.06476448 -0.07098285 0.09927196
000200 7c 29 94 bc 87 e7 c5 3d 08 86 cd 3c ea c0 53 3c
       -0.018086188 0.09663301 0.025088325 0.012924412
000210 ad f5 e8 bd 0b 8a 90 3d db d1 41 bc ed a5 39 bc
       -0.11374984 0.070575796 -0.011829819 -0.011331064
000220 f5 24 95 3d 2a 57 e8 bc c0 1b 2d 3d cb f9 c1 3d
       0.072824396 -0.028361876 0.042262793 0.09471472
000230 c7 15 2f 3d 72 3b 6e bc 85 48 0c bc 18 3d d0 bc
       0.042745378 -0.01454054 -0.008562212 -0.025419757
000240 8b fb 09 3c a9 9c 19 be d5 93 dc 3c 34 14 34 3c
       0.008421789 -0.15001167 0.02692596 0.010991145
000250 40 55 9a bd b1 db a7 3d c5 06 e4 bd 4a 42 19 3d
       -0.075357914 0.081962 -0.11134104 0.037416734
000260 59 85 04 3c 7b 84 29 3d 03 de d2 3d e3 da 0b bc
       0.008088433 0.04138611 0.102962516 -0.008536073
000270 a8 95 10 3d 45 5d 41 3d f1 e1 00 3e 8e b9 de 3d
       0.035298973 0.04720809 0.1258619 0.108752355
000280 c7 f1 aa 3d 0c f8 88 3d fb a1 36 bd 36 1e ad 3c
       0.083468966 0.06687936 -0.04458807 0.02113257
000290 fc 1c 59 bd f2 43 9b 3d c9 1a 0f 3d 59 a9 97 bd
       -0.053006157 0.07581319 0.034937654 -0.074053474
0002a0 96 bf 0f 3d 46 72 e8 bd 91 f3 98 3c 6d f3 1b bd
       0.03509482 -0.11349921 0.018670829 -0.038073946
0002b0 97 cc a6 b8 4a 64 93 bc af 59 13 bd fb f3 35 3d
       -7.953605e-05 -0.017992157 -0.0359742 0.04442213
0002c0 2d cb b3 3d 31 0a 29 bc 7c f0 bd 3c 99 b2 0a be
       0.08778987 -0.010317371 0.023185961 -0.13544692
0002d0 64 32 0a 3e 3a d6 2c 3d ee 50 42 3d ad 37 37 3e
       0.13495785 0.04219649 0.04744046 0.17892332
0002e0 c1 e4 4e bd 44 8c 8b 3b 4a c2 9e bd 32 87 86 3b
       -0.050511125 0.0042586643 -0.077519014 0.004105472
0002f0 d8 9e db bc 45 50 69 3d 4c de 07 be 52 8e 86 bc
       -0.026809141 0.056961317 -0.13268393 -0.016425285
000300 58 72 fe bd aa e7 45 3d 17 f6 be bd c3 2d 2b bc
       -0.12424153 0.048316635 -0.09324282 -0.010447922
000310 cc a3 38 bd 4f a3 38 3d a1 8b 74 bd 93 ce 1c 3d
       -0.045078084 0.04507762 -0.059703473 0.038282942
000320 fe 33 93 bc ad d1 54 bd 05 99 7f 3c aa 8f e6 3c
       -0.017969128 -0.051957775 0.015600448 0.028144676
000330 53 b1 71 3c 09 ef e3 bd a6 cb 8c 3b 1f ed 5e 3d
       0.01475175 -0.11129577 0.0042967377 0.054425355
000340 c9 eb 2c bd 8f de 9b 3c 54 29 b6 3d 89 f6 d5 bd
       -0.04221705 0.019027023 0.088946015 -0.104474135
000350 6d 2f bd 3b e8 3b 7c 3d 27 75 78 bd 66 86 04 3c
       0.005773476 0.06158057 -0.0606586 0.008088684
000360 5a 4c 8c 3c a0 ca 97 bd 9e fa 0d bd 8f a7 10 bd
       0.017126251 -0.074116945 -0.034662835 -0.035316046
000370 6f 56 8d bd 5f 51 61 3d bd 3a 5a bd 0b 35 a3 3c
       -0.069012515 0.055009242 -0.053278673 0.019922754
000380 e0 58 8f bd 12 43 4b bd 8c 82 0a 3d 24 03 a7 3d
       -0.069993734 -0.04962451 0.033815905 0.08154896
000390 ac dd c7 bc cb f7 1a bc a3 a7 f6 3d a7 b0 91 3d
       -0.024397694 -0.0094584925 0.12043693 0.07113772
0003a0 8c ad ef bd 46 66 bc 3c 58 69 5b 3d 33 27 75 bd
       -0.11703023 0.022997987 0.05356726 -0.059851836
0003b0 30 eb 0e bd cf 34 ff 3d f9 f7 04 3e 62 d0 45 bd
       -0.03489226 0.12461244 0.12985219 -0.048294432
0003c0 bb 9f 90 3c fb 4d 96 bc 8b 26 5e bd 8b cd 57 3d
       0.01765429 -0.01834773 -0.054235976 0.052686255
0003d0 12 8f 87 bd 27 71 4b bc 5f 26 9a 3d 1b 2b a4 bd
       -0.06619085 -0.012417114 0.0752685 -0.08016034
0003e0 73 90 b6 3d af e3 99 bc be 36 34 3d 4e b3 9d bd
       0.0891427 -0.018785326 0.04399752 -0.07700215
0003f0 90 68 db 3d a8 39 03 3e c8 84 ed 3b a4 75 a4 3c
       0.10713303 0.12814963 0.007248495 0.020075627

hidden_layer2.bias f4 [64]
000000 3a ec 5b 3d 23 37 50 3d 6a a3 5f bc 29 5d aa bb
       0.05369208 0.050833832 -0.013649801 -0.005199094
000010 c9 7f 4d bd 28 27 29 bc 5d 82 12 bd 78 6c 0b 3b
       -0.050170694 -0.010324277 -0.035768855 0.002127437
000020 f1 90 18 ba 86 54 8f bd d0 93 49 3d 51 b2 08 bd
       -0.0005819938 -0.069985434 0.04921323 -0.03337318
000030 67 5c 8b 3d e2 a5 7d bd 64 b7 b1 3c 2a d3 0d bd
       0.06804734 -0.061925776 0.021693893 -0.03462521
000040 8b f2 5e 3d dc 64 cf 3c 2f d4 ab 3d 4b ab 9a bb
       0.054430526 0.025316648 0.0839008 -0.0047201267
000050 c2 96 03 bd 7e 04 58 bd a1 4a 36 bd 7d 6e 1b 3d
       -0.032126196 -0.05273866 -0.044504765 0.037947167
000060 c1 9f 34 bd 14 39 03 3c 71 80 9d bc 11 fd 53 3d
       -0.044097666 0.008009214 -0.019226285 0.051755015
000070 51 05 9c 3d 77 bf 83 3d 25 20 72 bd d4 18 83 bd
       0.076182015 0.064330034 -0.059112687 -0.0640122
000080 c4 23 c4 bc a3 74 bd 3d 2e 6a 8b bd 76 33 7f ba
       -0.023942836 0.09250762 -0.068073615 -0.00097351463
000090 f7 96 ae 3c 93 ad 35 3c 2b 91 41 bd 0c 4c cf 3d
       0.02131222 0.011088747 -0.047257584 0.10121927
0000a0 49 b5 72 bd 36 9a 81 3d 87 c5 06 ba fb f3 3d bd
       -0.05925492 0.063282415 -0.0005141128 -0.046375256
0000b0 5c df 46 3d 08 7e f2 3c 1a 80 f9 b9 3b d8 3e 3d
       0.048552856 0.029601112 -0.00047588424 0.046592932
0000c0 05 ef ff 3c c5 41 76 bb e7 e7 bb bd 75 e2 a5 bd
       0.031241903 -0.0037575823 -0.09175091 -0.08099834
0000d0 30 fc be 3d 20 42 57 bd 7b dd a9 bd 42 a2 2c bc
       0.09325445 -0.052553296 -0.08294197 -0.010536732
0000e0 fa b3 28 3b 7e fd 81 bc 0d 63 40 bd 03 23 89 bd
       0.002574204 -0.015867945 -0.046969462 -0.06696131
0000f0 45 8b 00 3d 6f 96 27 bd e1 1b 14 3d 32 1c 62 3d
       0.031382818 -0.04091495 0.0361594 0.05520267

output_layer.weight f4 [2, 64]
000000 53 22 11 be 07 2a 01 be 57 40 3e be eb f4 37 3c
       -0.1417325 -0.12613688 -0.18579231 0.011227827
000010 3c 9d c9 3c 26 09 e4 3d 6d 14 34 be 69 55 90 bd
       0.024611108 0.111345574 -0.17585917 -0.07047541
000020 f6 75 88 3d f8 48 5b 3c 16 6e 38 3b 80 e9 61 bd
       0.06663124 0.013384096 0.0028141788 -0.055154324
000030 e4 58 04 bd 21 36 84 bd ba 20 8f bd 8a 8e 35 3e
       -0.032311335 -0.06455637 -0.06988664 0.17730156
000040 b4 92 13 be ab 67 42 3d dd 4a 6a bd 75 34 eb 3d
       -0.14411432 0.047462147 -0.0572003 0.11484615
000050 da 75 d7 bd cc 68 70 bc 38 0b 00 3d 85 f5 b6 bd
       -0.10520525 -0.014673423 0.0312607 -0.08933548
000060 f8 63 01 3e 45 2c ea bd 7e c2 c6 bd 3b a1 a2 bd
       0.12635791 -0.11434225 -0.09705065 -0.079409085
000070 bf 30 f7 bd 81 c2 13 3e 7d 3f 74 bc 7f 1d 06 bd
       -0.120698445 0.14429666 -0.014907715 -0.032742973
000080 4f c6 29 bd d6 51 35 bd c7 79 9e bc 82 b8 ff 3d
       -0.041448887 -0.044267498 -0.019345177 0.12486364
000090 35 29 ee 3d 7a 4f 18 3e 56 bb 20 3e ca 19 1f bd
       0.11628953 0.14874068 0.15696463 -0.038842954
0000a0 fa ba 9c bd 27 f1 ee bd d4 18 2f 3d 1d 93 11 be
       -0.076528504 -0.1166709 0.042748287 -0.14216276
0000b0 56 1b d0 bd 1d b8 3b be b7 95 1f bd 3e 12 58 3e
       -0.10161464 -0.18331952 -0.03896114 0.21100709
0000c0 8f a4 ec 3c 53 cc 94 3d 39 b0 46 3a 2d 8c be 3c
       0.028887061 0.07265534 0.000757936 0.0232602
0000d0 b4 81 ef 3d 3e e4 ec 3d 20 c4 49 3c 2f 7a 0b 3e
       0.11694661 0.11566971 0.012314826 0.13620828
0000e0 9c 21 7a 3c b1 3d ca bd b8 c1 5a 3d b9 30 b4 3c
       0.015266802 -0.09875048 0.0534074 0.021995889
0000f0 a4 f4 2c 3d f3 6f 3c bd be fd 4f 3d 32 14 05 be
       0.042225495 -0.0460052 0.050779097 -0.12995985
000100 2b 76 e1 bb b4 8c 02 3e 21 7a 81 3d 09 6b 40 bc
       -0.006880542 0.12748986 0.06322122 -0.011744269
000110 fd 88 c6 bd e2 ff 18 be ba 77 ea 3d 9b 59 e3 3d
       -0.09694097 -0.14941362 0.11448617 0.11101075
000120 78 39 10 be 66 4d 50 bc 53 39 21 bb 90 66 1c 3c
       -0.14084423 -0.012713766 -0.0024600818 0.009545937
000130 28 1a 99 3d 20 5d 2d 3e 36 80 13 3e 24 39 45 be
       0.07475692 0.16930056 0.14404377 -0.19260079
000140 f8 98 a2 bc 37 86 a8 3d af e2 09 3e ee cf 28 3d
       -0.019848332 0.082287244 0.13465379 0.041213922
000150 37 1a ff 3d 8a e2 9e bd 58 87 01 bd d9 b0 ba 3d
       0.12456172 -0.07758053 -0.031623214 0.09115762
000160 0c 0b 56 bc b7 6a 19 bc 5c 0a 88 3c a5 62 d0 bd
       -0.013064157 -0.009363822 0.016606502 -0.10175065
000170 47 c6 06 3e 80 49 bb bd 1e 8e 9a bd 17 55 28 3e
       0.13161574 -0.091448784 -0.07546638 0.16438709
000180 52 29 8f 3d 80 1e 0f 3e 09 1e 9c bc 88 75 bd bd
       0.06990303 0.13976479 -0.01905729 -0.09250933
000190 9d a9 d4 3d 53 d7 48 bd e2 41 65 bd d8 d8 24 be
       0.10383914 -0.049033474 -0.055971034 -0.16098344
0001a0 70 42 06 3d 51 9e ba bd f2 e6 c6 bd 65 b0 01 3c
       0.032778203 -0.09112228 -0.09712018 0.007915591
0001b0 e1 d9 01 3e 1d b1 38 3d 8c 54 ee 3d d3 5c b8 3c
       0.1268077 0.045090783 0.1163722 0.0225052
0001c0 96 1d 13 3e 34 99 37 bd a6 0a 1b bd 67 c9 4c 3d
       0.14366755 -0.04482384 -0.037851952 0.04999676
0001d0 55 9e 9f bc 1d fc 77 3c a0 de a1 3b 71 61 b8 bd
       -0.019484678 0.015135792 0.004939869 -0.090029605
0001e0 71 f9 68 bd 6d 76 87 3c 61 2f b8 bd ca 00 e4 3d
       -0.05687851 0.016535962 -0.08993412 0.11132963
0001f0 58 a2 d5 3c a0 c4 8a bd 10 da 12 be 8c e2 9e 3d
       0.026078388 -0.067757845 -0.14340997 0.07758054

output_layer.bias f4 [2]
000000 f1 a7 4a 3d 2a 26 00 be
       0.049476568 -0.12514558
