cartpole_rf_results/num_episodes=3000_alpha_policy=0.005_alpha_value=0.01_gamma=0.99_reward_scale=0.01/policy_net.pth (torch, 38822 bytes, 6 tensors)

hidden_layer1.weight f4 [128, 4]
000000 16 18 49 be 9e b4 db be ee 9c f9 be 15 8c 41 bf
       -0.19638094 -0.42911237 -0.4875254 -0.75604373
000010 b6 ba 3e bd e1 7f 01 3f 1d ce b3 be bb 1c c2 3d
       -0.04656478 0.5058575 -0.3511819 0.09478136
000020 29 be 58 3e 36 66 1a 3e d0 c7 c7 3d b1 7d 97 3d
       0.2116629 0.15078053 0.09754908 0.073970206
000030 20 ca 46 be 06 99 bd 3e ab 8a b2 3e 83 4b 26 be
       -0.19413042 0.3703081 0.3487142 -0.16239743
000040 76 54 20 3d 6f db c9 be d1 36 d7 be 1c a6 50 bf
       0.03914305 -0.39425227 -0.4203401 -0.8150346
000050 20 e0 a5 3e 34 52 f0 3d 00 94 1b bf 6d 5f e0 3d
       0.32397556 0.11734429 -0.60772705 0.10955701
000060 fc 55 f4 be ad 6c 7c 3e 41 6b e9 3d 5e e4 a1 be
       -0.4772185 0.24650832 0.1139741 -0.31619543
000070 b1 a5 00 bf ad f3 27 3e 64 ee d2 be 18 ad 3c bf
       -0.50252825 0.16401549 -0.41197503 -0.7370162
000080 78 b2 b9 3e 4b b0 67 be e7 e1 0b bf d3 69 42 bd
       0.36268973 -0.22625844 -0.54641575 -0.047464203
000090 59 e5 8a 3e 7a 74 b5 bd 59 ce 2b 3f ed 48 17 3f
       0.27128103 -0.08860107 0.67111737 0.5909565
0000a0 bb 08 64 3e 81 e5 a6 be 26 3d 86 be ae 95 90 3e
       0.22268955 -0.32596973 -0.26218528 0.28239197
0000b0 5e 43 f2 be f8 17 d2 3c b1 d6 c9 3e cc 45 fa 3e
       -0.47317022 0.025646195 0.3942161 0.48881376
0000c0 51 3e a1 be 08 60 9d 3e 28 1a 87 be 51 21 b8 bd
       -0.31492856 0.3073733 -0.26387143 -0.089907296
0000d0 c9 1c 19 be 7f 77 b9 3d 70 0b a4 3d 0a b8 ad be
       -0.14952387 0.09055995 0.08009994 -0.33929473
0000e0 85 0c 9e be 6b 15 a0 bc 08 72 a2 3e d5 25 6d 3e
       -0.30868927 -0.019541463 0.31727624 0.23158963
0000f0 27 9f 22 3e 4c 23 6f be 13 b5 eb be bc 0e 46 bf
       0.15881024 -0.23353308 -0.46036586 -0.7736623
000100 b6 51 c4 bc 99 70 01 be 01 63 83 bf 2f 25 23 bf
       -0.023964744 -0.12640609 -1.0264589 -0.6372861
000110 b7 88 9b 3e d4 dd 98 3e 70 15 21 3e 0e 3c 8b bd
       0.30377743 0.2985674 0.15730834 -0.06798564
000120 05 0a 9f be 4b d6 03 be 3a e7 39 3f d2 6a f8 3e
       -0.31062332 -0.12874715 0.7261845 0.48518997
000130 a5 a3 91 3e 8b 2c 8f bd 96 c6 53 3d f6 9e 22 3f
       0.28445163 -0.06990918 0.05170306 0.63523805
000140 6c bf f6 be 0a eb f1 be 38 6c 81 be a6 b5 2b bf
       -0.48192918 -0.47249633 -0.25277877 -0.6707405
000150 9c bd d5 be a5 63 bd 3d ca d0 e8 be 52 0b 47 bf
       -0.41746223 0.09247521 -0.45471793 -0.7775165
000160 e6 f1 ac 3d 60 e3 e9 be a3 95 e5 be 57 8e 54 be
       0.08444576 -0.45681286 -0.44840726 -0.20757423
000170 87 96 fe 3c fa bc de be 1d af 1c 3e f0 19 15 be
       0.031077636 -0.43503553 0.15301175 -0.14560676
000180 a0 1f 9d be 7b 47 da 3e a8 76 3a 3e 79 e4 e5 be
       -0.3068819 0.4263266 0.18209326 -0.44900873
000190 bd 5d 67 3e 20 ce 9e 3e 21 8c a5 3e 2e d8 6a 3e
       0.22594352 0.31016636 0.32333472 0.22934029
0001a0 e0 63 59 3e 07 d6 fc 3e 27 1b aa 3e 18 cc 8a 3d
       0.21229506 0.4938204 0.3322384 0.06777209
0001b0 9d ea b6 3e 38 1c 5e be c9 71 4d 3f 30 bf 08 3f
       0.3572587 -0.21690452 0.8025175 0.5341673
0001c0 18 46 8f ba 43 36 be be 1b fe 08 be 2c af 3f bf
       -0.0010930924 -0.37150773 -0.13378184 -0.74876666
0001d0 8e 54 b9 be ab eb f9 3d 66 7d 15 3c 43 15 2a be
       -0.36197323 0.12203153 0.009124136 -0.16609673
0001e0 bf 73 b3 3e 8d 84 fd be f6 37 82 bf ef 24 54 bf
       0.35049245 -0.4951519 -1.0173328 -0.82868856
0001f0 a2 11 58 3c 53 da 81 3e 45 7f 73 bf 12 8a 4a bf
       0.013187798 0.2536188 -0.9511607 -0.7911693
000200 c0 cd 29 be 7a 3c ad 3d e1 b5 a8 bc 61 f2 e0 3e
       -0.16582394 0.084588006 -0.02059454 0.4393492
000210 0e 80 2f bb fd 1a b4 be 1f 7b 1c bf 63 6b 2a bf
       -0.0026779207 -0.3517684 -0.6112537 -0.6657011
000220 b1 8c 74 be 99 34 2c 3e de 44 30 bf fc 70 5e bf
       -0.23881795 0.1681694 -0.68855083 -0.8689115
000230 b6 7b e1 3e 8f c1 91 be 3a 71 cb 3e e6 f0 5c 3d
       0.44039696 -0.28467986 0.39734823 0.053940676
000240 f2 9c 88 be 22 7d 84 3e 7a c4 e6 bd c2 c1 4d be
       -0.2668224 0.2587672 -0.11267944 -0.20093444
000250 c4 83 b6 be 51 a9 05 be 6a 71 08 3c d6 bc cc 3e
       -0.35647404 -0.1305287 0.008327821 0.3998782
000260 64 b7 6d be 71 e5 06 bf 22 a2 39 be 73 b9 d7 be
       -0.23214489 -0.5269385 -0.18128255 -0.42133674
000270 cc ec 35 be 77 c1 5e 3d ca 14 12 be 6d 3a 0f 3f
       -0.17766112 0.05438372 -0.14265743 0.55948526
000280 4d 7f 59 3e 56 35 2b 3e 14 a8 48 3e 91 96 2c be
       0.21239968 0.16719565 0.19595367 -0.16854312
000290 e9 8c cb 3e 78 37 04 3f 78 c0 82 3d 7d c7 ed be
       0.39755943 0.5164714 0.06384367 -0.4644126
0002a0 90 af ec bd b4 ce a9 be f4 95 01 bf a3 18 99 be
       -0.115569234 -0.33165514 -0.50619435 -0.2990161
0002b0 5c 95 a3 3e 96 f6 09 3f 8d 7d 21 3f 1c 08 c0 3e
       0.3194989 0.53891885 0.630822 0.37506187
0002c0 66 f6 78 be ba 3f 41 3e a0 2e 91 bd fe 57 bc bd
       -0.24312744 0.18871966 -0.07088971 -0.09196471
0002d0 41 85 4f be e5 3f 31 3f 48 22 98 3e 44 12 bd 3d
       -0.20265676 0.6923812 0.29713655 0.092319995
0002e0 ad 81 19 be 9f dd 88 3e 2f e3 85 bd 43 68 3a bf
       -0.14990874 0.26731583 -0.065374725 -0.7281534
0002f0 c4 7a e6 3e 7e 51 a1 3e d2 6b 07 bf 91 78 f8 be
       0.45015538 0.31507486 -0.52898896 -0.48529485
000300 b0 4d 9a bd e0 96 b5 3c 0e 3d f1 3e 90 13 76 3d
       -0.07534349 0.02216667 0.47116894 0.06007725
000310 ee db 18 be 87 61 7b 3e b1 f2 ca 3c e1 9f 3f 3b
       -0.14927647 0.24548922 0.024773927 0.0029239582
000320 11 8f 97 bd 76 55 ef ba 22 c1 ef 3e 6c 5a 0d 3f
       -0.074003346 -0.0018259722 0.46827036 0.552161
000330 ec 30 54 be b9 4f eb bd 74 87 ae be 35 6e 52 3d
       -0.20721787 -0.11489815 -0.34087718 0.051374633
000340 40 bf 97 3e cd d0 5f 3e 9e 95 8f 3e 5e 2e 9c 3e
       0.296381 0.21856995 0.28043836 0.30504125
000350 a3 10 9e 3e e4 5d 4e 3d c0 1a 9e be 33 fe 12 bf
       0.30872068 0.05038251 -0.30879784 -0.5741913
000360 ee 3c b9 3e c5 81 29 bd e4 f0 d0 3d c3 a6 6c be
       0.36179298 -0.041383523 0.10202196 -0.2311049
000370 18 7a bd be 96 7d 0d 3f 6a 32 46 be 2c ff fa be
       -0.37007213 0.55269754 -0.19355169 -0.49022806
000380 40 39 0e bd 40 c3 81 3d 8a 14 f8 be c0 a5 7d bc
       -0.034722567 0.06336069 -0.4845317 -0.015481412
000390 bf b6 e2 3d 75 a1 a8 3e 6a fe 35 3e b8 8f ac 3d
       0.11070012 0.32935682 0.17772833 0.0842585
0003a0 99 d3 6b 3e e2 7c 66 bd cc e9 3d 3f 47 92 f0 3e
       0.23029937 -0.05627144 0.7418487 0.469866
0003b0 43 b9 b8 3e 7e ae 10 be 7c a4 f1 be 09 48 b8 3c
       0.36078843 -0.14129063 -0.47195804 0.022495287
0003c0 e6 19 e0 3e 34 6b f3 bd 41 8d 0b 3f e3 24 de 3e
       0.4376976 -0.11885682 0.5451241 0.43387517
0003d0 b8 2f 14 be 79 db 00 be e7 a2 a7 3e 43 99 6c bc
       -0.14471328 -0.12583722 0.32741472 -0.014440837
0003e0 81 c1 bb be b4 ca 1e bd e5 ec f4 be 22 55 c7 be
       -0.3667107 -0.03876753 -0.47836986 -0.3893214
0003f0 29 5e a1 be d0 4f aa 3b 47 53 b5 be 14 c8 52 3d
       -0.3151715 0.0051975027 -0.35415098 0.05146034

hidden_layer1.bias f4 [128]
000000 1d 1a 5a 3e 5e 53 15 bd 76 d6 85 be 50 62 79 be
       0.21299024 -0.03645646 -0.26140183 -0.2435391
000010 5f 35 18 3e bb 06 af be e6 ab 03 be a6 90 db 3d
       0.1486411 -0.34184822 -0.12858543 0.10720949
000020 3b 59 98 3e a1 8e f2 3e bb 9e ac be c8 c9 5c be
       0.29755577 0.47374442 -0.33714852 -0.21561348
000030 ef 0e d4 bd 68 37 de be 6b a6 6f be 90 a8 9f 3e
       -0.10354411 -0.43401647 -0.23403327 0.3118329
000040 90 e7 62 3e 1e de a5 3e 8c 14 ca 3b b1 45 de 3e
       0.22158647 0.32396024 0.006167 0.43412545
000050 fe b8 2e 3e ab b6 ae 3e d0 cc 0d 3e 1a da cc 3e
       0.17062756 0.3412374 0.13847661 0.40010148
000060 24 44 ad be cb a0 cf 3d f8 9e 82 3d 71 67 bb 3d
       -0.3384105 0.10138091 0.06377977 0.09150589
000070 89 1f c9 3d 7d 9f 1f be 2d 56 8c 3e 25 92 a6 3e
       0.09820468 -0.15588184 0.27409497 0.32533374
000080 37 50 69 be 34 ca 38 3e 22 6f 9a 3e 06 07 be be
       -0.22784506 0.18045884 0.30162913 -0.37114733
000090 a2 08 17 bf ac c0 d9 3d be 1a c1 3d f5 32 99 bd
       -0.5899755 0.10632452 0.09428929 -0.074804224
0000a0 24 1e 87 bd b4 a7 e0 be 91 2d c7 bd 50 dc 33 3e
       -0.06597546 -0.43877947 -0.09725488 0.17564511
0000b0 79 fe 0d bf 14 a0 92 3e ce cf 83 3e 88 7a 51 be
       -0.5546642 0.28637755 0.2574448 -0.20456898
0000c0 18 ad be be 72 4d 87 3e b6 1b 97 3d 8d e0 02 bf
       -0.37241435 0.26426274 0.07378332 -0.5112389
0000d0 fa a4 ea be d4 4a 00 be dc 82 bc be 43 cf 63 be
       -0.45828992 -0.12528545 -0.36818588 -0.22247033
0000e0 d2 dc f6 be 67 19 bc 3e 3d 14 c4 3d c2 ca 83 be
       -0.48215348 0.3673813 0.09574173 -0.2574063
0000f0 64 af a4 3e a5 c4 a8 be ab 82 01 3e b6 b7 02 bf
       0.32165062 -0.32962528 0.12647502 -0.5106157
000100 96 11 08 bf bf b6 10 3d 62 14 ca 3e a1 46 10 3d
       -0.53151834 0.03533053 0.39468676 0.035223607
000110 8f 4e 89 3d 9c 08 5b 3e c8 79 5a 3e 89 55 8a 3c
       0.06704437 0.21390003 0.21335518 0.01688649
000120 8c 3d e8 be 82 41 0b bf 24 41 bb be f9 91 36 3e
       -0.45359457 -0.5439683 -0.36573136 0.17829122
000130 dd c1 ae 3e eb 9d 55 3e 7a 56 71 3e 10 b4 44 39
       0.3413228 0.20861022 0.23568144 0.00018759095
000140 74 6e a0 3e b7 8d 81 3e 67 1a a2 3e 85 73 ed 3e
       0.3133427 0.25303432 0.31660768 0.46377197
000150 56 b7 a8 be 6b 4d f6 bd 63 e4 39 3e c8 da 76 3e
       -0.32952374 -0.12026485 0.18153529 0.24106896
000160 ba 1f 14 bf 6d d3 90 3e 06 ce b4 bd 43 88 5c 3e
       -0.5786091 0.28286305 -0.08828358 0.21536355
000170 28 08 f0 be 09 a7 55 3e 3d 4c 2e be 0d 83 aa 3e
       -0.46881223 0.208645 -0.1702127 0.3330311
000180 f5 ea 07 3e ec ac 1c be d3 95 08 bf 71 9c 0e 3e
       0.13273223 -0.1530034 -0.53353614 0.13926865
000190 db 9a 13 bf 67 3d de be 26 f4 01 bf 71 09 82 be
       -0.57658166 -0.4340622 -0.50763166 -0.25397828
0001a0 39 80 e7 be 7f 20 fc be 3b 85 d0 be c7 44 c8 3e
       -0.45215014 -0.49243543 -0.40726647 0.39114973
0001b0 ef 8d 63 3d 64 d9 8b 3e f9 23 cc be a4 5a 00 bd
       0.05555528 0.27314293 -0.39871195 -0.03133644
0001c0 06 ee 62 3e 3c ae aa be 74 da 06 bf 58 95 b7 be
       0.22161111 -0.33336055 -0.52677083 -0.35856128
0001d0 ca 9b 69 3e 10 47 d5 3d 0e f3 0b 3e c1 55 13 3e
       0.22813335 0.10413945 0.13666937 0.14388181
0001e0 81 a2 e7 be ad da ab bc 85 1e bb 3e 68 54 a2 3e
       -0.45241168 -0.020978296 0.36546722 0.31705022
0001f0 91 88 2e 3d 67 ea 3d 3e 97 56 57 3e 0a de 51 3d
       0.04261071 0.18546449 0.21029125 0.051237144

hidden_layer2.weight f4 [64, 128]
000000 69 13 9f 3d ee 45 d6 bd 53 ac 1a bd 8b 3c bd 3c
       0.07767374 -0.10462557 -0.037761997 0.023100158
000010 35 da f7 3d 4f 2e 8c bc d7 6d 06 bc d3 5c 67 3c
       0.121021666 -0.017111925 -0.008204899 0.014121252
000020 c8 42 29 bd b7 4b 17 bd b2 1b 0c 3e 5a 77 0d be
       -0.041323453 -0.03693744 0.1368244 -0.1381506
000030 55 7e 25 be 7f 9d eb bd 9e 1a 21 bd 24 67 97 bc
       -0.16161473 -0.11504649 -0.039332025 -0.018481798
000040 2f 02 f8 3d 18 6a ae bc ab 78 0b be 43 23 a8 ba
       0.121097915 -0.021290824 -0.1362025 -0.0012827892
000050 30 1d d0 bc 93 e3 bd bd 1b 1f 9a 3c 37 f5 91 3d
       -0.025404543 -0.09271922 0.01881366 0.07126849
000060 e2 a0 12 be 3c 58 21 be a5 7b 3f be 7b 9e 7a bd
       -0.14319184 -0.15756315 -0.1869951 -0.061186295
000070 69 6f 66 3c 94 85 e5 bd e4 f1 5e 3e 20 c8 79 bd
       0.014064648 -0.11207119 0.21771961 -0.06098187
000080 db 4d 98 3d fd 45 6f 3d c1 c9 b2 3d b4 44 9e 3d
       0.07436725 0.058416355 0.08729888 0.07727948
000090 07 4c 16 be 8b 54 38 bb e5 5e f9 3d 41 61 44 bd
       -0.1467744 -0.0028126563 0.12176303 -0.04794431
0000a0 ed cf 1b be fa f3 53 3d d0 bb 0e bd 41 69 44 be
       -0.15216036 0.051746346 -0.03484708 -0.19180776
0000b0 af 41 63 bd 7e d2 4e be 13 1c 98 3c 2d d1 db bd
       -0.055482563 -0.20197484 0.018568074 -0.107332565
0000c0 81 ce 53 bd 07 28 29 be 20 42 21 be a6 ce b3 3d
       -0.05171061 -0.16519175 -0.15747881 0.087796494
0000d0 0d a2 b4 3d dc b6 aa 3c 31 4a ab 3d 45 4d 64 bd
       0.08819971 0.020839147 0.0836376 -0.055737752
0000e0 5e d6 5e bb 47 cb c1 bc 25 1a 3e be ca 29 82 bd
       -0.0034002285 -0.0236565 -0.18564661 -0.06355627
0000f0 9f 8d 36 bc e0 de 8e 3d 15 3a 88 bd 37 23 a6 3c
       -0.011142164 0.06976104 -0.06651703 0.020280464
000100 a4 20 0a 3b 18 0f 7d bc b4 4a d0 bc 8e 75 01 be
       0.0021076584 -0.015445493 -0.025426246 -0.126425
000110 19 65 14 be 87 d1 1c be ac 72 56 bc fb 70 48 3e
       -0.1449169 -0.15314303 -0.013088863 0.19574349
000120 60 d8 09 3e 88 1b a0 3d 8d 48 a7 bd aa fc 52 bd
       0.13461447 0.07817751 -0.08168135 -0.05151049
000130 7c 21 51 be 93 65 69 be 99 2e 52 bd 4b d2 0b bc
       -0.2042293 -0.22792654 -0.05131397 -0.0085340245
000140 00 c4 76 bd 52 01 3c bc 9d 45 12 be cf 7b 19 be
       -0.060245514 -0.011474924 -0.14284368 -0.14988635
000150 a5 98 02 3e 07 2a 11 3d 23 02 80 bc 58 6c 30 be
       0.12753542 0.03544047 -0.015626019 -0.1722883
000160 79 de a2 3d fb 6b 5a 3b 5a db 5a 3d 89 5d ec bc
       0.079525895 0.0033328522 0.053431846 -0.028853195
000170 b8 88 2c 39 66 df d9 bd 8d 95 ed bd 2f 62 7a bc
       0.0001645413 -0.10638313 -0.1160079 -0.015282198
000180 3d 7d 0b bc b6 31 bd bd eb d9 6c bc ab 4e 1a be
       -0.008513746 -0.09237997 -0.014456253 -0.15069072
000190 6b 64 2d bd 0d 8d f7 bc c3 32 f3 bc 0a 92 9e bb
       -0.042332094 -0.030218625 -0.029687291 -0.0048391866
0001a0 d8 fb 6b 3d bc 37 85 3c 15 90 0b 3d 4c 46 0c bd
       0.057613224 0.016261928 0.034072954 -0.034246728
0001b0 53 a2 b0 3c 01 03 61 3c 6a d7 90 3d 89 60 b9 3b
       0.021561777 0.013733626 0.07072337 0.00565726
0001c0 4f ff 28 be 6d f1 84 3d a8 f6 9a 3d e5 c4 43 3d
       -0.16503642 0.06491361 0.07566577 0.047795195
0001d0 b7 1c e9 bd 72 55 6d 3c 0f 1e 47 3d 1f f8 fe 3d
       -0.1138243 0.014485704 0.04861265 0.12449669
0001e0 cd f3 25 3e f6 02 ae 3c 32 e1 34 be 7f f4 da bc
       0.16206284 0.021241646 -0.1766403 -0.026727913
0001f0 bb 9f e4 bd f0 54 c8 3c b1 49 ac bd 95 b1 dd bc
       -0.11163279 0.024454564 -0.08412493 -0.027062217
000200 27 ac b5 bd 2a 90 ee bd 19 10 be 3d 4c 1a ea 3d
       -0.08870726 -0.11648591 0.09280414 0.11430797
000210 60 ed 25 bd 3c 2b 98 bd 8d 89 53 bd 94 bd 86 bd
       -0.04050958 -0.07430121 -0.05164485 -0.06579128
000220 49 24 14 3c 39 64 9d 3c 5d fc 11 3c ef a6 4c bd
       0.009041854 0.019212829 0.008910266 -0.049963888
000230 fc 46 0d bd 2f da ae 3d f2 84 56 3d 9d a6 a2 bd
       -0.034491524 0.08537709 0.05237288 -0.07941935
000240 42 ac 64 3b 24 c6 e8 3c 74 a6 c4 bd 64 d0 79 bd
       0.0034892713 0.028414793 -0.09602061 -0.060989752
000250 7f 1f 84 bd 9b 02 16 bd 8e 07 8a 3c 44 b7 cc bd
       -0.0645132 -0.03662358 0.016849305 -0.09995893
000260 1f be ac 3d 24 4b 8e bc 02 8e ee bc ea 9c 6e bc
       0.084347 -0.017369814 -0.029120449 -0.014563778
000270 5e 97 13 bb 42 18 89 3c 7e 1f 83 3c 59 58 4f 3a
       -0.0022520642 0.0167352 0.016006228 0.0007909588
000280 eb ce 8c 3d 25 13 d1 bd 56 d3 8a bc f9 9c d2 3c
       0.06875404 -0.1020873 -0.016946476 0.025709616
000290 ad 74 47 3d 8e 51 f5 bc 4f 3e ba 3c be b3 a3 bd
       0.048695255 -0.029946115 0.02273479 -0.079932675
0002a0 6a eb 0b 3d f5 8d 0c 3d de c6 a0 bd 5b 99 33 3d
       0.034160055 0.03431507 -0.07850431 0.043847423
0002b0 48 49 6a bc 55 1d 19 3c 41 2f a4 bd 82 ec ac 3d
       -0.014299698 0.009345372 -0.080168255 0.08443548
0002c0 f6 7a 50 bc af ea c8 3b 9d 6e a5 bd 71 20 1b 3d
       -0.012724629 0.006131492 -0.080777384 0.037872735
0002d0 59 2c 74 3d 20 aa 9e 3d 82 2e a4 bd c4 3b ac 3d
       0.059612606 0.077472925 -0.08016683 0.08409837
0002e0 84 30 3f bb 5c d3 8d 3b 34 17 24 bc 6f 57 92 3d
       -0.0029173205 0.0043281745 -0.010015298 0.07145583
0002f0 1c d5 6b 3c 85 a0 92 bd cd 4c a1 3c 16 c9 95 bd
       0.014394071 -0.07159523 0.019689942 -0.07313745
000300 c3 3e a4 bd 96 1e d9 bc ff 4c f3 bd 6f ab 49 bc
       -0.08019783 -0.026503842 -0.1187992 -0.012308939
000310 fb d5 bb bd f4 9e 02 3d af 1b 91 bb dc a6 0b bd
       -0.09171673 0.03188987 -0.004428349 -0.034094676
000320 6c b4 b5 bc 66 df 40 3d 82 7e a3 3d e0 1a 3b 3d
       -0.022180758 0.04708805 0.07983114 0.045679927
000330 f8 ea 85 bd db 5b 22 3d 38 a8 87 3c 27 47 0f bd
       -0.06538957 0.03963838 0.016559705 -0.034979966
000340 58 1e 12 3d ab 82 c0 bd 91 4c f9 bd 8a 9d b2 bd
       0.03567347 -0.09399923 -0.12172807 -0.087214544
000350 6c 41 42 3d d5 4c 6f bb 0b c5 04 3d 7f ec 77 bb
       0.047425672 -0.0036514301 0.032414477 -0.0037830172
000360 cc 8b 8d bd 19 c2 2d bb 65 45 03 3d df c0 88 bd
       -0.0691143 -0.0026513396 0.0320486 -0.06677412
000370 a5 0f 9c 3d 62 66 7c bd d9 af 4b 3d 2c d9 d8 3c
       0.076201715 -0.061621077 0.04972825 0.026470743
000380 b1 dd 8c bd 39 ee 06 3d 89 91 12 bd 69 5b 84 bd
       -0.06878222 0.03294203 -0.035783324 -0.064627476
000390 c8 0c a0 3d 10 7c cc bc 2a d4 2d bd 80 ea d8 bc
       0.07814938 -0.024961501 -0.042438664 -0.026479006
0003a0 9e 86 74 bd 8d ad 82 bd 79 2c 6b bd 3b 71 99 bd
       -0.059698693 -0.063807584 -0.05741546 -0.074923
0003b0 77 08 f5 bd 04 0d 1e bd ac 46 08 bc c5 86 8b bd
       -0.11964505 -0.03858663 -0.008317631 -0.068128146
0003c0 60 81 b2 bc 90 8c 71 bd ae c0 ad bd 47 4d ad bd
       -0.021790206 -0.05897194 -0.08484016 -0.08462005
0003d0 af f3 e3 3c af c4 45 3d 84 4f cc bd 75 b0 81 bd
       0.027826158 0.048283275 -0.09976104 -0.06332485
0003e0 39 65 51 bd f2 4b 1b 3d 5b 0f bd bd ca 81 d1 bd
       -0.051121924 0.037914224 -0.092314444 -0.102298334
0003f0 6e 8c 9c bd bb 42 8b 3c bb b0 a0 3c 3d aa b5 bc
       -0.07643972 0.016999593 0.019615522 -0.022175903

hidden_layer2.bias f4 [64]
000000 d2 f3 e2 bd 61 90 af bc 67 8a 84 3d 72 f4 7f bd
       -0.11081661 -0.02143115 0.06471711 -0.06248898
000010 b9 b6 c2 bd a5 64 d0 bd ea 03 f7 3d f1 3e 15 bd
       -0.09507508 -0.101754464 0.120612934 -0.03643698
000020 e1 90 88 3d 9c 21 2a 3d 08 5b 61 bd b6 e4 8a bc
       0.066682585 0.04153596 -0.055018455 -0.016954761
000030 aa 35 5e bd 2c d8 3b bb 7d 60 2f 3d b0 86 02 3d
       -0.054250397 -0.0028662784 0.042816628 0.03186673
000040 82 c8 2e 3d cd e4 a7 bd b1 b5 ce bd 6e 7b 04 3d
       0.042671688 -0.08197937 -0.10093249 0.032344274
000050 64 4d 8d bd c3 df 90 bd ef 60 57 3d 8a af c8 bd
       -0.06899527 -0.07073929 0.052582677 -0.097991064
000060 99 fe 60 bd d8 52 9d bd 5c e9 34 3d 11 d6 bf bd
       -0.054930303 -0.07681817 0.04416786 -0.09367002
000070 5d f8 d0 3d cf cc a5 bd ae 96 38 3d 66 ca 86 3d
       0.102036215 -0.08095705 0.045065574 0.06581573
000080 bc d0 d3 3c a5 8b 53 3d e0 a6 07 bd 37 0e df bb
       0.025856368 0.051646847 -0.03311813 -0.0068071145
000090 99 5b 61 3d fc 36 d6 bd 5b e8 0c 3c 36 04 96 bd
       0.055018995 -0.10459706 0.00860032 -0.07325022
0000a0 a9 a9 d0 3b cc a4 9a bd fc 4a 80 bc 26 ab 12 3c
       0.0063678813 -0.07550964 -0.015660755 0.008951938
0000b0 ee 92 c9 bd cd b3 21 bd 66 ef 71 bd cc 12 ff bd
       -0.09842478 -0.039478112 -0.0590662 -0.12454757
0000c0 eb 35 d2 bd 9d fe f0 bd 16 1f 5a bc 71 08 00 bd
       -0.1026419 -0.11767314 -0.0133130755 -0.03125805
0000d0 c9 de d6 bd fe e5 49 3d 8b c3 42 3c 23 8a e9 3c
       -0.10491712 0.049291603 0.011887441 0.028508252
0000e0 9a 24 2d bd e1 d1 ab bd 57 57 12 be 57 0e 9e 3d
       -0.042271234 -0.083896406 -0.1429113 0.07717579
0000f0 63 c5 c0 bc 02 54 70 3d 4d 67 4a bd 35 87 e4 bd
       -0.023531621 0.058673866 -0.04941492 -0.11158601

output_layer.weight f4 [2, 64]
000000 bf f0 d8 3c 45 a1 11 bd 0e a1 2a 3e 29 e6 df bd
       0.026481984 -0.03555419 0.16663 -0.109325714
000010 49 07 1e bd 1a 1d a9 bc 06 0b 48 be 16 db 69 bd
       -0.038581166 -0.02064376 -0.19535455 -0.057093702
000020 7b c5 69 3e ab ea a6 3d a0 3d 0c be 86 24 a1 bd
       0.22829239 0.08150228 -0.13695383 -0.078682944
000030 cf 6b 20 3c 46 18 12 be 06 a1 4e 3d e8 c0 13 be
       0.009791329 -0.14267072 0.050446533 -0.14429057
000040 0b 90 7e bd 66 53 f8 3c 02 c6 97 3d 2b 2e 80 be
       -0.06214909 0.030313205 0.07410814 -0.25035223
000050 d0 c3 1f bd 66 47 b1 bd 39 63 6f 3d 71 59 8e bd
       -0.0390051 -0.08656196 0.058444235 -0.06950653
000060 74 0f a0 3d 36 ed df ba d6 ee 23 3d af 0f 5c 39
       0.078154474 -0.0017084244 0.040022694 0.00020986678
000070 73 7e 6c 3e 4c 23 1d 3d 73 77 fb bc 05 f7 25 3d
       0.23095112 0.03836374 -0.030696606 0.04051878
000080 a9 fd 31 3e 91 60 2c bd 38 05 26 3d 93 aa 0e 3c
       0.1738192 -0.04208428 0.04053232 0.00870766
000090 7d 08 9a 3d ff 82 f8 3d 12 2d 80 3d 39 33 a4 3d
       0.0752115 0.121343605 0.062585965 0.080175824
0000a0 0e 23 18 3d ba a2 8b bd bf 32 a9 bc bc 3d 71 bd
       0.037142806 -0.06818147 -0.02065408 -0.058896765
0000b0 54 4c 58 3d a0 53 7b bc 1f 18 53 3e ff 88 e3 bd
       0.052807167 -0.015339762 0.2061467 -0.11110114
0000c0 72 f6 68 3d ab 9d 1b 3e 1d 45 9d bd 63 28 64 3b
       0.056875654 0.15196864 -0.07679198 0.0034814111
0000d0 5f a7 2d bd 8a 39 0c 3d c1 64 85 3e 8d 8c 44 3c
       -0.042395946 0.03423456 0.26053432 0.011996401
0000e0 19 47 25 3e f6 59 88 3d 2d 6a 8b 3d f2 79 1c be
       0.16140403 0.06657784 0.06807361 -0.15280893
0000f0 c3 b4 19 3e 90 b9 6a bd 2e b4 6e 3c e0 26 94 3d
       0.15010361 -0.057305872 0.014569325 0.07233977
000100 d2 9b d4 bd c5 c3 6e 3c 5f 28 62 be 54 09 c4 bd
       -0.10381283 0.014573042 -0.22085713 -0.09572092
000110 f0 7a 9e 3c ce 37 8c 3d 49 06 42 3e 70 53 d4 bd
       0.01934573 0.068465814 0.1894771 -0.10367477
000120 10 72 55 be 8f 7a 07 3d 17 b4 69 bd 25 8f 18 be
       -0.20844293 0.033075865 -0.057056513 -0.14898355
000130 fa ae 0e 3d b1 e2 42 3e fa 0c f0 bd bd 2e 7f 3e
       0.03483484 0.19031788 -0.11721225 0.24920173
000140 d6 9c 0d 3d 40 a0 5c 3d b9 4e 18 3c a2 f5 8d 3d
       0.0345734 0.053863764 0.009296113 0.06931616
000150 e8 ef 46 bd 97 f4 97 bd 01 a9 1b be 2b 83 5a bc
       -0.048568636 -0.07419699 -0.15201189 -0.013336937
000160 5f b9 e7 3d c7 ae d0 3d 4e 96 22 3d 26 fa eb 3b
       0.113146536 0.10189586 0.039694123 0.007201451
000170 c4 62 bb bd 0a 37 a3 3c d6 29 46 3d 62 fb d8 3d
       -0.091496974 0.019923706 0.04837974 0.105948225
000180 14 89 2e be ec ca 51 3c b8 31 44 3d 81 99 1d 3d
       -0.17044479 0.012804728 0.047898978 0.03847647
000190 52 b4 08 3e 0e 12 a3 3d 72 73 91 39 06 40 17 be
       0.13350037 0.07962428 0.0002774257 -0.14770517
0001a0 d2 4c 64 bd bf 19 44 3d cf 83 2b 3d f4 1e 6f 3d
       -0.055737324 0.047876116 0.04187375 0.05837913
0001b0 99 0d a1 3d 6b 56 30 bd 45 69 3f bd 3b 81 81 bd
       0.07863922 -0.043051165 -0.046731252 -0.06323477
0001c0 6a 20 14 3d ae 31 bf 3d e6 6e 1c bc 24 ac 8b 3d
       0.036163725 0.093356475 -0.009547925 0.068199426
0001d0 a4 37 22 bd 66 c3 86 3d dc d7 15 be 98 29 95 bd
       -0.039603844 0.06580238 -0.14633125 -0.07283324
0001e0 9c 8c 4a be 2e 70 92 3d a8 80 13 3d fb aa 12 3e
       -0.197802 0.07150303 0.036011368 0.14323036
0001f0 8b 41 ac bd 00 ff a2 bc 55 08 01 3d 14 2d a2 3d
       -0.08410939 -0.019896984 0.031502087 0.07918754

output_layer.bias f4 [2]
000000 f8 15 45 3d 6c b9 15 bd
       0.048116654 -0.036553785
